python/binarypath/binaries/gat_000004.pth (torch, 372431 bytes, 8 tensors)

gat_net.0.scoring_fn_target f4 [1, 8, 8]
0.059067942 -0.022767173 0.10763529 0.004423467 0.020003704 0.0030434239 0.07122339 0.07071182
0.08439437 0.10885172 -0.094725214 0.006999341 -0.015705066 0.082572035 0.028175846 -0.049286928
0.09368759 -0.03234022 0.017410759 0.0033822085 0.020512365 0.05904115 0.0049134567 -0.051161114
-0.037897833 0.16576995 0.027231138 0.07452201 -0.08698568 0.0013435369 -0.04579743 -0.058031477
0.06999303 -0.09834368 0.01824239 -0.09733169 -0.003798347 0.09161193 0.19462809 -0.0025643427
0.015283642 -0.099130854 -0.19500075 0.07757735 0.09092707 -0.0795937 0.072693385 -0.007950294
0.12853765 -0.022440625 -0.06746768 0.035720292 0.009842545 0.15548626 -0.03695895 -0.031876437
-0.010560079 0.06611759 -0.08342331 0.03475947 0.008495696 -0.04889196 -0.01246388 0.077483974
00000000: 3af1 713d 3982 babc e46f dc3d bbf2 903b
00000010: cfde a33c 2e74 473b 92dd 913d 5cd1 903d
00000020: f5d6 ac3d a7ed de3d 4bff c1bd ba5a e53b
00000030: e9a7 80bc 871b a93d 08d1 e63c 17e1 49bd
00000040: 47df bf3d 2e77 04bd 02a1 8e3c 0ba8 5d3b
00000050: 8c09 a83c 22d5 713d 1001 a13b 518e 51bd
00000060: c23a 1bbd 99bf 293e d613 df3c ff9e 983d
00000070: 8c25 b2bd 9e19 b03a 1696 3bbd 6ab2 6dbd
00000080: 8158 8f3d 6968 c9bd 1171 953c d655 c7bd
00000090: b0ed 78bb 099f bb3d 964c 473e 880e 28bb
000000a0: 3e68 7a3c 1e05 cbbd 47ae 47be e0e0 9e3d
000000b0: f937 ba3d 0602 a3bd 45e0 943d f341 02bc
000000c0: 609f 033e 67d5 b7bc 7f2c 8abd 714f 123d
000000d0: a042 213c ca37 1f3e 4562 17bd de90 02bd
000000e0: 2e04 2dbc a968 873d d7d9 aabd f25f 0e3d
000000f0: 8831 0b3c f042 48bd 4d35 4cbc ebaf 9e3d

gat_net.0.scoring_fn_source f4 [1, 8, 8]
0.10219229 -0.07388209 -0.055705022 0.17637718 0.09214956 -0.3018906 0.15070662 0.14097573
0.16630016 0.18776818 -0.47734898 -0.09152484 -0.12115202 0.5140464 0.043077786 0.14963937
0.1452083 -0.26947019 -0.10071747 -0.2299585 0.35000268 0.24396303 0.16004667 -0.003881453
0.1294443 0.12996227 -0.4786813 0.25797155 -0.09190458 0.19172254 -0.24887228 -0.04290059
0.3167958 -0.4055903 0.346788 -0.35328043 0.14239131 0.26278192 0.09151333 -0.20788471
0.0053391336 -0.07264575 -0.34982178 -0.024581114 0.18649796 0.20919044 -0.07682719 0.3205978
0.25277948 -0.43439165 0.0720973 0.5223396 -0.012214205 0.23167095 0.085022494 0.1557857
-0.22231914 0.25584665 -0.08904881 0.1242386 0.0021668882 -0.32291827 0.06137323 0.3194651
00000000: 314a d13d 7e4f 97bd f32a 64bd 389c 343e
00000010: e9b8 bc3d 6891 9abe d652 1a3e f15b 103e
00000020: 974a 2a3e 4d46 403e 1667 f4be 6071 bbbd
00000030: 8d1e f8bd 8b98 033f 5572 303d 103b 193e
00000040: 7cb1 143e fff7 89be f644 cebd 3e7a 6bbe
00000050: 8d33 b33e 72d1 793e 46e3 233e fa5f 7ebb
00000060: 0c8d 043e d414 053e b715 f5be d914 843e
00000070: 7838 bcbd ea52 443e 60d8 7ebe 87b8 2fbd
00000080: 0f33 a23e 88a9 cfbe 328e b13e 2ce1 b4be
00000090: 07cf 113e 5a8b 863e 576b bb3d bbdf 54be
000000a0: e6f3 ae3b 4cc7 94bd d71b b3be 555e c9bc
000000b0: 52f9 3e3e 0536 563e 9357 9dbd 6525 a43e
000000c0: 506c 813e 9568 debe c0a7 933d 0cb8 053f
000000d0: 171e 48bc 263b 6d3e 4620 ae3d 4986 1f3e
000000e0: a1a7 63be 55fe 823e 395f b6bd cf70 fe3d
000000f0: 5a02 0e3b 8b55 a5be 7f62 7b3d ee90 a33e

gat_net.0.bias f4 [64]
0.00077874295 -0.011200584 0.021451807 0.014422086 0.015394108 0.016792241 0.012861588 -0.00211635
-0.0008752538 0.032166082 -0.0008703766 0.01707716 -0.036770817 0.00930041 -0.012817439 0.010511661
-0.022041883 -0.008802706 0.010362942 -0.009674404 -0.02934223 0.0100160055 0.024714783 0.008925767
0.003103383 0.00020960544 0.016466284 -0.022555264 0.023032743 0.013548539 -0.0015880333 0.0028802273
-0.015777363 0.016664393 -4.9106835e-05 0.02470939 -0.0059352075 -0.031448573 0.00095757056 0.022635467
0.025450218 0.0055746585 0.012670915 -0.010291552 -0.021531088 -0.019448822 -0.0039240494 -0.0015072104
-0.009921219 0.010825426 -0.002341332 -0.013123313 0.0048317714 -0.013371206 -0.014830189 0.0021541663
0.020052964 0.008412218 0.011833947 0.010103012 0.016404832 0.02578061 -0.017291674 0.01421166
00000000: 8e24 4c3a a782 37bc b3bb af3c 9d4a 6c3c
00000010: 9237 7c3c e28f 893c 69b9 523c 76b2 0abb
00000020: 4a71 65ba 95c0 033d fc29 64ba 66e5 8b3c
00000030: ff9c 16bd bf60 183c 3c00 52bc 1a39 2c3c
00000040: 2e91 b4bc 3a39 10bc 54c9 293c 6481 1ebc
00000050: 1e5f f0bc 2c1a 243c a876 ca3c 613d 123c
00000060: 2062 4b3b 88c9 5b39 4de4 863c d1c5 b8bc
00000070: 2aaf bc3c b1fa 5d3c 8e25 d0ba 32c2 3c3b
00000080: 873f 81bc c483 883c 10f8 4db8 596b ca3c
00000090: 217c c2bb 38d0 00bd 7905 7b3a 046e b93c
000000a0: fa7c d03c a0ab b63b ab99 4f3c e69d 28bc
000000b0: f761 b0bc 2353 9fbc 5095 80bb 978d c5ba
000000c0: 9c8c 22bc 215d 313c 0871 19bb 2a03 57bc
000000d0: d653 9e3b e712 5bbc 52fa 72bc ea2c 0d3b
000000e0: 1d46 a43c 66d3 093c 2ce3 413c 1b87 253c
000000f0: 6d63 863c dc31 d33c 45a7 8dbc 06d8 683c

gat_net.0.linear_proj.weight f4 [64, 1433]
0.0023450057 0.03859387 -0.04372132 -0.015175724 -0.10046534 0.06574093 -0.05018892 -0.014807463
-0.09210048 0.062724866 -0.03163897 -0.019112665 -0.10599593 0.07389174 -0.009788308 -0.16794355
0.037986085 0.08583538 0.104036555 0.19890743 7.034572e-09 -0.11796324 -0.03472877 0.1308224
-0.028298318 -0.0027626886 -0.1405554 0.022254698 -0.031336796 -0.07824362 0.03459261 0.025554216
0.06270658 -0.024194982 0.005370583 -0.116127685 -0.009815566 -0.05992739 -0.029187208 -0.13168278
-0.1470548 -0.03407693 0.04689343 -0.02096888 0.06463168 -0.0348907 0.007129521 -0.04702634
0.11798928 -0.037981447 -0.0069029094 -0.20850806 -0.16491763 0.010713838 0.006884616 0.097563274
-0.16543856 -0.07339453 0.057327006 -0.018819168 -6.0529177e-09 0.16114034 0.11787259 -0.13337925
-0.07489412 -0.18309967 0.005342346 0.07113734 -0.023862619 -0.007462873 -0.056897696 -0.1174506
0.04751473 0.027616557 0.03628506 0.12837699 -0.0067828987 0.023572112 0.019382397 -0.0029090175
-0.059466794 -0.057389855 -0.15607832 -0.023019338 0.011580557 0.24575382 0.10764345 0.079531655
0.14353412 -0.090172976 0.01872425 0.03597947 -0.0069563705 -0.10094342 0.051748175 -0.076402634
-0.027706109 0.09391918 -0.032299656 0.14301468 0.074862845 0.06912937 -0.06874596 0.06622947
-0.06737871 0.014505177 0.04771228 -0.0147591345 -0.012957745 0.059993833 -0.0030290633 -0.04062204
0.010421139 3.8778646e-05 0.12895577 -1.9409577e-05 0.112294406 -0.0076826173 0.26486868 -0.013294675
0.06562256 0.11291505 -0.015598884 0.08857578 0.010727562 0.016824095 0.1293238 -0.04185733
0.054082602 -0.060575824 0.10177887 -0.013609609 0.07984402 -0.0065209474 0.006312079 0.044003177
-0.048105344 -0.022327855 -0.05921992 -0.0080331825 0.26478055 -0.038187023 0.031737383 0.013853697
-0.012181907 -3.5657133e-10 0.12536919 0.0018811168 0.0871347 -0.112555936 -0.03473979 -0.11031129
-0.08301551 -0.0515416 -0.033906683 -0.12901337 0.07274666 0.030011477 0.06626951 0.016635831
0.044890027 -0.075241074 0.027008286 0.038240153 0.06251175 -0.047394168 0.024774086 0.05285465
-0.17496993 0.07476406 0.0132031515 -0.020392386 -0.060041554 -0.060076058 -0.055595767 0.032021217
0.09698113 -0.081177935 -0.026587095 -0.0051200907 -0.011727457 0.020989638 -0.06408378 -0.047218017
-0.001206185 0.003528712 -0.10454315 -0.031489067 0.013978281 -0.10555555 -0.060434576 0.010574049
0.049332503 0.018709244 -0.0059114476 -0.07340845 -0.2262091 -0.017646812 -0.0008645903 0.0218619
-0.011682248 0.013820702 0.024586493 0.08726967 -0.05353243 -0.012814647 -0.0007723451 0.04383245
0.07936582 -0.001998365 0.021874277 -0.25043598 -0.117251 0.047804065 0.007848089 -0.0032230678
0.025238587 0.014968704 0.017068807 0.020154294 0.02096632 -0.030569052 -0.051581126 -0.0010229617
-0.04436289 0.13595162 0.041063752 0.107497305 0.04741098 -0.043456312 0.055572215 0.107203774
-0.10833906 0.009914177 -0.084596366 0.03556416 -0.06081041 -0.03763051 -0.06191285 -0.03102325
0.12296273 0.0048737666 0.018028172 -0.005571684 -0.07826903 -0.007613231 -0.017202048 -0.03236739
0.0766551 0.022316437 -0.048217624 -0.06552217 -0.029107163 0.042003587 -0.09200259 -0.01137656
00000000: abae 193b 9b14 1e3d 2015 33bd 9aa3 78bc
00000010: c6c0 cdbd 2ea3 863d e692 4dbd 009b 72bc
00000020: 2d9f bcbd e575 803d dd97 01bd 2a92 9cbc
00000030: 6514 d9bd 8d54 973d 245f 20bc 65f9 2bbe
00000040: 4c97 1b3d 76ca af3d 1e11 d53d 64ae 4b3e
00000050: c0b4 f131 b696 f1bd c13f 0ebd 4ff6 053e
00000060: e0d1 e7bc 390e 35bb c1ed 0fbe 7c4f b63c
00000070: 035b 00bd 313e a0bd fbb0 0d3d 1357 d13c
00000080: 4f6c 803d 8e34 c6bc b7fb af3b 5ad4 edbd
00000090: 78d1 20bc 6c76 75bd 031a efbc dad7 06be
000000a0: 8995 16be 4094 0bbd 5313 403d eec6 abbc
000000b0: 9d5d 843d 8de9 0ebd c29e e93b b19e 40bd
000000c0: 5da4 f13d 6f92 1bbd cd31 e2bb 2383 55be
000000d0: 2be0 28be 1889 2f3c 5898 e13b 41cf c73d
000000e0: ba68 29be df4f 96bd b9cf 6a3d a82a 9abc
000000f0: 07fa cfb1 f901 253e 2f67 f13d 9294 08be
00000100: 1762 99bd 7b7e 3bbe d90e af3b 74b0 913d
00000110: 8a7b c3bc 1e8b f4bb 8f0d 69bd f189 f0bd
00000120: ce9e 423d 1e3c e23c a59f 143d 4275 033e
00000130: 1443 debb 4d1a c13c d5c7 9e3c 37a5 3ebb
00000140: 7493 73bd a011 6bbd ffd2 1fbe 0d93 bcbc
00000150: 60bc 3d3c e4a6 7b3e 2b74 dc3d 7ee1 a23d
00000160: 9cfa 123e 9cac b8bd 9963 993c 355f 133d
00000170: 44f2 e3bb 6cbb cebd e5f5 533d fc78 9cbd
00000180: ecf7 e2bc b358 c03d a54c 04bd 7172 123e
00000190: b151 993d b393 8d3d afca 8cbd 51a3 873d
000001a0: d9fd 89bd 1fa7 6d3c f46d 433d 4cd0 71bc
000001b0: b94c 54bc 18bc 753d 4083 46bb 4c63 26bd
000001c0: 6dbd 2a3c 41a6 2238 fb0c 043e c0d1 a2b7
000001d0: 9cfa e53d 77be fbbb de9c 873e e9d1 59bc
000001e0: 1f65 863d 0140 e73d 7692 7fbc 3867 b53d
000001f0: a8c2 2f3c afd2 893c 756d 043e 9772 2bbd
00000200: b885 5d3d 5b1e 78bd 7171 d03d d6fa 5ebc
00000210: 4385 a33d acad d5bb 8ed5 ce3b ad3c 343d
00000220: 1c0a 45bd e8e8 b6bc 9690 72bd 9c9d 03bc
00000230: 5191 873e ff69 1cbd 0fff 013d 9efa 623c
00000240: 9f96 47bc f406 c4af c860 003e ce8f f63a
00000250: ad73 b23d ba83 e6bd 4f4b 0ebd e3ea e1bd
00000260: 0904 aabd 491d 53bd bce1 0abd 151c 04be
00000270: 33fc 943d a1da f53c 4fb8 873d de47 883c
00000280: 9bde 373d fe17 9abd 7b40 dd3c b5a1 1c3d
00000290: 2906 803d 6320 42bd 06f3 ca3c 1e7e 583d
000002a0: 512b 33be e61d 993d 0852 583c ef0d a7bc
000002b0: 22ee 75bd 5012 76bd 63b8 63bd ae28 033d
000002c0: 0b9e c63d 9e40 a6bd 2ecd d9bc 6fc6 a7bb
000002d0: 8524 40bc 76f2 ab3c 5b3e 83bd ae67 41bd
000002e0: da18 9eba f741 673b b81a d6bd aefa 00bd
000002f0: 2905 653c 822d d8bd 3f8a 77bd c73e 2d3c
00000300: e110 4a3d 2144 993c d1b4 c1bb 2b57 96bd
00000310: 5ca3 67be 0c90 90bc aca5 62ba ba17 b33c
00000320: e666 3fbc 3a70 623c 9d69 c93c 71ba b23d
00000330: d244 5bbd 86f4 51bc 3477 4aba a889 333d
00000340: 8c8a a23d 00f7 02bb af31 b33c 2539 80be
00000350: 4b21 f0bd 32ce 433d 4595 003c 1b3a 53bb
00000360: 27c1 ce3c 4c3f 753c e2d3 8b3c 9e1a a53c
00000370: 8fc1 ab3c f36b fabc bb46 53bd e614 86ba
00000380: ddb5 35bd e736 0b3e 7732 283d 8c27 dc3d
00000390: 0432 423d 3fff 31bd b19f 633d a78d db3d
000003a0: dee0 ddbd 126f 223c dc40 adbd baab 113d
000003b0: 5614 79bd 7322 1abd 5498 7dbd 7924 febc
000003c0: e2d3 fb3d 1eb4 9f3b d1af 933c ac92 b6bb
000003d0: 834b a0bd 6978 f9bb 4feb 8cbc ab93 04bd
000003e0: 59fd 9c3d f6d0 b63c d87f 45bd 7d30 86bd
000003f0: 2572 eebc f40b 2c3d db6b bcbd c064 3abc

gat_net.1.scoring_fn_target f4 [1, 1, 7]
0.11925258 0.0068250457 -0.13441707 -0.03386896 -0.10808272 0.07755269 0.094616026
00000000: b23a f43d a2a4 df3b a1a4 09be 2eba 0abd
00000010: 795a ddbd f2d3 9e3d 0cc6 c13d

gat_net.1.scoring_fn_source f4 [1, 1, 7]
0.47627518 0.39010927 0.168515 0.29626837 0.26079565 0.30260655 0.34548324
00000000: 57da f33e 67bc c73e 328f 2c3e 7db0 973e
00000010: 0287 853e 3fef 9a3e 2ee3 b03e

gat_net.1.bias f4 [7]
0.003765033 -0.12783389 0.06861027 0.05431933 -0.030899322 0.04702693 0.031288136
00000000: c6be 763b e3e6 02be 8b83 8c3d f27d 5e3d
00000010: 9320 fdbc 4f9f 403d fd27 003d

gat_net.1.linear_proj.weight f4 [7, 64]
-0.5562274 0.70131904 -0.58940935 -0.10371567 0.24225001 0.18338011 -0.31159672 -0.19706464
0.21043584 0.31971052 0.31047305 -0.4251853 0.44616917 -0.42185226 -0.1830852 0.43143493
-0.62416154 -0.634904 0.12739587 0.42278436 -0.12804508 -0.2839441 -0.4099683 0.3634062
0.46590665 -0.021106612 -0.78172797 -0.1327044 0.6203757 0.39646202 -0.29773122 0.030537402
0.73953444 0.47745842 0.20346466 0.054286975 0.88570315 -0.45018965 -0.3855027 0.23835762
-0.6780662 -0.57142526 -0.35653344 0.60591215 0.34349683 -0.367922 0.49121886 -0.06595702
0.04491401 0.4560413 -0.62796986 0.5221624 0.15531121 0.41026625 -0.27632612 -0.6653227
0.24603672 -0.23465171 0.24159485 0.39561227 -0.22452606 0.18731852 0.16688547 -0.36418685
-0.3308739 -0.5824395 0.33182964 -0.39342678 -0.5673877 -0.523109 -0.42687175 0.09947588
-0.104276545 -0.91112703 0.5053034 -0.5031989 0.58203113 -0.64794314 0.3913764 0.5150732
0.10173537 0.037575837 0.1413741 -0.7336504 -0.57495403 0.29107088 0.6209875 0.038164247
0.38186708 0.3278336 -0.09927007 0.639914 -0.42116663 0.32661894 -0.6635538 -0.5681684
0.39761505 -0.61251354 0.13709554 -0.7297903 -0.44455984 -0.57247984 0.7093684 0.11836674
0.14640859 0.09814558 0.67851335 0.35574564 -0.8501829 0.4010779 0.4149751 -0.7204765
-0.40236574 0.39610904 0.39737806 -0.36532125 -0.5882729 -0.618838 -0.43490684 0.5444333
0.45043677 -0.4638942 -0.5603379 0.5505333 0.5673264 -0.49152043 0.39638516 0.083756596
0.9005179 -0.4003705 -0.8562046 0.8084608 -0.59857047 -0.6230313 -0.16838115 0.64932376
0.52953523 0.43761992 -0.88615763 0.65064013 -0.3030245 0.5254432 0.93253005 0.49626487
0.946538 -0.49524927 -0.3309775 -0.74649996 0.8535172 0.5766769 -0.85066897 -0.65216774
0.25954586 0.54657817 0.43096918 0.55575985 -0.50192803 -0.8297224 -0.09121051 0.6546997
0.5416587 -0.40533796 0.81110805 -0.59315014 -0.23904227 0.86412054 0.64103377 -0.67867076
0.33782062 0.22432107 -0.33578658 -0.5135186 0.4279299 0.87929195 -0.9388051 -0.0042606983
1.0039481 -0.84664017 0.24492462 0.7206852 -0.39025763 0.40506423 0.5014551 0.19722614
-0.4215536 0.8044765 0.32637665 0.2472185 -0.7435755 -0.7254057 -0.746684 0.4194122
0.64753854 -0.5016595 0.41052526 0.22641766 0.44521335 0.5292173 -0.42581174 0.11038462
-0.66388756 0.07418079 0.09569319 0.34506693 -0.6746172 0.06467762 -0.414042 -0.43797082
-0.36163133 0.68104345 -0.5992348 0.4807017 -0.61919194 -0.26689973 -0.72492045 0.4537026
-0.5209369 0.18536706 0.3944368 0.07486862 0.591495 0.29047582 -0.29287192 0.91424066
-0.7187274 0.5729663 -0.70943356 0.22784509 -0.32293072 -0.33004642 0.639402 0.42466137
-0.45289046 0.44619662 0.76474905 -0.6015906 0.25580922 -0.2006999 -0.74521935 -0.56600654
0.5657919 0.29457763 0.33251336 -0.041109614 0.49284542 0.618628 -0.6672136 0.02232365
-0.016221983 -0.6091861 -0.5111319 0.2426974 0.029869402 0.38960165 -0.18451388 -0.43680057
00000000: eb64 0ebf a589 333f 88e3 16bf e268 d4bd
00000010: 6310 783e ffc7 3b3e 9b89 9fbe 50cb 49be
00000020: 7e7c 573e 19b1 a33e 53f6 9e3e e3b1 d9be
00000030: 4970 e43e 05fd d7be b07a 3bbe 0ae5 dc3e
00000040: 0dc9 1fbf 1289 22bf 1074 023e 3177 d83e
00000050: 401e 03be 1f61 91be 5de7 d1be 6110 ba3e
00000060: 518b ee3e c6e7 acbc 531f 48bf aae3 07be
00000070: f1d0 1e3f 12fd ca3e 3a70 98be 9329 fa3c
00000080: 2152 3d3f 6e75 f43e 0a59 503e 055c 5e3d
00000090: 71bd 623f 427f e6be 9c60 c5be 0514 743e
000000a0: bf95 2dbf ed48 12bf 8d8b b6be 0f1d 1b3f
000000b0: d1de af3e 4660 bcbe 0a81 fb3e 7914 87bd
000000c0: c1f7 373d 3f7e e93e a2c2 20bf 6fac 053f
000000d0: e709 1f3e 6b0e d23e 9e7a 8dbe 9752 2abf
000000e0: 0df1 7b3e 8a48 70be a464 773e b18d ca3e
000000f0: 29ea 65be 6dd0 3f3e 06e4 2a3e b376 babe
00000100: 4e68 a9be c11a 15bf 93e5 a93e 3c6f c9be
00000110: 5240 11bf 79ea 05bf ef8e dabe 03ba cb3d
00000120: f18e d5bd 9f3f 69bf 905b 013f a5d1 00bf
00000130: feff 143f 9adf 25bf 7d62 c83e d6db 033f
00000140: a25a d03d 1fe9 193d 5fc4 103e 83d0 3bbf
00000150: 3030 13bf 3e07 953e 09f9 1e3f 1d52 1c3d
00000160: 1584 c33e ced9 a73e 1b4e cbbd 67d1 233f
00000170: 27a3 d7be 993a a73e a9de 29bf 7c73 11bf
00000180: 3394 cb3e b0cd 1cbf c662 0c3e 89d3 3abf
00000190: 599d e3be 0a8e 12bf 2b99 353f 436a f23d
000001a0: 22ec 153e 8d00 c93d 0db3 2d3f 4b24 b63e
000001b0: 96a5 59bf 155a cd3e 9e77 d43e 2671 38bf
000001c0: e202 cebe cece ca3e 2375 cb3e 630b bbbe
000001d0: 0e99 16bf 2b6c 1ebf 1cac debe fb5f 0b3f
000001e0: a69f e63e 8a83 edbe 4e72 0fbf c0ef 0c3f
000001f0: 4e3c 113f 91a8 fbbe fff2 ca3e 9488 ab3d
00000200: 5788 663f 5dfd ccbe 3a30 5bbf 49f7 4e3f
00000210: ea3b 19bf fb7e 1fbf 1c6c 2cbe 153a 263f
00000220: 9f8f 073f b80f e03e 3adb 62bf 5a90 263f
00000230: 0726 9bbe 7283 063f 4aba 6e3f 6e16 fe3e
00000240: 5050 723f 5091 fdbe e275 a9be 9f1a 3fbf
00000250: 1a80 5a3f 19a1 133f 71c5 59bf 77f4 26bf
00000260: 32e3 843e 8cec 0b3f fea7 dc3e 4746 0e3f
00000270: 5b7e 00bf b068 54bf 93cc babd 669a 273f
00000280: 25aa 0a3f 7588 cfbe c7a4 4f3f b0d8 17bf
00000290: 7fc7 74be 0137 5d3f ca1a 243f 5ebd 2dbf
000002a0: d3f6 ac3e 6cb4 653e 38ec abbe f475 03bf
000002b0: a119 db3e 4719 613f 8855 70bf 549d 8bbb
000002c0: 5f81 803f 69bd 58bf 85cd 7a3e d37e 383f
000002d0: d9cf c7be 9464 cf3e 5d5f 003f a6f5 493e
000002e0: e0d5 d7be 2cf2 4d3f d71a a73e d926 7d3e
000002f0: f75a 3ebf 30b4 39bf af26 3fbf 32bd d63e
00000300: 16c5 253f c26c 00bf 5e30 d23e 08da 673e
00000310: 01f3 e33e c97a 073f ff03 dabe 5511 e23d
00000320: 89f4 29bf 19ec 973d cbfa c33d 9dac b03e
00000330: b6b3 2cbf b375 843d 50fd d3be b63d e0be
00000340: be27 b9be dd58 2e3f 7467 19bf 891e f63e
00000350: 5d83 1ebf 15a7 88be 6394 39bf b54b e83e
00000360: 1f5c 05bf ddd0 3d3e 9ff3 c93e b854 993d
00000370: 376c 173f 3fb9 943e 4ff3 95be ad0b 6a3f
00000380: 85fe 37bf ebad 123f 709d 35bf 3950 693e
00000390: 2d57 a5be d8fb a8be d9af 233f 376d d93e
000003a0: 42e1 e7be e273 e43e 98c6 433f d701 1abf
000003b0: 6df9 823e 4684 4dbe b2c6 3ebf cee5 10bf
000003c0: bdd7 103f e1d2 963e 313f aa3e 8e62 28bd
000003d0: 3c56 fc3e 685e 1e3f 83ce 2abf 16e0 b63c
000003e0: f7e3 84bc 9ff3 1bbf 8ad9 02bf ab85 783e
000003f0: adb0 f43c de79 c73e 35f1 3cbe 53a4 dfbe
