python/binarypath/binaries/gat_000012.pth (torch, 372431 bytes, 8 tensors)

gat_net.0.scoring_fn_target f4 [1, 8, 8]
000000 68 95 0d be 11 47 9a bd d4 b3 2f 3d b2 e3 e1 3d
       -0.13826525 -0.07533086 0.042896107 0.110297576
000010 96 32 6d 3a d5 a6 50 bc f6 1e c6 3d 99 a7 70 3d
       0.00090483704 -0.012735088 0.09673874 0.058753584
000020 44 7b b4 bc ce 32 10 bc d6 4f 86 bd d3 02 be bd
       -0.022031434 -0.008801175 -0.06558196 -0.092778824
000030 7f 3a 54 3d ca 0b 69 3c d0 60 77 3c d9 f4 0b be
       0.0518136 0.014224002 0.0150987655 -0.1366762
000040 7a 1a c1 bc 91 73 d3 3d 74 f1 55 bc 5e 8c 84 bd
       -0.023572195 0.10324777 -0.013058055 -0.064720854
000050 bf e2 8d 3d 72 04 ba bd 77 56 07 3e 2b 1d 57 bd
       0.06928014 -0.09082879 0.13216577 -0.05251805
000060 2b 86 1e bd 2b 94 02 bd 91 4e 3d 3d 75 16 3a 3b
       -0.03870217 -0.031879585 0.046217505 0.0028394733
000070 54 b8 79 3c 33 3d 93 bd 08 73 cf bb 7d ef 1c bd
       0.015241701 -0.07189407 -0.0063308515 -0.03831433
000080 69 52 05 3e 6d a5 f7 3d ee 2f a8 bc 62 5b 85 3c
       0.13019718 0.12092099 -0.020530667 0.016278926
000090 45 66 89 bd 52 de ea bd ed 35 96 3c 57 8e 97 bd
       -0.067089595 -0.114681855 0.01833626 -0.07400196
0000a0 45 ff b6 bd f8 18 94 3d 8a d7 5c 3d f0 ad 4a be
       -0.089354075 0.07231325 0.05391649 -0.19792914
0000b0 b2 b5 71 3c 22 2b 07 bd 33 d5 63 3d ee ad c5 3c
       0.014752792 -0.03300012 0.055623244 0.024130788
0000c0 ad f9 f3 bc 3a 04 0d 3e c3 f0 0b 3e 56 3e e3 bc
       -0.02978214 0.13771144 0.13666062 -0.027739685
0000d0 cb f1 fa 3d 03 a3 5d 3d 45 65 81 bc 95 3d 33 bd
       0.122531496 0.05411054 -0.01579536 -0.0437599
0000e0 a4 ba 22 be 5c 0d dd 3d a7 22 25 bd f7 c4 a8 bd
       -0.1589151 0.10793564 -0.04031625 -0.08240693
0000f0 03 51 34 3d 26 d1 75 3d e5 f5 00 be 65 08 22 bb
       0.04402257 0.060013913 -0.12593801 -0.0024724242

gat_net.0.scoring_fn_source f4 [1, 8, 8]
000000 fc f5 8b 3d 33 9b 72 3c 09 a8 00 be 7c ec 8d 3e
       0.06834027 0.01480751 -0.125641 0.27719486
000010 81 33 09 be 35 c5 94 bd 4d a9 ae 3e 4c c1 f0 bd
       -0.13398553 -0.07264177 0.3411354 -0.117556185
000020 69 84 94 3d cb ac dd 3d 58 94 ed bd 36 19 d9 be
       0.07251818 0.10823973 -0.1160056 -0.42402047
000030 79 f4 a5 3e 97 76 57 bd e7 e7 1d 3e f1 62 42 be
       0.3241308 -0.05260333 0.15420495 -0.18983056
000040 0f 13 e4 bc 73 84 80 3d a0 21 b7 3d a6 10 11 3e
       -0.02784112 0.06275263 0.0894196 0.14166507
000050 94 5d 9d 3e 9f b7 00 be ab cc 65 3c fb 53 63 be
       0.30735457 -0.12570046 0.014025847 -0.22200005
000060 ad 8a 9e bd fc f8 94 bd 2c 7b 32 3e da 50 d9 3b
       -0.07741294 -0.072740525 0.17429799 0.0066319527
000070 e6 9e 0d 3d 49 05 d6 be db 91 bc bd 08 68 aa be
       0.034575365 -0.41800907 -0.09207507 -0.33282495
000080 9d 40 b6 bd d8 5d 4f 3e 16 f8 98 3d 39 8b 5f 3e
       -0.08899043 0.20250642 0.07469194 0.21830453
000090 ca 18 90 3d 6c 4c 47 bd 0a d8 af bd 2e 00 c4 be
       0.07035978 -0.048656866 -0.08586128 -0.38281387
0000a0 09 5c f8 bd 02 b9 a3 3e cc 90 da 3c 77 c4 90 be
       -0.12126929 0.31977087 0.026680373 -0.2827489
0000b0 2c 31 1a 3e 90 e5 c5 bd e4 e4 e8 3e 50 10 b4 be
       0.1505782 -0.09662926 0.4548713 -0.35168695
0000c0 17 4d c3 bd 08 4e cc 3e c9 98 8b 3e 16 59 2e 3e
       -0.09536188 0.39903283 0.27265003 0.17026171
0000d0 08 72 e1 bb 2b 95 66 3e ef 6f 58 3d 46 a8 ae 3d
       -0.0068800487 0.2251784 0.052841123 0.08528189
0000e0 5b c5 b6 be fe 4d b4 3e 4f ac 85 3d 1f 14 f0 3d
       -0.35697445 0.35215753 0.06527006 0.11722588
0000f0 2f e9 0c 3d 7b 85 b2 bd 3f c2 b7 be f2 3e 62 be
       0.03440207 -0.08716866 -0.35890386 -0.22094324

gat_net.0.bias f4 [64]
000000 a2 21 22 bc a2 62 dc 3c ab cc 67 bc 12 50 5e 3b
       -0.009895714 0.0269025 -0.014147918 0.0033922237
000010 bb 72 8d bd 2d d6 07 bd c2 8b fb ba 6d 72 cf bc
       -0.06906649 -0.03316324 -0.0019191431 -0.025323117
000020 9c 5e 36 3d ce 7b aa 3a 75 48 5d bc 3f d9 14 bb
       0.04452382 0.0013006867 -0.013506045 -0.0022712497
000030 60 0d 2a 3b e3 b5 9e 3d 0d e1 bc bc 20 97 37 3d
       0.0025947914 0.07749536 -0.023056531 0.04482186
000040 2b 30 21 3b fc 26 92 3b ab 7c f7 bc 70 37 ec 3c
       0.002459536 0.0044602137 -0.030210814 0.028835028
000050 9a 1c 85 ba 34 7b b4 ba 60 ee 5b 3c b8 18 d3 3a
       -0.0010155619 -0.0013769628 0.013423532 0.0016105389
000060 38 47 c8 3c a7 9f 80 bd d4 3e a2 bb a5 4a 62 bc
       0.024448022 -0.06280451 -0.0049513374 -0.013811742
000070 66 01 9d ba ff 63 24 3b d2 2e 15 bd 18 6f e9 39
       -0.0011978566 0.0025084016 -0.036421604 0.00044523994
000080 26 b4 d8 3b 63 02 2e 3c 0c 47 48 3d 7d aa e4 bb
       0.0066132722 0.010620686 0.04889588 -0.0069783316
000090 98 f5 22 3b 9e 95 a6 3b cc cf f0 bc 08 c5 ad bb
       0.0024865624 0.0050837537 -0.02939596 -0.005303029
0000a0 4f a6 08 3c a4 7a 54 3d e0 77 da 38 84 aa fc bc
       0.008340432 0.05187477 0.000104173785 -0.030843027
0000b0 e4 3b 16 3d 0a 3a 94 3b 5c 78 13 bc 1d 68 77 bc
       0.03667821 0.0045235204 -0.009000864 -0.015100506
0000c0 fe 07 4b ba d7 a5 c1 3a 75 89 96 bc c3 76 3d bc
       -0.00077450264 0.0014774156 -0.018376091 -0.0115639595
0000d0 63 35 86 3c d4 4d 3c bb cc 96 59 bc 14 0b ee 3c
       0.016382879 -0.0028732913 -0.013280582 0.029058017
0000e0 a9 e9 ca 3c f7 71 0a 3d 24 a5 56 3c 9f ca 81 3d
       0.024769621 0.03380009 0.013100896 0.06337475
0000f0 13 53 32 bd d4 52 0d bb 4c 87 f1 3b 5c e6 00 bc
       -0.043536257 -0.0021564262 0.007370865 -0.007867422

gat_net.0.linear_proj.weight f4 [64, 1433]
000000 2c c8 8d bd bb bd 9d 3c 08 5a b1 bc 0f e2 ce bd
       -0.069229454 0.01925551 -0.021649376 -0.10101711
000010 5e 32 70 3e ef b9 91 bd 4c fb ed bd 59 99 3c bd
       0.23456714 -0.07115542 -0.11620197 -0.04604468
000020 ce b5 f3 3b eb 3a 1a bc c4 11 aa bb 34 a5 b7 3c
       0.0074374443 -0.009413461 -0.005190106 0.022417642
000030 a4 ac 97 3d aa 06 8e bd 65 e3 8a bc 5c 64 a5 3d
       0.074059755 -0.06934865 -0.016954133 0.08075783
000040 05 92 3f 3d bd e8 61 bd 00 6b 78 3c 9b 27 07 bd
       0.046770114 -0.055153597 0.01516223 -0.032996755
000050 54 b3 10 b0 5e e1 a5 bd c2 b5 03 3d c6 82 8b bd
       -5.2641735e-10 -0.08099626 0.03215576 -0.068120524
000060 30 0e d9 3c 4e e9 b3 bd 71 2e dd 3d 97 07 55 3e
       0.026496023 -0.08784734 0.107998736 0.20803677
000070 a4 38 25 3d d1 8f 8f bd 25 cc 4d 3d 22 66 87 bb
       0.04033722 -0.07009853 0.050243516 -0.004132048
000080 92 7e 2e 3c 6d 93 26 bb f8 d7 7b 3c d0 d8 ad 3d
       0.010650294 -0.0025417462 0.015371315 0.08488619
000090 74 02 ad 3d 42 42 fc ba c9 f3 87 bd ff 49 29 3d
       0.084477335 -0.0019245821 -0.06638295 0.041330334
0000a0 c7 e3 18 3e 75 2b 04 bd 3f 07 8b 3c 95 2d b6 bc
       0.1493064 -0.032268006 0.016971229 -0.022238532
0000b0 f4 eb 0b 3e 2c e2 bb 3d 82 9e a0 bc 1e a5 d0 3b
       0.13664228 0.09173998 -0.019606832 0.0063673398
0000c0 d0 4f fe 3d 98 ee fe 3a 34 b6 a4 3d 5f 7a 47 3e
       0.12417567 0.0019449769 0.08042565 0.19480275
0000d0 ee dc bf bd 47 0f 0b bc 16 55 98 3d 92 d8 41 bd
       -0.09368311 -0.008487529 0.07438104 -0.04732568
0000e0 b0 b7 74 be ca 9b 99 bd 7e a6 89 3d fe 9c d2 bb
       -0.23898196 -0.075004175 0.06721209 -0.0064274063
0000f0 b8 6c 90 b1 5c 25 57 3d b4 07 ac bd 7b c4 a5 bc
       -4.2033115e-09 0.052525863 -0.08399907 -0.02023529
000100 a3 5b 85 3d 9c 64 95 bd 54 0b 3f bd 11 a3 28 3d
       0.06511619 -0.0729458 -0.046641663 0.041171137
000110 26 64 0d bb 34 a7 6b bd 4c 1d 11 3d 17 05 52 bd
       -0.0021574586 -0.057532504 0.03542833 -0.051274385
000120 18 17 d9 bc 9f 7c 5a bd 81 ac 5b 3d 24 a1 cc bd
       -0.02650027 -0.053341504 0.05363131 -0.09991673
000130 21 bd 8f 3d 32 d4 80 3e da 48 44 3e 49 1a 4c bd
       0.07018495 0.25161892 0.19168416 -0.049829755
000140 bd ca a7 bd fb 4b c0 bc 9a 11 16 3e 64 b1 63 bb
       -0.08192966 -0.02347373 0.14655152 -0.0034743184
000150 2b 92 16 3d b4 9b 22 be 56 1b ef bc f7 d2 09 bc
       0.03676049 -0.15879709 -0.02918784 -0.008412114
000160 d0 71 87 3d 3e c6 29 3d 81 ee 52 bc 45 c5 14 3e
       0.06613505 0.041448824 -0.012874247 0.14528377
000170 60 47 74 3d f2 0c 85 3d 35 ec 9c 3c 6b 44 97 3c
       0.05963838 0.0649661 0.019155601 0.018465241
000180 b2 f8 10 3d 47 1b 08 be 27 4b 9a bd 8a 6b 08 be
       0.035393424 -0.13291655 -0.075338654 -0.13322273
000190 7f c8 3c 3d 71 35 1b bd 7c 78 08 3e 95 df 35 bd
       0.046089645 -0.037892763 0.13327211 -0.044402678
0001a0 49 cb ac 3d c7 ef 05 bd 1e 94 89 3c 80 82 c3 3b
       0.08437211 -0.032699373 0.01679426 0.0059664845
0001b0 da 47 4f 3d 6c 29 c2 bc 29 f4 3e 3b e3 0c 14 bc
       0.050605632 -0.023701392 0.002913723 -0.009036276
0001c0 76 bc e7 39 17 7f da ba 9f 3d 25 bd b0 53 3d bd
       0.00044200168 -0.0016669956 -0.04034197 -0.04622239
0001d0 b4 e6 d2 3d c6 61 7c bd 82 66 6d bd 37 e2 e1 3c
       0.102979094 -0.06161668 -0.057959087 0.027573688
0001e0 ea 64 c6 3c 2c 69 9c bc 21 30 f3 bc bc d0 85 3d
       0.024218041 -0.019093119 -0.029686036 0.065339535
0001f0 2f be 76 3c d0 bb ee bc 67 a0 43 3d f0 b1 9d 3b
       0.015059992 -0.02914229 0.047760393 0.0048124716
000200 eb 63 8a 3d b1 4c ab 3d 1f 1a 28 be 49 f9 54 3d
       0.06757339 0.08364237 -0.16416214 0.05199555
000210 c3 26 d5 be 77 aa a5 3c 9c 10 4a bd 1b fe 8f 3d
       -0.41631135 0.020222886 -0.049332246 0.07030889
000220 32 0d 1d be 22 04 39 bd 1d 55 08 bc 10 f7 9b 3c
       -0.15337065 -0.045169957 -0.008321074 0.019038707
000230 df 93 fa bd 53 5c 62 3c ac 4b 0e bd f4 d3 59 bd
       -0.122352354 0.013815957 -0.034740135 -0.05318065
000240 4d 6c 89 bb d9 8d 2d b1 12 42 2e be b4 c4 3d 3c
       -0.0041938187 -2.5255444e-09 -0.17017391 0.011582542
000250 18 1a 83 bc ef 06 71 3d 71 e4 a2 bd a3 37 9b 3d
       -0.016003653 0.058844503 -0.07953728 0.07578971
000260 2b 33 4e bd b0 27 44 3e c7 9d f7 3d 8d 4b 60 3d
       -0.050341766 0.19155765 0.120906405 0.05475955
000270 39 73 ca 3c 77 ed 06 3d 2c 39 72 3d b9 1d a9 bc
       0.024713146 0.032941308 0.059136555 -0.020644056
000280 ca 59 bd bc ff 19 4b bd 1a 01 0a 3d 83 36 94 3c
       -0.023114104 -0.04958534 0.033692457 0.0180924
000290 99 74 91 3b 9d 99 8b bd cf 25 37 bd 0d 42 9a bc
       0.0044389484 -0.06816409 -0.04471379 -0.018830324
0002a0 12 de 0a be da 09 f4 bc 51 27 86 3d 0e 1a 49 3b
       -0.13561276 -0.029789854 0.06550468 0.0030685696
0002b0 ce b9 bb 3d 7e 1a 1f bd 61 a5 76 3c fc 36 da bc
       0.09166299 -0.038843624 0.015054078 -0.026637547
0002c0 17 c0 ba 3b 04 3b 2b 3e 4b 6a 3a 3d 40 6d ce 3c
       0.0056991684 0.16721731 0.045511525 0.025198579
0002d0 6b 75 08 3d 17 14 37 3d 95 e5 94 3d 6f c7 05 3c
       0.033315104 0.044696894 0.07270352 0.008165224
0002e0 fe b0 33 3a 3e 6d 7c bc ae fa 0e be 70 89 41 bd
       0.0006854682 -0.015406905 -0.13962814 -0.04725021
0002f0 13 bb 46 3c 02 5a 7f 3d 76 75 fa 3b 69 19 d3 3b
       0.012129563 0.062341698 0.007643397 0.006442238
000300 78 b7 c6 3a aa 52 72 3d 15 c9 08 bd 3a 6d 4b 3c
       0.0015160879 0.059160866 -0.03339489 0.012416178
000310 d1 06 b6 bc ff 07 e3 3c c5 d2 9a 3c eb 7d 72 3b
       -0.022220047 0.027713774 0.01889933 0.0037001322
000320 70 19 8b 3b 7a d9 6c b9 36 ba 34 ba 3a 76 6f bd
       0.0042449757 -0.0002258773 -0.00068942027 -0.05846236
000330 fe 25 cf 3b d0 d9 fe 3d 5a 46 d9 3d cb 6e 08 bd
       0.0063216677 0.12443888 0.106091216 -0.033308785
000340 d0 f2 8b bd 76 57 87 bc 30 fb f2 bb 72 3d 38 be
       -0.06833422 -0.016521197 -0.007415198 -0.1799219
000350 16 74 f6 3d 3c 40 86 bc 56 70 be bd 49 49 2f bc
       0.120338604 -0.016388051 -0.0929877 -0.010698625
000360 6b 41 9b bb a0 dd f2 bb e3 11 86 bc 61 da b9 3b
       -0.004738023 -0.0074116737 -0.01636595 0.0056717847
000370 1c 89 e2 3b a1 d0 92 3c 5c 90 5b bd a1 9e bb bc
       0.0069133174 0.017921748 -0.05360447 -0.022902789
000380 d8 f9 92 3d f4 2d b5 bd 76 43 ca bc 5e 34 ae ba
       0.0717656 -0.088466555 -0.024690371 -0.0013290753
000390 a1 d9 06 3d c2 22 37 3b ae 78 10 3d ed 38 29 bd
       0.03292239 0.0027944301 0.03527134 -0.041314054
0003a0 eb 76 96 3d 33 c6 22 bd a8 b4 03 3e d0 bb 2a bc
       0.073469006 -0.0397398 0.12861884 -0.010420755
0003b0 e0 aa 93 3d 1d 5e 45 be c8 a6 91 3d a1 fc 41 bd
       0.07210326 -0.19274183 0.07111889 -0.047360066
0003c0 52 3c d7 bd ab dc 59 bd 21 1b 7a 3c 9a 37 b4 3c
       -0.10509552 -0.05318896 0.015265257 0.02199917
0003d0 3a a4 6f 3d ac 9c a3 bc 60 95 aa ba 67 70 4f bd
       0.058506228 -0.019972168 -0.0013014488 -0.050644305
0003e0 5e f4 5a 3b a3 85 8b 3d 9a 4b d4 bd 91 56 f8 bc
       0.0033409814 0.068125986 -0.10365982 -0.030314716
0003f0 c2 17 57 bd 0b 13 b2 bb 87 13 1e bd 69 63 43 bd
       -0.05251289 -0.005434399 -0.03859284 -0.047702227

gat_net.1.scoring_fn_target f4 [1, 1, 7]
000000 f0 3d 1b 3a 17 61 d5 bd a7 27 17 be 26 7d ab bc
       0.000592201 -0.10418909 -0.1476122 -0.020933699
000010 0c 08 91 3d 88 a2 8a bd 38 39 16 bd
       0.07081613 -0.067692816 -0.03667566

gat_net.1.scoring_fn_source f4 [1, 1, 7]
000000 76 29 a1 3e dd 06 11 3e af 6d a0 3d c6 8c 09 3e
       0.31476945 0.14162774 0.078334205 0.13432607
000010 1e f7 a4 3e 5a a6 08 3e 72 8e 23 3e
       0.32219785 0.13344708 0.15972307

gat_net.1.bias f4 [7]
000000 15 86 a2 3b 29 b3 3b bd 58 9d ff ba 7f 1f 85 3d
       0.0049598315 -0.045825157 -0.0019501848 0.06500148
000010 6f 52 9e bd 6a 48 c7 3c b0 1d b4 3d
       -0.07730567 0.024326522 0.08794725

gat_net.1.linear_proj.weight f4 [7, 64]
000000 9d 2d 0f bf f8 85 e4 3e 6f 61 67 be 35 23 b5 3b
       -0.55928975 0.4463346 -0.22595762 0.0055278786
000010 e2 a6 05 be c4 03 08 bf 41 87 1f be 12 b9 b8 be
       -0.13051942 -0.53130746 -0.15578939 -0.36078697
000020 a6 00 d2 3e 21 8a 14 be 10 f7 35 3f 0e 42 b1 3e
       0.4101612 -0.14505817 0.7108011 0.34620708
000030 48 73 31 be fc 65 65 be e3 1f 2e bf 4c ac c6 3e
       -0.17329133 -0.22402185 -0.68017405 0.38803327
000040 e2 2f e9 be 3d 1b 5e 3e 94 6e 73 be a1 28 2b be
       -0.45544344 0.21690078 -0.23772651 -0.16714717
000050 60 32 cd 3e df c4 99 be 5a 4e c1 3e db 1c b1 be
       0.40077496 -0.30033013 0.3775509 -0.34592327
000060 16 6a 9a bd 44 9f 8d be c0 fd d4 be 86 c1 6a 3c
       -0.075397655 -0.27660573 -0.41599846 0.014328366
000070 73 34 f6 be 8c 49 17 3f 46 f4 c1 be d5 7f 1a bf
       -0.4808689 0.590966 -0.37881678 -0.60351306
000080 63 10 1b 3f f9 60 0a bf 8d 34 4d 3d fe 50 09 bf
       0.6057188 -0.5405422 0.050098944 -0.5363921
000090 78 20 c1 3b 7a 2b 37 3f cc ea b4 be 3e d0 16 3f
       0.005893763 0.71550715 -0.35335386 0.589115
0000a0 ab 48 51 bf d5 48 c6 be db 03 30 3f 5c 60 d4 be
       -0.8175151 -0.3872744 0.6875588 -0.41479766
0000b0 dc 97 d4 be 50 e4 f8 be 0d 86 a3 3e 07 22 6a be
       -0.4152211 -0.4861169 0.3193821 -0.22864543
0000c0 74 4a e9 3e fa a8 2d bf 30 1b 62 be 8b dc 80 3e
       0.45564616 -0.6783596 -0.22080684 0.2516826
0000d0 2d dc ee be 7b 6e 42 bf 81 24 de 3d 1a 2e 17 3f
       -0.46652356 -0.7594983 0.10846806 0.5905472
0000e0 a9 8c 11 bf 8e 14 c1 3d b0 e5 89 be 75 52 71 3e
       -0.56855255 0.094277486 -0.2693305 0.23566611
0000f0 88 49 fd bd 9e 17 10 3f 59 fd 01 3f 31 b7 48 bf
       -0.123675406 0.56286037 0.507772 -0.7840453
000100 c0 e2 d6 be 02 fd 34 bf 79 56 5d 3f f5 d3 53 3f
       -0.41969872 -0.7069856 0.8646007 0.82745296
000110 38 77 c2 3e 84 8c 3c 3f b3 59 f4 3e 07 bb 5b 3f
       0.37981582 0.7365191 0.47724685 0.85832256
000120 a5 0a 48 bf 45 99 1d 3f 8b 9f 15 3f 14 fd ef 3e
       -0.7814124 0.61561996 0.5844657 0.4687277
000130 67 b8 3b bf e3 6a 96 bf 19 18 24 bd 00 36 ae 3c
       -0.7332825 -1.1751369 -0.040062044 0.021265984
000140 85 8b 15 bf df 95 0c 3f ed 1d 61 3f 45 43 ca be
       -0.58416015 0.54916185 0.8793629 -0.39504448
000150 b1 4b 7a 3f 4e 6d 42 bf 72 2f 38 3f f7 dd 1d bf
       0.97771746 -0.75948036 0.71947396 -0.61666816
000160 36 77 1d 3f 71 80 29 3f 17 be 0b 3f e0 3f ec 3e
       0.61510026 0.6621161 0.5458693 0.46142483
000170 cb 6c 0c 3f 1a bc 47 bf 58 c5 2c 3f 64 8c 23 3f
       0.54853505 -0.78021395 0.6748862 0.63886094
000180 d4 f0 d7 3e 1d c1 eb 3e b0 09 01 3f 8a fb fe be
       0.42175925 0.4604577 0.50405407 -0.49801284
000190 5b b0 62 3f 28 b1 f7 3d 46 41 d0 be 24 90 61 bf
       0.8855035 0.12094337 -0.406748 -0.88110566
0001a0 33 fa 49 3e 8a bd 47 bf 1c 8e 59 bf 6d 6c 2b 3f
       0.1972435 -0.7802359 -0.84982467 0.6696232
0001b0 7b 2e d2 be 27 c0 ce be de a7 2b bf 2f e5 ad 3e
       -0.41051087 -0.40380976 -0.6705302 0.33963916
0001c0 e4 eb 69 bf a9 31 3b 3f 89 63 a5 bd 54 79 47 3f
       -0.91375566 0.7312265 -0.080756254 0.7791951
0001d0 13 67 6d 3e f2 c5 37 3f f0 4e 50 3f cf f2 81 3e
       0.23183851 0.71786416 0.8137045 0.2538056
0001e0 ca 09 d6 be 6c c1 fb 3e 3c f6 3d bf 7b 46 61 bf
       -0.41804343 0.49171007 -0.7420385 -0.8799817
0001f0 9b 1c 29 3f e5 23 12 bf 9f e3 36 bf 4a 6a 56 bf
       0.66059273 -0.5708602 -0.7144107 -0.83755934
000200 01 30 8a be a8 61 8f 3e 41 32 14 3f fc b4 30 bf
       -0.2698975 0.28004193 0.5788918 -0.6902616
000210 42 cf 2a 3e e4 9c 27 3f 53 d9 1e 3f 3a c0 a3 be
       0.16680625 0.6547377 0.6205036 -0.31982595
000220 22 ef ff 3e ab ea 0c 3f d7 4b 02 3f d3 97 5e bf
       0.4998713 0.55045575 0.5089697 -0.86950415
000230 48 92 04 3f df ba 36 bf 48 ef 40 3f 9f 8e 5b bf
       0.5178571 -0.7137889 0.75365114 -0.857645
000240 98 63 04 3f ae 85 dd be 82 a2 51 3f dc 15 25 3f
       0.5171447 -0.43266052 0.8188859 0.6448648
000250 86 06 7a 3e e4 58 1a 3f 7e 7b ed be f8 06 be 3e
       0.24416551 0.60291886 -0.4638328 0.37114692
000260 0b 04 29 bf ab b9 47 3f e5 9e f1 3e f1 7a 22 3f
       -0.66021794 0.7801768 0.4719154 0.63468844
000270 25 b6 20 3f 70 1c f1 bd c9 99 2b 3f 17 7a 11 bf
       0.6277793 -0.11773002 0.6703153 -0.5682692
000280 27 75 07 3f 20 bc 8c 3e 78 4e 85 bf 42 eb 59 3f
       0.52913135 0.27487278 -1.0414572 0.851246
000290 dd fe 28 bf 7c 6c de be 30 e2 35 3f 8b 30 e4 3e
       -0.6601389 -0.43442142 0.7104826 0.44568285
0002a0 ca 83 48 3c e2 79 c4 3e c3 77 fa be a3 da 5a bf
       0.012238452 0.3837424 -0.48919496 -0.85489863
0002b0 e3 9f ec 3e d6 a3 f5 be 4b 25 1f 3f 1c 52 0d bf
       0.46215734 -0.4797656 0.6216628 -0.55203414
0002c0 5d b3 22 3f f6 60 18 3c 24 c9 0b 3f da 61 31 3f
       0.63554937 0.009300461 0.5460379 0.69289935
0002d0 67 cb f8 3e b7 f9 44 3f 40 dc ba 3e 02 54 3d bf
       0.48592684 0.76943535 0.36496162 -0.7395631
0002e0 ba 72 1f 3f 40 60 5f bf 38 a8 33 bf 4a 98 bc be
       0.62284434 -0.8725624 -0.70178556 -0.36834937
0002f0 ee 53 27 bf a0 c8 03 3f d6 53 b9 3e 7b 11 fc 3e
       -0.6536244 0.51478004 0.36196774 0.49232087
000300 c0 79 b3 be 25 86 44 bf e9 78 58 bf 56 07 0e bf
       -0.35053825 -0.7676719 -0.84559494 -0.55479944
000310 36 33 2c 3f ec 7c de be 11 6e 3f bf 98 ad 1c 3f
       0.6726564 -0.43454683 -0.74777323 0.61202383
000320 86 b3 07 bf c2 5c 09 bf 84 6e 3b bf 76 e0 a1 3e
       -0.53008306 -0.5365716 -0.7321551 0.31616563
000330 39 34 3d bf ce f1 ed 3e 35 d2 e6 3e f9 55 c9 be
       -0.7390781 0.46473545 0.4508225 -0.39323404
000340 64 18 97 be aa 5d ff be cc c7 0c 3f 60 63 b6 3e
       -0.29510796 -0.49876148 0.54992366 0.35622692
000350 2b 62 1e bf 11 9a 46 bf 65 f5 1e 3f 7f 1f 3b 3f
       -0.6186854 -0.77578837 0.6209319 0.73094934
000360 03 58 3f be 30 87 d1 be 11 3c bf 3e f5 0a f9 3e
       -0.18685918 -0.40923452 0.37350515 0.48641172
000370 6b 27 12 bf 65 9a aa 3d 17 66 53 be 75 93 29 3f
       -0.570914 0.0833023 -0.20644413 0.66240627
000380 24 1a b0 3e 96 c9 0d 3f 38 d8 52 bf b8 26 85 be
       0.34394944 0.5538572 -0.82361174 -0.26006103
000390 ac 51 07 3f 3d 0c 2d bf ec 05 bd 3c b5 69 d8 3e
       0.52858996 -0.675968 0.023074113 0.42268148
0003a0 32 bc ec 3e 4a c5 0f bf 67 06 4c 3f 62 14 31 bf
       0.46237332 -0.56160414 0.7969727 -0.69171727
0003b0 95 f7 31 bf a8 92 33 3e 0e 94 4e bf e4 cc 4d bc
       -0.69518405 0.17536414 -0.80694664 -0.012561057
0003c0 37 e8 2f 3f a7 ed 00 bf 6c 2f 44 bf 2f f6 4a bf
       0.68713707 -0.5036263 -0.7663486 -0.79281896
0003d0 e5 62 a3 be 7d 4d 0a 3e 72 7a 07 bf 47 57 9e be
       -0.31911388 0.13506122 -0.5292121 -0.30925962
0003e0 d3 c9 e9 3e fa c7 5f 3e e7 0c 36 3f c1 4f 01 be
       0.45661792 0.21853629 0.7111344 -0.1262808
0003f0 f6 c5 33 3f 71 b2 df be e9 42 34 3f e8 6f 41 3f
       0.7022394 -0.43690827 0.70414597 0.7556138
