python/binarypath/binaries/gat_000016.pth (torch, 372431 bytes, 8 tensors)

gat_net.0.scoring_fn_target f4 [1, 8, 8]
0	0x3c672680	0.0141083
1	0x3cce0ee4	0.025153585
2	0x3cfbce91	0.030738147
3	0x3d5074dc	0.050892696
4	0x3c94454c	0.01809945
5	0xbd3f0dd7	-0.046644058
6	0x3bc31f54	0.0059546623
7	0xbce95bef	-0.02848622
8	0xbcdc3bf5	-0.026884058
9	0x3cbb108e	0.022835042
10	0x3d640a51	0.0556739
11	0x3cfec5cd	0.031100178
12	0xbd4fc6f1	-0.050726835
13	0x3c3d3fae	0.011550827
14	0xbd21a300	-0.03946209
15	0x3b91cedc	0.0044497084
16	0x3b2143d3	0.0024607077
17	0x3c14f3b0	0.009091303
18	0x3c90e995	0.017689506
19	0xbaac7e4c	-0.0013160198
20	0xbd208033	-0.03918476
21	0x3ce64cc7	0.028112782
22	0x3d1e39a2	0.03862918
23	0x3c10ca11	0.008837239
24	0xbd78fe02	-0.060789116
25	0xbd20b946	-0.03923919
26	0xbd0a9b3f	-0.03383946
27	0xbb33ca8e	-0.0027433964
28	0x3cf4277a	0.02980398
29	0x3bd96e6c	0.0066354778
30	0x3a012a36	0.00049272494
31	0x3c850865	0.016239354
32	0x3c713be6	0.014723754
33	0x3ce487f4	0.027896859
34	0xbd584550	-0.052800477
35	0x3d3d51dd	0.04622065
36	0x3da3f393	0.080054425
37	0x3c3be8aa	0.011469046
38	0xbd3b440d	-0.045719195
39	0x3baed4d1	0.0053354283
40	0xbcfb036f	-0.030641286
41	0xbd5f139f	-0.05446207
42	0xbb0b103f	-0.00212194
43	0x3d048b61	0.032359485
44	0xbc12fbdc	-0.008971181
45	0x3cb8ad9a	0.022543717
46	0x3cf56b62	0.02995843
47	0x3d0b9e8e	0.034086756
48	0x3b4da6a1	0.0031379836
49	0xbd57a178	-0.052644223
50	0xbc359b57	-0.011084399
51	0x3d38dedd	0.045134414
52	0xbcd20f37	-0.02564202
53	0xbcd3e580	-0.02586627
54	0xbcb659d1	-0.022259625
55	0xbbe48970	-0.0069743916
56	0x3ca465c2	0.020068053
57	0xbd64c8f0	-0.05585569
58	0xbdacbf19	-0.084348865
59	0x3d8989a9	0.0671571
60	0xbbf49bbf	-0.0074648554
61	0xbd1dc007	-0.03851321
62	0x3bbe941b	0.0058159954
63	0x3d6dd886	0.05806782

gat_net.0.scoring_fn_source f4 [1, 8, 8]
0	0xbc930c42	-0.01795018
1	0x3e0987dc	0.13430732
2	0x3e5e2ad4	0.21696025
3	0x3dc5ac98	0.0965206
4	0x3bf661ee	0.0075189983
5	0xbd165fc0	-0.036712408
6	0x3c200a49	0.009768077
7	0x3e023eaf	0.12719224
8	0xbe20f2f4	-0.1571768
9	0x3db1d3e2	0.086829916
10	0x3d97fd51	0.07421363
11	0x3d652369	0.055941973
12	0xbe3f2d4c	-0.18669623
13	0xbc6b36de	-0.014356343
14	0xbe0010c8	-0.12506402
15	0x3d27c0b1	0.04095525
16	0xbe3df4df	-0.18550442
17	0x3e275405	0.16340645
18	0x3c67b87b	0.014143105
19	0xbe0e29a3	-0.1388307
20	0xbe1e4110	-0.15454507
21	0xbb7cde64	-0.0038584704
22	0x3e75b4f6	0.23994812
23	0x3dfa1522	0.12211062
24	0xbe91cba1	-0.2847567
25	0xbe85e4ed	-0.2615122
26	0xbe0db1e0	-0.13837385
27	0xbe20598b	-0.15659158
28	0x3e51796f	0.2045648
29	0x3d3519cd	0.04421406
30	0xbe6ccdff	-0.23125456
31	0xbc467a29	-0.012114086
32	0xbb21d314	-0.0024692463
33	0x3e135c95	0.14390786
34	0xbdd308b3	-0.103043936
35	0x3e1f27eb	0.15542571
36	0x3ce1da00	0.02756977
37	0xbcd8c944	-0.026463158
38	0xbe1fdb4f	-0.15611003
39	0x3c34473e	0.011003314
40	0xbe3dcf51	-0.18536116
41	0xbd5906d7	-0.05298504
42	0xbcb88359	-0.022523569
43	0x3e282d22	0.16423467
44	0x3d96e0f5	0.07367126
45	0x3e395008	0.18096936
46	0x3dc4ed26	0.09615545
47	0x3e021e5b	0.12706892
48	0x3dd929ef	0.10603701
49	0xbcd798df	-0.026318012
50	0xbcfd4762	-0.030917827
51	0x3d2db50a	0.04240898
52	0xbd18661b	-0.03720675
53	0xbd99c5bc	-0.07508418
54	0xbd6d6105	-0.057953853
55	0x3e2db79a	0.1696457
56	0x3e6f9b86	0.23399171
57	0xbe57c7a1	-0.21072246
58	0xbe7d0c96	-0.24711832
59	0x3e8f6e97	0.2801406
60	0xbd80cc78	-0.06288999
61	0x3db069a2	0.08613898
62	0x3d999d61	0.07500721
63	0x3e08b758	0.1335119

gat_net.0.bias f4 [64]
0	0xbca2882e	-0.019840326
1	0x3d1dbf23	0.03851236
2	0xbccb38f1	-0.024807425
3	0x3cd8e7e6	0.026477765
4	0xbc04f165	-0.008114194
5	0xbc346dfd	-0.011012551
6	0xbc673aeb	-0.014113168
7	0xbca64566	-0.020296764
8	0x3bdbdfd4	0.006710032
9	0xbc888f56	-0.01666991
10	0x3b836036	0.004009272
11	0x3c9ef30c	0.019403003
12	0xbc358f22	-0.011081489
13	0x3c71fd78	0.014769904
14	0x3b85e6b5	0.0040863403
15	0x3a4a4167	0.0007715434
16	0x3cdfdd2f	0.027327148
17	0xbcc5db14	-0.024152316
18	0x3cc31217	0.023812337
19	0xba029020	-0.0004980583
20	0x3d191c78	0.037380666
21	0x3c46ef14	0.012141962
22	0xbb26f0f4	-0.002547321
23	0x3c7598a2	0.014990004
24	0x3ccd9ffc	0.0251007
25	0x3d169ee0	0.03677261
26	0x3ba6c0f4	0.00508892
27	0x3c61faf5	0.013792743
28	0xbc12bd91	-0.008956329
29	0xbc115780	-0.008870959
30	0x3d0c692c	0.034279987
31	0x3ca7e7e3	0.020496314
32	0x3c534c97	0.012896678
33	0x3cb4025c	0.021973781
34	0xbbee1108	-0.007265214
35	0x3c2f89f3	0.010714042
36	0x3bc9d79e	0.006159737
37	0xbcb9abcf	-0.022664933
38	0xbb004c75	-0.0019576822
39	0x3bcf78e4	0.00633155
40	0xbbf66bea	-0.0075201886
41	0xbd6f2206	-0.058382057
42	0x3caee58b	0.021349689
43	0x3d050372	0.03247399
44	0x3c243035	0.010021259
45	0xbcc045db	-0.02347081
46	0x3c4150b8	0.01179903
47	0x3b9a7e7e	0.004714786
48	0x3cfa900d	0.030586267
49	0x3ccc6d69	0.024954515
50	0x3c2b57f2	0.0104579795
51	0xbc9ae179	-0.018906342
52	0xbc3863ce	-0.011254264
53	0xbcbd2523	-0.023088997
54	0x3ca96efc	0.020682804
55	0x3c9d7fc4	0.019225962
56	0xbc00f08e	-0.007869853
57	0x3a882a2c	0.0010388545
58	0xb9853758	-0.0002540897
59	0xbb9d9962	-0.0048095444
60	0xbc2bbf52	-0.010482626
61	0x3d2a6dd5	0.04160865
62	0x3ad36b74	0.0016130046
63	0x3a7898fb	0.0009483245

gat_net.0.linear_proj.weight f4 [64, 1433]
0	0x3c6a430e	0.014298214
1	0x3c08bfe6	0.008346533
2	0x3dc273db	0.09494754
3	0xbc953d4a	-0.018217701
4	0x3dc1c8e3	0.09462144
5	0xbc86e5dd	-0.01646703
6	0x3d9629e6	0.0733221
7	0x3dc43199	0.095797725
8	0x3dd34fe6	0.10317974
9	0x3cdaceff	0.026710032
10	0x3c5fc66d	0.013658148
11	0x3c3441f9	0.011002057
12	0x3dc5471c	0.09632704
13	0xbb34ea6e	-0.0027605551
14	0x3ced989a	0.02900343
15	0x3da1ff8e	0.07910071
16	0xbd4fcb90	-0.05073124
17	0x3bf261f1	0.0073969294
18	0xbc3adc88	-0.011405118
19	0xbe50ad8e	-0.20378706
20	0x3930858d	0.0001683442
21	0x3d515d15	0.05111416
22	0x3a637070	0.0008676117
23	0x3c328a3f	0.010897218
24	0x3c9929e0	0.018696725
25	0xbdbff6b4	-0.09373227
26	0x3c8675c2	0.016413573
27	0xbdbf66fb	-0.09345814
28	0x3d8d2ddd	0.06893513
29	0xbb97e441	-0.0046353643
30	0xbd6f5b62	-0.05843676
31	0x3bd53413	0.006506452
32	0xbd49e75c	-0.049292907
33	0xbb34a041	-0.002756134
34	0x3c1dac5c	0.009623613
35	0x3d9cf034	0.076630026
36	0xbd3c45cd	-0.045965005
37	0xbcdde488	-0.027086511
38	0x3dfd64b8	0.12372726
39	0xbc2c5dfa	-0.010520453
40	0x3df14164	0.117800504
41	0x3c72d861	0.014822097
42	0x3c2f54fb	0.010701413
43	0x3a9f5cf4	0.001215844
44	0x3a8434e2	0.0010086561
45	0xbe10608b	-0.14099328
46	0x3b2e2a6d	0.002657558
47	0xbc89d7ff	-0.016826628
48	0x3d0336f5	0.032034833
49	0xbc6002fd	-0.013672587
50	0xbd46c5d3	-0.048528504
51	0xbe1233b5	-0.14277537
52	0x3dd34857	0.10316532
53	0x3cb5e013	0.022201573
54	0xbd3301b3	-0.043702792
55	0x3d0973c2	0.03355766
56	0x3dacde6f	0.08440863
57	0x3df722ad	0.12067161
58	0xbdbd1567	-0.09232598
59	0x3cedf254	0.029046215
60	0x37f7407a	2.9474719e-05
61	0x3c9312cc	0.017953299
62	0x3d2af18f	0.041734274
63	0x3d775d14	0.0603915
64	0x3cec848c	0.028871797
65	0x3cbf9575	0.023386696
66	0x3d1a4de0	0.037671924
67	0x3a88dfdd	0.0010442693
68	0x3ba7b785	0.005118313
69	0x3d2fd467	0.042927172
70	0xbd7ced62	-0.061749823
71	0x3d4449cb	0.047921937
72	0xbcebe39f	-0.028795062
73	0xbb2ef3c5	-0.002669559
74	0xbd8a3a66	-0.0674942
75	0xbdaff519	-0.085916705
76	0xbde261a8	-0.11053783
77	0xbd700a34	-0.05860348
78	0xbce41631	-0.027842613
79	0xbc98765a	-0.018611122
80	0xbd75d11c	-0.060013875
81	0xbccb696f	-0.024830548
82	0x3dce1af6	0.10063736
83	0x3c480451	0.01220806
84	0x3d98ab5c	0.07454559
85	0xbdb1c039	-0.08679242
86	0xbdd79152	-0.105257645
87	0x3a4ac96c	0.00077357027
88	0xbe054990	-0.13016343
89	0x3d86f401	0.06589509
90	0x3d31fbc9	0.04345301
91	0x3d980011	0.07421888
92	0x3cbfa6b1	0.023394914
93	0x3e038acb	0.12845914
94	0x3c079693	0.008275646
95	0xbcccbab6	-0.024991374
96	0x3d81b68a	0.06333645
97	0x3ce452db	0.02787154
98	0xbe09c30d	-0.13453312
99	0x3e01b133	0.12665252
100	0xbca52eb4	-0.020163871
101	0xbcd93039	-0.026512252
102	0xbd95aa3d	-0.07307861
103	0xbce316c9	-0.027720826
104	0xbd8fd281	-0.07022572
105	0xbca59340	-0.020211816
106	0xbd92cad9	-0.07167596
107	0x3cf72111	0.030167134
108	0x3c8c3e71	0.017119618
109	0xbc51ebac	-0.012812536
110	0xbd048f50	-0.032363236
111	0x3ce14c3f	0.027502177
112	0xbcfe5ef4	-0.031051137
113	0xbb8024cd	-0.003910637
114	0xbd6742d8	-0.05646023
115	0x3d85181f	0.06498741
116	0xbdb4a0a4	-0.08819702
117	0xbcaf2c2a	-0.021383364
118	0x3e3cf74b	0.1845371
119	0x3d7598a9	0.05996004
120	0x3b5397f5	0.0032286618
121	0x3d48123c	0.048845515
122	0xbd29a032	-0.04141254
123	0xbb08b742	-0.0020861183
124	0xbcde28e2	-0.027119104
125	0xbdc99354	-0.09842554
126	0xbca5520d	-0.020180726
127	0x3acf8a42	0.0015834051
128	0xbd62322f	-0.05522364
129	0xbd7b3e55	-0.06133874
130	0x3de670a0	0.1125195
131	0xbdbf4b47	-0.0934053
132	0xbc24ddb9	-0.010062628
133	0xbb162ffd	-0.0022916787
134	0x3d6bfe49	0.057615552
135	0xbe106a3a	-0.14103022
136	0xbd2faae0	-0.04288757
137	0xbc064bfc	-0.008196827
138	0x3c4365d3	0.011926132
139	0xbd04c41f	-0.0324136
140	0x3e689758	0.22713983
141	0xbcac5fe5	-0.02104182
142	0x3d1808c3	0.03711773
143	0xbd4c0142	-0.049805887
144	0xbb3804aa	-0.0028078952
145	0x39861f50	0.000255818
146	0xbdbc8606	-0.092052504
147	0x3c891862	0.01673526
148	0xbc8c9868	-0.017162517
149	0x3d0b7f70	0.03405708
150	0xbadd266f	-0.0016872416
151	0x3ca5f086	0.020256292
152	0x3c8306f6	0.01599453
153	0xbd25abff	-0.04044723
154	0x3b975b08	0.004619006
155	0xbd7d6ad0	-0.061869442
156	0xbc3ae930	-0.011408135
157	0xbdd7b99e	-0.105334505
158	0x3d0deab4	0.03464766
159	0x3d4337de	0.0476607
160	0xbdf9efb3	-0.12203922
161	0x3bc58a7b	0.006028471
162	0xbd09b5c6	-0.03362062
163	0x3cd03230	0.025414556
164	0x3ccbe063	0.02488727
165	0x3d1d5b6f	0.038417276
166	0x3bbc018e	0.00573749
167	0x3d8da5c4	0.06916383
168	0x3dc3c21c	0.09558508
169	0x3d0a5a91	0.033777777
170	0x3d9007e8	0.07032758
171	0x3a86ee97	0.0010294494
172	0xbd88d449	-0.06681115
173	0x3c849fe0	0.016189516
174	0xbcae149c	-0.021250062
175	0x3c80da6f	0.015729157
176	0xbe336ece	-0.17522737
177	0xbd15ee36	-0.03660413
178	0x3c993500	0.01870203
179	0x3db4140c	0.08792886
180	0x3a27562c	0.0006383385
181	0xbcc97c9b	-0.02459555
182	0xbab8c92c	-0.001409804
183	0xbd66126e	-0.05616992
184	0xbc80bfcc	-0.015716456
185	0xbb19e893	-0.0023484572
186	0xbb7cb28a	-0.0038558566
187	0x3e6be296	0.23035654
188	0xbd023449	-0.031788144
189	0x3cd62bdb	0.026143959
190	0xbc7307cf	-0.014833405
191	0x3e03838f	0.12843154
192	0x3d5d27b6	0.05399295
193	0xbc444def	-0.011981471
194	0x3b07b71b	0.0020708505
195	0x3dc27dbf	0.094966404
196	0x3d823ee5	0.063596524
197	0x3c62c5e6	0.013841128
198	0x3d61238c	0.05496554
199	0x3d5f0740	0.054450274
200	0xbd01f39d	-0.03172647
201	0xbc87d857	-0.016582651
202	0x3d26e47d	0.040745247
203	0xbc0bad3b	-0.008525188
204	0x3b0030bc	0.0019560298
205	0x3da42b6f	0.08016097
206	0xba49f822	-0.0007704516
207	0xbd08dd26	-0.03341403
208	0x3df68e92	0.12038912
209	0x3cb31563	0.021860784
210	0x3d36108a	0.044449367
211	0x3d159aab	0.036524456
212	0x3c45f69c	0.012082722
213	0xbcc8f14c	-0.024529122
214	0xbb1ea16d	-0.0024205104
215	0x3cf7afa0	0.030235112
216	0xbad78c39	-0.0016444988
217	0xbdaef7b1	-0.08543337
218	0xbdcf5bad	-0.10124908
219	0x3ca86996	0.02055816
220	0xbd70da39	-0.058801863
221	0x3c412a21	0.0117898295
222	0x3b873c4d	0.0041270615
223	0x3cb433e0	0.021997392
224	0x3d4dd910	0.050255835
225	0x3a68196f	0.00088538876
226	0x3cf09de7	0.029372169
227	0x3c9e591e	0.019329604
228	0xbd561b0a	-0.05227188
229	0x3d3f5183	0.046708595
230	0xbd997813	-0.074936055
231	0x3d122d56	0.035687767
232	0x3c34d8df	0.011038034
233	0x3cb1c640	0.021700978
234	0x3e07b6ab	0.13253276
235	0xbb22c1ed	-0.0024834827
236	0x3cf156c3	0.029460317
237	0x3dbed3ca	0.09317739
238	0xbdee760d	-0.1164361
239	0x3b451050	0.0030069537
240	0x3c833e8d	0.016021037
241	0xbb54e0e6	-0.0032482683
242	0x3d9d60ef	0.07684504
243	0xbcf87b9b	-0.030332377
244	0x3c8b4387	0.016999973
245	0xbc51f282	-0.012814166
246	0x3b1b58d1	0.0023704062
247	0x3da5e1c8	0.08099705
248	0xbb1212aa	-0.0022288957
249	0xbd99f5b0	-0.07517564
250	0x3e01317b	0.12616532
251	0xbd4c1d36	-0.049832545
252	0x3d1b1cbd	0.037869204
253	0xbd5cd1c2	-0.05391098
254	0x3d82aa14	0.06380096
255	0x3d681586	0.05666115

gat_net.1.scoring_fn_target f4 [1, 1, 7]
0	0x3c0ad04a	0.008472512
1	0x3eb579aa	0.35444385
2	0xbed1bc84	-0.40964139
3	0xbe85462d	-0.26030102
4	0x3e61f020	0.22064257
5	0xbe25b415	-0.16181977
6	0xbdd32a0f	-0.103107564

gat_net.1.scoring_fn_source f4 [1, 1, 7]
0	0x3e5e69a9	0.21719994
1	0x3f275632	0.653659
2	0x3d96c310	0.07361424
3	0xbe7293a0	-0.23689127
4	0x3eb37753	0.35051975
5	0x3e2d386e	0.16916057
6	0x3efe2c74	0.4964329

gat_net.1.bias f4 [7]
0	0x3d89bcca	0.06725462
1	0xbe5aeff3	-0.21380596
2	0x3d940329	0.07227165
3	0x3df25a22	0.11833598
4	0xbd0977ee	-0.03356164
5	0xbc5756e5	-0.013143276
6	0xbda81de4	-0.08208826

gat_net.1.linear_proj.weight f4 [7, 64]
0	0x3df7f510	0.12107289
1	0x3eb81818	0.35955882
2	0xbe8f8931	-0.28034356
3	0xbdc82af9	-0.097738214
4	0x3e083815	0.13302644
5	0x38935008	7.024413e-05
6	0xbeed4f81	-0.4634972
7	0x3da65e1d	0.081234194
8	0xbe90b282	-0.2826119
9	0x3eacb7c2	0.33733946
10	0x3ef2c7b1	0.47417977
11	0xbeff56fa	-0.49871045
12	0x3d5db087	0.054123428
13	0x3e825f02	0.2546311
14	0xbe8f77a9	-0.2802098
15	0xbf0fe640	-0.5621071
16	0x3e8e1b11	0.27755025
17	0x3ec26cd3	0.3797365
18	0x3de0b5c3	0.10972168
19	0x3c9be996	0.01903228
20	0xbe8486e2	-0.25884157
21	0x3e376f23	0.17913489
22	0xbd8e33df	-0.069434874
23	0xbe8a1088	-0.26965737
24	0x3ec86736	0.39141244
25	0x3e93e6b3	0.28886947
26	0x3e9f8ca7	0.31161997
27	0xbd088e0b	-0.033338588
28	0xbef3dd70	-0.4762988
29	0xbe395c73	-0.18101673
30	0x3ebed589	0.3727229
31	0x3e41b40f	0.18916343
32	0xbdb516d1	-0.088422425
33	0xbe9a492a	-0.30133945
34	0xbed9bcc8	-0.4252684
35	0x3e92c959	0.2866924
36	0x3ec8d92e	0.39228195
37	0x3ede7d98	0.43455195
38	0x3dca8d6e	0.09890257
39	0xbee1754d	-0.44034806
40	0xbf01842e	-0.50592315
41	0x3d9d36db	0.076764785
42	0x3eec33c1	0.46133235
43	0x3e0ce222	0.13758138
44	0xbe858839	-0.26080492
45	0x3f01bbdc	0.50677276
46	0xbecac5e8	-0.39604115
47	0x3ed6f263	0.419818
48	0x3e819fcf	0.25317237
49	0x3ee32618	0.44365
50	0xbeea5da8	-0.4577458
51	0x3e1f81cc	0.15576857
52	0x3f095da8	0.53658533
53	0x3d43dd7c	0.047818646
54	0xbe93d259	-0.2887142
55	0xbdfda2b4	-0.12384549
56	0xbe981ab5	-0.29707876
57	0x3e842b94	0.25814497
58	0x3f0ad9be	0.542385
59	0xbe812f53	-0.25231418
60	0x3dfae560	0.12250781
61	0xbea25483	-0.31705102
62	0x3ee3fdc3	0.44529542
63	0xbd819953	-0.063280724
64	0x3e9ac2a8	0.30226636
65	0xbe8feb6b	-0.28109297
66	0x3eeb8a66	0.46004027
67	0x3eb8d354	0.3609873
68	0xbeeb7a4d	-0.45991746
69	0xbe6e93d8	-0.23298585
70	0x3ed11dab	0.40842947
71	0x3efe27b8	0.49639678
72	0x3ec277a1	0.37981895
73	0xbed72360	-0.42019176
74	0xbe984bff	-0.2974548
75	0x3da49d6d	0.08037839
76	0xbedc1468	-0.4298432
77	0xbeba6d54	-0.36411536
78	0x3ec6e0b6	0.38843316
79	0xbed0c3cd	-0.40774384
80	0xbf1a099f	-0.6017093
81	0x3f00a5f3	0.5025322
82	0xbee9a636	-0.4563462
83	0x3e6564ef	0.22401784
84	0xbd56a644	-0.052404657
85	0xbe32317e	-0.17401692
86	0x3e29e3ce	0.16590807
87	0xbefc7434	-0.49307406
88	0xbee54a72	-0.4478336
89	0xbf079b94	-0.5297177
90	0x3ebbd0a9	0.36682633
91	0x3ee9f3d6	0.45693845
92	0x3ee30084	0.4433633
93	0x3ed21036	0.41027993
94	0x3ed2bc88	0.41159463
95	0xbeacc5f5	-0.3374478
96	0x3ece26b2	0.40263897
97	0xbde7e4c4	-0.113229305
98	0xbf119197	-0.5686278
99	0x3ecfe7dd	0.40606585
100	0x3eb22da6	0.34800452
101	0x3ef7d438	0.48404098
102	0xbf0a45f7	-0.5401301
103	0xbecd6929	-0.40119293
104	0xbebcdd36	-0.3688752
105	0xbe3b132e	-0.18269035
106	0x3e9882e2	0.29787356
107	0x3f0a098d	0.53920823
108	0x3f0112e3	0.50419444
109	0xbef5faa6	-0.48042792
110	0x3f007113	0.5017254
111	0xbea71fe5	-0.3264152
112	0xbdb1898c	-0.08668813
113	0xbeaf0dc4	-0.3419019
114	0x3f0238d1	0.50867945
115	0x3ea4cff8	0.32189918
116	0xbe4b9be9	-0.19883694
117	0x3e9733f9	0.2953184
118	0xbed0cf61	-0.40783218
119	0x3d197ddd	0.03747355
120	0x3e84c877	0.25934193
121	0x3eea67d5	0.45782343
122	0x3eb444dd	0.3520879
123	0xbedfd881	-0.43719867
124	0xbeabe89a	-0.33575898
125	0x3f2f511f	0.68483156
126	0xbe4a8799	-0.19778289
127	0xbf088bef	-0.5333852
128	0x3ef3891a	0.47565538
129	0xbee9fe94	-0.4570204
130	0x3dc6d0d4	0.097077996
131	0x3dc9e3a4	0.09857872
132	0xbebfa528	-0.37430692
133	0xbec1c725	-0.37847248
134	0x3eba9f21	0.3644953
135	0x3ded8d45	0.11599211
136	0x3f067124	0.5251639
137	0x3ebc5b9a	0.36788636
138	0xbf07e9bc	-0.53091025
139	0xbefede8e	-0.4977917
140	0x3de7b2c1	0.113133915
141	0xbec61c7a	-0.386936
142	0x3e088dc3	0.13335328
143	0x3f01bca9	0.506785
144	0xbec32301	-0.38112643
145	0xbefbdbc3	-0.49191102
146	0xbec7067c	-0.38872135
147	0xbeb5e914	-0.35529387
148	0x3eb50e3d	0.35362425
149	0x3ed64fc1	0.41857722
150	0x3ebeaa01	0.37239078
151	0x3eaba414	0.3352362
152	0xbea14b30	-0.31502676
153	0x3e301a22	0.17197469
154	0x3c671f9b	0.014106656
155	0xbea43d68	-0.320781
156	0x3ec8fc2a	0.39254886
157	0x3ef9ce24	0.48790085
158	0xbeea02f9	-0.45705393
159	0x3ebb24d5	0.36551538
160	0xbeccf375	-0.40029493
161	0xbf18dc08	-0.5971074
162	0x3ef8a333	0.4856201
163	0xbe61450f	-0.21999
164	0xbed5d8d7	-0.41766998
165	0x3eca6d3c	0.39536464
166	0x3ef94590	0.48685884
167	0x3f039fbb	0.51415604
168	0x3ed4f17d	0.4159049
169	0xbd10bf24	-0.035338536
170	0xbefc1e88	-0.49242043
171	0xbeb2e061	-0.34936813
172	0x3eb8c4a8	0.36087537
173	0xbe67d0d8	-0.22638261
174	0x3eaa092d	0.33210126
175	0x3eaaad27	0.3333523
176	0xbf1fc76f	-0.62413687
177	0x3f0a6f2a	0.5407587
178	0x3eece184	0.46265805
179	0x3ec24c54	0.3794886
180	0xbed8defc	-0.42357624
181	0xbf16cc35	-0.58905345
182	0x3e5b9345	0.21442898
183	0x3f132f29	0.57493836
184	0x3e552139	0.20813455
185	0xbef28392	-0.47366005
186	0xbeee4fbb	-0.46545205
187	0x3f24e36e	0.6440953
188	0xbe900336	-0.2812745
189	0x3ea29dee	0.31761116
190	0x3e7c3664	0.24630123
191	0x3ead7933	0.3388153
192	0xbec40faa	-0.382932
193	0x3e26774e	0.16256449
194	0x3e188fb3	0.14898567
195	0xbef40e64	-0.4766723
196	0x3ecf32b6	0.40468377
197	0x3efc09ae	0.49226135
198	0xbe23d078	-0.15997493
199	0xbe12230a	-0.14271179
200	0xbeebc5e8	-0.46049428
201	0xbf07a13b	-0.52980393
202	0x3d7ffc9b	0.062496763
203	0x3ed410af	0.4141898
204	0xbe177c19	-0.14793433
205	0xbee41fc3	-0.44555482
206	0xbdf75561	-0.120768316
207	0x3eb4443e	0.35208315
208	0x3eca09ae	0.3946051
209	0xbec450ea	-0.38342983
210	0xbbab233e	-0.005222707
211	0x3e09f6a1	0.13472988
212	0xbf0c6084	-0.5483477
213	0x3e700a33	0.2344139
214	0xbeae04c3	-0.33988008
215	0x3eb2121f	0.3477945
216	0x3f125447	0.5715985
217	0x3f06722d	0.5251797
218	0x3ecf9655	0.40544382
219	0xbe1548b1	-0.14578511
220	0xbec69136	-0.38782662
221	0x3ea78953	0.32721958
222	0x3ea70ef6	0.32628602
223	0xbe984782	-0.29742056
224	0xbe966d3e	-0.2938022
225	0xbe811f35	-0.25219122
226	0xbe0699cd	-0.13144608
227	0xbeff76c4	-0.49895298
228	0x3d9a3f23	0.075315736
229	0xbe4d717f	-0.20062827
230	0x3e3f963d	0.18709655
231	0xbeed6613	-0.4636694
232	0xbec52edd	-0.38512316
233	0xbedc1be4	-0.4299003
234	0xbee7de9c	-0.45287025
235	0x3ebb3376	0.365627
236	0x3e62edf0	0.22161078
237	0xbe97be3b	-0.29637322
238	0xbf0bf338	-0.54668
239	0xbef5bf88	-0.4799769
240	0xbe2bd668	-0.16781008
241	0xbf126634	-0.571872
242	0x3ec683db	0.38772473
243	0x3ed597d5	0.417174
244	0x3ed80a87	0.42195532
245	0x3e7138b2	0.23556784
246	0x3ece1d40	0.4025669
247	0x3dd34b32	0.10317077
248	0xbee240b9	-0.44190004
249	0x3c63d49a	0.013905669
250	0x3ddd8435	0.10816232
251	0x3e6013d7	0.21882568
252	0x3cc277c4	0.02373875
253	0x3e0ddb13	0.13853101
254	0xbeb68a92	-0.35652596
255	0x3e611380	0.21980095
