python/binarypath/binaries/gat_000007.pth (torch, 372431 bytes, 8 tensors)

gat_net.0.scoring_fn_target f4 [1, 8, 8]
00000000: 7c33 80bd 11e9 84bd a12c f13c d6ce a13d
00000010: aefc f6bb c678 39bd a631 90bc 9b1a 13be
00000020: bbad b1bb 56ac d03c f999 c83c e17b ab3c
00000030: 8e1a 6ebd fb8b 103d 7ca3 d33d bf1b ffbc
00000040: 7061 d43c 63ed 8cbd 6e49 5bbc 212a bcbd
00000050: 3eb8 153d add2 e8bd cd26 70bc 5b34 e13d
00000060: 7235 043e b805 a5bd ab17 f5bb 1abf 963b
00000070: b84d 7d3c a9ad 9a3d fb46 18bd f408 48bd
00000080: 4e8d 223d 05c5 9b3a e220 8bbd d8b2 483c
00000090: 0604 3cbb 65e6 643d e1a1 21bd 7e22 c43d
000000a0: 5a8c d83c a56f 7fbd 894b b13d 8f50 82bd
000000b0: 669a b4bd 6a1d cb3a 4c43 e1bd 1bdc 38bd
000000c0: 2164 abbd 88a7 153d 0a4c a1bd de50 42bd
000000d0: ab20 48be bfb8 eabd a31b a2bd 68fb d4bd
000000e0: 9c16 0c3e 35d6 663d 2363 cdbd 2789 a03c
000000f0: ba9a 373d 52c5 a83d c240 693d c7d0 913b
-0.0625982 -0.064897664 0.029440226 0.07900779 -0.007537446 -0.045281194 -0.0176018 -0.14365618
-0.0054223216 0.025472801 0.024487482 0.020933094 -0.058130793 0.035289746 0.103339165 -0.03114116
0.025925368 -0.068812154 -0.013384206 -0.09187723 0.03655266 -0.11368308 -0.014657688 0.10996314
0.12911013 -0.080577314 -0.007479628 0.004600418 0.015460424 0.07552654 -0.037177067 -0.048836663
0.03968554 0.0011884278 -0.06793381 0.012249671 -0.0028688922 0.055883784 -0.03946102 0.09576891
0.026434112 -0.062362332 0.08656985 -0.063630216 -0.08818512 0.0015496437 -0.10999164 -0.045131784
-0.083687074 0.036536723 -0.078758314 -0.047440402 -0.19543712 -0.11461019 -0.079154275 -0.103995144
0.136805 0.056356627 -0.100286745 0.01959665 0.044825293 0.08240761 0.056946523 0.004449937

gat_net.0.scoring_fn_source f4 [1, 8, 8]
00000000: 342b 89be 2e96 893d 0fc2 90bc c1f0 0d3e
00000010: d711 cfbd a2f0 3a3d 3a79 e0bd 0bcf c4be
00000020: ab17 133e 0ce2 e3bc 4950 1dbe 860c dbbe
00000030: 3523 233e c34e 553e fb8a 4d3e 1676 113e
00000040: 2ae5 18be a752 eebd d30d 2e3e 4fa2 a33d
00000050: 197a 9e3d bf5f 3bbe b563 873e 99e2 9d3e
00000060: d2cd 293e 237c a1bc 1e24 43bd 5fde 513e
00000070: 78d5 4b3e 8112 893e 27ed 99bd 1893 d73d
00000080: 2041 093e bbde c2bd 359c 86be 570d 17be
00000090: 4152 913d a038 0c3e 4b78 b4bd 15dc 3f3e
000000a0: 27a9 583d 47ae fdbd 9d9d 953d f487 283a
000000b0: c8d2 c3bd 2ae6 843b ba59 4ebe 1d8f 02be
000000c0: a4b5 5bbd b862 4bbe 3369 40be fb90 223e
000000d0: e8f6 8abe 84e0 bfbd 6db7 9b3e 6c07 d9bd
000000e0: adbe 903e 2eab b23e 5e43 6abe 1168 50be
000000f0: 35dc 8b3d dcb5 a43d 8c79 5fbe b92f 623e
-0.26790774 0.067180976 -0.01767066 0.13861372 -0.101108246 0.04563964 -0.10960622 -0.3843921
0.14364497 -0.027817748 -0.15362658 -0.42782992 0.15931399 0.20830826 0.20072548 0.14205202
-0.14931169 -0.116368584 0.16997461 0.07989942 0.07738132 -0.18298243 0.26443258 0.30836943
0.1658242 -0.019712513 -0.047641866 0.20494984 0.1990565 0.2677193 -0.07515936 0.10526103
0.1340375 -0.09515139 -0.26291052 -0.14751182 0.07095767 0.13693476 -0.088120066 0.18736298
0.05289569 -0.123867564 0.07305453 0.000642895 -0.09561688 0.004055758 -0.20151415 -0.12749906
-0.053640023 -0.19861877 -0.1879013 0.15875618 -0.271415 -0.09368995 0.3041338 -0.10597119
0.28270474 0.34896225 -0.22877261 -0.20352198 0.068291105 0.080424994 -0.2182371 0.22088517

gat_net.0.bias f4 [64]
00000000: 63c2 9dbc b4a7 1abd 98c1 c23c 56f5 c63c
00000010: cfdc 9d3c b5ec 1b3c ae83 283c d624 443c
00000020: fdf5 a53c 08c9 adbc 2d87 bdbc 77bf b8bc
00000030: 1268 56bb 7e4f cc3c 7c3d ed3c 4606 aa3c
00000040: ea77 68bc 42c4 9fbc 142d 173d 96dc 23bc
00000050: eedc 95bc 758c 083c af40 46bb d1f6 c83b
00000060: 27ea f5bc ae50 ea3c 6c88 cabc 11c4 063d
00000070: f855 893c f9a6 1c3d 2381 da3c 1423 aa3c
00000080: c3e3 a43c f907 8bbc bc9c 033c 8576 1d3c
00000090: e8d4 4b3c 86de 803b fc6c beb9 f313 50bb
000000a0: e0de f7bc b732 bd3b 6c0d 0dbc 25b2 83bb
000000b0: 5b1b a13b ae4e 643b 3c95 b33c dc4f 1cbc
000000c0: ae66 42bc e485 aa3c 0ffc 563d cade 253d
000000d0: 0099 8e3c 4454 b0bb d01f d33a 4e3d f53c
000000e0: 2474 75bb c113 983c a83c 8fb9 b618 113c
000000f0: f82f ec3c 9e07 0dbd 52ac ae3b 7fbf e33c
-0.01925773 -0.03775759 0.023773953 0.024286907 0.019270329 0.009516885 0.010285301 0.011971673
0.020258898 -0.021214023 -0.023135746 -0.022552235 -0.003271584 0.024940249 0.028959982 0.020754945
-0.014188746 -0.019502763 0.036908224 -0.010001322 -0.018293824 0.008334269 -0.0030250957 0.0061329384
-0.03001888 0.028602924 -0.024723254 0.032901827 0.016764626 0.038245175 0.026672905 0.02076868
0.020128137 -0.016971575 0.008032974 0.009610777 0.0124408975 0.003932777 -0.00036320824 -0.0031750172
-0.030257642 0.005773868 -0.008609157 -0.004019039 0.004916591 0.0034836936 0.021921746 -0.009540524
-0.011865301 0.020815797 0.052486476 0.04049567 0.01740694 -0.005381139 0.0016107503 0.029936459
-0.0037453258 0.018564107 -0.00027320278 0.008855989 0.028831467 -0.034431092 0.005330601 0.027801273

gat_net.0.linear_proj.weight f4 [64, 1433]
00000000: 4923 09bc 189d 323e 2a91 16bc 4b0b ddbc
00000010: ddc3 52be 22fc 0b3d 3c12 29bd 0762 fb3d
00000020: cd67 443d b3ce 3c3d d311 8f3b fab7 713b
00000030: 4ea6 31be c694 ac3d 2828 f8bd 3e69 f6bd
00000040: 44a7 3ebd 9f15 b13d 58bc aa3c 6ed4 633e
00000050: 3616 6ca9 3762 58bd 158d ee3c ab9f 0ebd
00000060: 6ceb 85bb e429 a5bd dc39 6abe 836f d7bb
00000070: 6a26 38be ca8a a2bc fee3 fa3d 71f8 d7bb
00000080: 26bd 883c 72d3 abb9 48b8 6f3d 9c9f e0bd
00000090: 33e7 dabd f9b8 18bb d0e4 fdbd 267d fa3d
000000a0: 6094 52be cf1f a2bd 6fa4 233d d0c2 2bbb
000000b0: 509d a0bd 6bcc 5cbc ffb6 8b3b a433 1dbd
000000c0: 948a 9dbc 61e1 ab3b 525e b63d 2da8 43be
000000d0: aa54 a3bd caba b33c f267 d3bc 0b4d 923d
000000e0: 1dcf 41be dac7 463d f6a7 073e 8470 f0bc
000000f0: 6883 1e29 d8c2 2a3e fe04 92bc ea48 a2bd
00000100: 0b3c 43bd e334 e93c fdd3 173d 820f 21bd
00000110: 6df1 c1bc 665f 993c b452 91bd 7b44 86bd
00000120: 6a8e 8a3b 99ca 3d3d 375e 7a3d 1d2f 283e
00000130: 18ad 043e 85ec e4bd 15cc c3bd 1a3c 28bc
00000140: 446e 023e 5dcf 693c 8680 0bbe 310e adbb
00000150: 4fde 0bbd 31b2 5d3e 56ff d3bc eb34 c9ba
00000160: 309f 1c3e 0813 64bd 9f0f 04bc d4fa c4bc
00000170: 800f 373c a248 27be 68ee c83d 66e3 adbd
00000180: fad7 98bd 2cfa 4f3d 63ef 08bd b814 143d
00000190: ec66 efbc e03a 163d 2ab6 12be b03b 803c
000001a0: b021 17bc 1652 023d 2911 a5bd 1e1b 3dbc
000001b0: b30d f63c 8a7f 543d 88db 9ebc 7566 723d
000001c0: 2a1d d03c 7aa0 013c de48 0a3e 84eb 39bc
000001d0: 912b 2b3e 5e7e bc3b 3bca 60bd 2854 11bc
000001e0: 7422 bd3d 1acb aabd 2314 7e3d 6514 08bc
000001f0: db94 ad3d 8f7c f93c 332c 77bd b795 18bd
00000200: c88b 943d 8c78 4dbd 97c8 673d d5a1 dc3c
00000210: f2a5 9c3d a4b7 a9bd 9de9 863d ecb0 3abd
00000220: d388 e33d c37b 393d 7b70 72bc 33d7 e03d
00000230: 6548 123d 4f04 063d b133 613d fc45 353d
00000240: f7d9 a8bb 38be 56a8 214b 23bd 513b f93d
00000250: fe19 523d d015 a5bc 820d b93b 6989 3fbe
00000260: bea3 633c e6e9 2cbe f661 a9bd 90fc eebd
00000270: 6305 1a3e c4d4 a73d 00ba 48bd 812c 4fbd
00000280: d5c7 503e e3cc 29bc fcaa 0cbc 3e48 e53c
00000290: c299 ac3d 8225 263c c534 893d b842 793c
000002a0: b6c3 233e 6540 503c 8299 0ebe ff07 703c
000002b0: 8884 3dbd 41c5 313e ab3f 813d effe 1f3c
000002c0: e8cc 023e db6d aa3d ec74 e7bc af7e 0dbd
000002d0: 10b2 a23c a5e8 39bd 1db2 0cbb 134d dabc
000002e0: 7d8d e53c 2fc9 963c 60c8 ad3d 8628 8fbd
000002f0: fda6 3c3d 971b eabd d1f9 ddbb 3526 163d
00000300: cb11 813d 1c4c 8fbc 0754 ae3d aaa7 acbd
00000310: f92e 283d 6b81 a9bd f2cb 153d 8440 3b3d
00000320: 94b5 2dbd edc9 fd3c 7ee5 d23c 63e6 503d
00000330: 54b9 93bc dda3 18be 42b6 94bd d4eb ba3d
00000340: 7deb 263e 1aad 453d 6687 05bd a167 99bd
00000350: 9162 2abd 9df2 273e 0da5 adbd 73cc 1f3c
00000360: 3806 393d 3f61 043e 789f a33d 78ae 20bd
00000370: e95f 4d3c a8aa 62bd 06ff a2bd ef60 ba3b
00000380: 58e0 d4bd 05e1 2a3e d5af 07be b797 cd3d
00000390: 63a1 5dbc 61d9 68bc ba8b 353d ca25 013a
000003a0: 6c8c 03be acfb 81bd 8964 54be df29 723c
000003b0: 5985 aebd ccfb 8ebb 7127 93bc cbda ce3a
000003c0: fc00 403d bc62 7ebc 8067 53bc 8935 613c
000003d0: 14f8 20be facb 22bd 6ada 21bb 2310 a23d
000003e0: 5356 063e 977f ff3c 2789 593d c07a 0c3e
000003f0: 35fb 333d 7b31 27bd e1ea ab3d 0b78 1abc
-0.008370229 0.17442739 -0.009189883 -0.026982924 -0.20582528 0.034176 -0.041277155 0.122745566
0.047950555 0.04609556 0.0043661385 0.003688334 -0.17348596 0.08426814 -0.12117034 -0.12031792
-0.046546236 0.08646702 0.020841762 0.22249004 -5.242179e-14 -0.05282804 0.029120008 -0.03482024
-0.0040869024 -0.08064631 -0.22873634 -0.0065745725 -0.17983404 -0.01984157 0.12250517 -0.006590896
0.016691756 -0.000327732 0.058525354 -0.10967943 -0.10688629 -0.0023303612 -0.12397158 0.122309014
-0.20564413 -0.07916223 0.039951738 -0.0026208647 -0.07842505 -0.013476471 0.004263758 -0.038379326
-0.019231118 0.005245373 0.08904709 -0.19107123 -0.07975133 0.021939654 -0.0258064 0.07143601
-0.18926664 0.048530437 0.13247666 -0.029350527 3.5197024e-14 0.1667589 -0.017824646 -0.079240635
-0.047664683 0.028467601 0.037067402 -0.03932143 -0.023674691 0.018722247 -0.070958525 -0.0655603
0.004228403 0.04633579 0.061125007 0.16424222 0.12956655 -0.11177925 -0.0956041 -0.010268236
0.12737375 0.014270631 -0.13623247 -0.0052812328 -0.034147557 0.21650006 -0.02587859 -0.0015350854
0.152951 -0.055682212 -0.008060365 -0.024045385 0.011173129 -0.16336301 0.098110974 -0.084906384
-0.07463069 0.050775692 -0.033431422 0.03615257 -0.029223882 0.03667724 -0.14327303 0.015653461
-0.00922434 0.031816565 -0.08059914 -0.01154211 0.03003583 0.051879443 -0.01939179 0.059179742
0.025404532 0.007911796 0.13504359 -0.011347655 0.16715838 0.005752369 -0.054880362 -0.008870162
0.09235087 -0.0833952 0.062030923 -0.008305644 0.084756576 0.030454902 -0.060344886 -0.037252154
0.07253224 -0.05016379 0.05658778 0.026932636 0.07648839 -0.0828698 0.06587527 -0.045578882
0.111100815 0.045284044 -0.014797325 0.10978546 0.035713572 0.032718953 0.054980937 0.044256195
-0.0051529366 -1.19206335e-14 -0.03986657 0.12169517 0.05129432 -0.020152003 0.005647362 -0.18704762
0.01389402 -0.168861 -0.08270638 -0.11669266 0.15041117 0.08194879 -0.04900551 -0.05057955
0.2038873 -0.01036379 -0.008585688 0.02798855 0.084277645 0.0101407785 0.06699518 0.015213661
0.15992627 0.012710665 -0.13925746 0.014650344 -0.04626897 0.17360403 0.06310972 0.009765371
0.12773478 0.083217345 -0.028253995 -0.034544643 0.019860297 -0.045387883 -0.0021468468 -0.02664808
0.028021568 0.018406479 0.08485484 -0.06990151 0.04605769 -0.114310436 -0.006774165 0.03665753
0.06302222 -0.017492346 0.08512121 -0.08430417 0.04106042 -0.08276638 0.03657145 0.045715824
-0.042409495 0.030980075 0.025744196 0.051000964 -0.018032707 -0.14906259 -0.072613254 0.09127012
0.16300769 0.048260786 -0.03259983 -0.07490469 -0.041597907 0.16401143 -0.084787466 0.009753334
0.045171946 0.12927721 0.079894006 -0.039228886 0.012535074 -0.05533853 -0.07958798 0.005687825
-0.10394353 0.166874 -0.13250668 0.10038703 -0.013527247 -0.014211983 0.044322707 0.00049265905
-0.12846535 -0.06346831 -0.20741476 0.014780491 -0.08521528 -0.0043635126 -0.017963143 0.0015781758
0.04687594 -0.01552647 -0.012903094 0.013745674 -0.15719634 -0.03974531 -0.0024696835 0.07913234
0.13118868 0.03118877 0.053109314 0.137187 0.04394074 -0.040818673 0.08394409 -0.009428035

gat_net.1.scoring_fn_target f4 [1, 1, 7]
00000000: 8cc9 0c3e ed29 1e3e 484a 8abd 237e ac3c
00000010: b495 5bbe ac9d 3ebd 820d 77bd
0.13748759 0.15445681 -0.06752449 0.02105624 -0.21443826 -0.046537086 -0.060315616

gat_net.1.scoring_fn_source f4 [1, 1, 7]
00000000: 0709 8d3e ba01 853e 75f9 573e 081a 4d3e
00000010: 98c3 473e 9464 423e 7a68 003e
0.2754595 0.2597788 0.21091254 0.20029461 0.19508207 0.1898368 0.12539855

gat_net.1.bias f4 [7]
00000000: f663 15bd 249a 0bbe 2bc4 0dbd 5216 e03c
00000010: fd04 7dbd 49a9 84bc 65f7 573d
-0.036472283 -0.13633019 -0.03461091 0.027354393 -0.061772335 -0.016194003 0.05272617

gat_net.1.linear_proj.weight f4 [7, 64]
00000000: 5945 13bf 61b7 f4bc 5792 cabe 6d8e 443f
00000010: f7d9 083f 1109 303e 2668 38bf 3383 1fbe
00000020: 5398 8abf fb82 283f 2890 e9be 0ea4 f83e
00000030: 944a f43d 435f d3be 9b1a 093f b25f 01bf
00000040: a132 4ebf c3c4 d1be 7a11 9dbe 1f28 febe
00000050: 07f3 353f e801 00bd 0d22 59bd b617 2b3f
00000060: 384e b83c 7f2b be3e bde5 f4bd 2899 3fbf
00000070: 8dde f93e 8be3 44bd 0a69 f7be 7664 fabc
00000080: 94ef 6bbf a110 1ebc 961f f73e 284e 81bd
00000090: 1215 acbe 56a4 26bf 6181 753f 18e3 3e3e
000000a0: a587 90be 0c31 1d3e ff9d 3abe 876c 383f
000000b0: 96cf 453f f9dc 86bf cbe3 1e3f 5db5 253d
000000c0: 82e3 1e3e 1a83 953e e621 04bd 1799 2fbf
000000d0: 42c6 933e e1a3 9f3e b059 34bf 88d7 03be
000000e0: 82d3 b6be c97a 143f 5650 383f a1e8 d33e
000000f0: d74a e83e 86e9 20bf 4daa babd fc6e 103e
00000100: 4f60 073f c7e4 bbbe ae66 f63e 5ecc e63e
00000110: cddc ef3e f57b 05bf 8b9d c53e 6ae8 2e3f
00000120: 46d1 abbe 076b cc3e fe23 c0be b089 21bf
00000130: caa5 4b3f 4987 50be 33a2 213f 80c1 0bbf
00000140: cc98 0fbf 917d f73e 95d6 2a3f 0ea4 253f
00000150: b9eb 223f 6267 33bf 35bf 6abe 975a 00bf
00000160: b6af a93e 6d1e 653f 8485 2fbf 79f9 fb3e
00000170: e146 50bf 1c9c ea3e 9429 323f d47b 3fbf
00000180: 7877 40bf 7918 44be dd1d afbe d785 053f
00000190: a99c 213f ceb8 213f 3e23 23be 9861 20bf
000001a0: ffd5 693f 7beb 5b3f 2462 5c3f e832 4abf
000001b0: 807f cfbe 5221 01be cde8 a8be 1f5f 6cbe
000001c0: 7619 2b3f e028 0abf dc93 4abf 7255 0a3f
000001d0: bb27 3cbf 467a 31bf e7ed adbc 1cfe 37bf
000001e0: dc4b 8c3e 7698 4a3f 16ba 6bbe 1278 f7be
000001f0: a88d 6dbf 05d5 1b3f 3eb2 bb3e 55b9 9c3e
00000200: c29c e43e b5ef 113f d05c b13e d907 bdbe
00000210: f001 ca3e d15b 353f a389 ec3e 9fb2 273f
00000220: e9fa b13d b76b b73d 0630 463f 34bd 00bf
00000230: 3ee7 d6be 4b18 023f 8d24 08bf 3ccc 08bf
00000240: fcbd 333f adcd 10bf 2734 e43e 9b2e 8abe
00000250: cbcf 2bbf 6f75 32bf 00aa 273f ec37 343f
00000260: e888 983d 7bc9 17bf efb6 13bf 9c9c 3e3f
00000270: 4183 0d3f 4471 94be a378 c3be 929f 29bf
00000280: 2160 d73e 582d 093f 4409 2fbf bce3 10bf
00000290: 48e5 20bf d321 59be d45a d6be ffaa 223f
000002a0: 10bc 06bf a9ae c2be 1729 1bbf 2bda ef3e
000002b0: 71e9 2cbf e616 843e fba7 38bf fae3 06bf
000002c0: 183a 093f b204 f7be 0159 babc 34ef 18bf
000002d0: 549c 2c3e c261 14bf 778d 16bf c243 ac3d
000002e0: e24c 293f 7835 89be cbe8 32bf 7054 1cbf
000002f0: e5d9 f63e 7586 ca3d 1864 4dbf 072d 5f3e
00000300: 9648 393f 7538 27bf 5307 62bf e497 ffbe
00000310: 7f30 08bf 2e4f 60bf f673 b13e f9b8 293f
00000320: 4029 50bf 1143 3bbf 32a4 5b3e 0349 b8be
00000330: 0159 debe 548f d7be eda4 6cbf 31aa e63e
00000340: 94dc 14bc 63e1 05bf addd 3c3f 2723 34bf
00000350: 9c5a a7bd 5781 d1be 61ec 86bf 3f58 31bf
00000360: 46ac 95bf 5025 383e e2c1 f53e 92da 663e
00000370: 2800 02bf 5ab5 a5be 8e93 2d3f 4d3e c5be
00000380: d5ff 44bf e745 85be 2dad f83e 99c6 48bf
00000390: 73ae 36bf 6fb2 67be dbf6 5fbe 9e00 78bf
000003a0: 4c27 bcbe 8a6b 343d d9c4 34bf d5e3 41be
000003b0: 4f66 09bf 1ba7 183f ca83 583f 5b78 5bbe
000003c0: dd3d 69bf 57cf b5be c982 3b3f 50e6 cc3e
000003d0: a5a3 473f 0e7e ea3e e454 ee3d 5fa7 c5be
000003e0: f1d7 3abf ac2d dabe ceb9 343f 4a5b 013e
000003f0: 4311 f1be fbfc 133f 5471 8c3e b765 bcbc
-0.5752769 -0.029872598 -0.39564773 0.76779824 0.5345759 0.17190959 -0.7203392 -0.15577392
-1.0827736 0.6582486 -0.45617795 0.48562664 0.11928287 -0.41283616 0.5355622 -0.50536644
-0.80546004 -0.4097043 -0.30677396 -0.49639985 0.71073955 -0.031251818 -0.05301099 0.66833055
0.022498235 0.3714256 -0.119578816 -0.7484307 0.48802605 -0.048068564 -0.48322326 -0.030565482
-0.9216244 -0.009647519 0.48266286 -0.06313735 -0.33609825 -0.65094507 0.9590054 0.18641317
-0.2822849 0.15350741 -0.18224333 0.720406 0.77269876 -1.0536186 0.62066334 0.040456165
0.15516475 0.29201585 -0.03225889 -0.6859297 0.28862196 0.31179717 -0.7044935 -0.12875187
-0.35708243 0.57999855 0.7199758 0.4138842 0.45369598 -0.6285633 -0.091145135 0.14104837
0.5288133 -0.3669798 0.48125213 0.45077795 0.46848145 -0.5214227 0.38596758 0.68323386
-0.335581 0.39925405 -0.3752746 -0.6310072 0.7954985 -0.20364107 0.6313812 -0.5459213
-0.56092525 0.48337987 0.66733676 0.6470345 0.63640934 -0.70079625 -0.22924502 -0.5013823
0.3314187 0.8949955 -0.68563104 0.4921377 -0.8135815 0.45822227 0.69594693 -0.7479832
-0.75182295 -0.1914996 -0.3420247 0.5215735 0.6312967 0.63172615 -0.15931413 -0.62648916
0.9134216 0.8590619 0.8608725 -0.78983927 -0.40526962 -0.12610367 -0.32990113 -0.23083161
0.66835725 -0.5396862 -0.79131866 0.5403663 -0.73498124 -0.693272 -0.021231605 -0.71872115
0.27401626 0.79138887 -0.23020205 -0.48333794 -0.92794275 0.60871917 0.36659425 0.30610147
0.44650847 0.5700639 0.34641123 -0.3692005 0.39454603 0.70843226 0.46198758 0.6550693
0.086904354 0.08956092 0.7741703 -0.502887 -0.419733 0.5081832 -0.5318077 -0.53436637
0.7021177 -0.56563836 0.4457104 -0.26988682 -0.6711394 -0.6971044 0.65493774 0.7039783
0.07447988 -0.5929181 -0.5770101 0.74457717 0.552784 -0.28992665 -0.38177976 -0.6625911
0.42065528 0.53584814 -0.68373513 -0.56597495 -0.62849855 -0.21204309 -0.4186617 0.6354217
-0.5263071 -0.3802388 -0.60609573 0.46846136 -0.67543703 0.2579872 -0.7213132 -0.52691615
0.5360427 -0.4824577 -0.022747518 -0.59739995 0.1685651 -0.57961667 -0.5880961 0.08411361
0.6613294 -0.26798606 -0.69886464 -0.6106634 0.48213115 0.09888927 -0.80230856 0.2179452
0.7237638 -0.6532052 -0.88292426 -0.4992057 -0.53199 -0.8762082 0.34658784 0.6629787
-0.8131294 -0.7314921 0.21449354 -0.35993204 -0.4342728 -0.42101538 -0.92439157 0.4505172
-0.009085793 -0.5229704 0.7377575 -0.7036614 -0.08171579 -0.4091899 -1.0540887 -0.6927528
-1.1693199 0.17982984 0.47999483 0.22544315 -0.5078149 -0.32364923 0.67803276 -0.38524094
-0.7695287 -0.26029894 0.48569623 -0.78428036 -0.7135994 -0.22626661 -0.21871512 -0.9687594
-0.3674873 0.04404787 -0.70612866 -0.18934567 -0.53671736 0.5962998 0.84576094 -0.2143263
-0.9111002 -0.3550975 0.7324644 0.40019464 0.77984077 0.45799297 0.11637285 -0.38604257
-0.7298575 -0.4261297 0.70596015 0.1263248 -0.47083482 0.5780789 0.27430212 -0.02299772
