python/binarypath/binaries/gat_000019.pth (torch, 372431 bytes, 8 tensors)

gat_net.0.scoring_fn_target f4 [1, 8, 8]
0	0xbdd87337	-0.105688505
1	0xbd8b047d	-0.067879654
2	0x3d6644e5	0.056218047
3	0xbd637e6e	-0.055540495
4	0xbdbb2095	-0.09137074
5	0xbe02a787	-0.12759219
6	0xbce42765	-0.027850816
7	0x3db95b6b	0.0905064
8	0x3dbf548b	0.09342297
9	0xbd8caff8	-0.06869501
10	0xbd0e5cd7	-0.034756508
11	0x3ce931b8	0.02846609
12	0x3d146bde	0.036235683
13	0x3c338fc1	0.010959567
14	0xbca681a8	-0.020325497
15	0x3c2d0ff2	0.010562884
16	0xbd5cac4c	-0.053875253
17	0xbcc334b0	-0.023828834
18	0x3d8fe969	0.07026941
19	0xbd91e3a6	-0.071234986
20	0xbcf86800	-0.030323029
21	0xbd14ab9d	-0.036296476
22	0x3c82c4af	0.015962927
23	0x3d116264	0.035494223
24	0x3c01c1ec	0.00791977
25	0x3c119900	0.008886576
26	0x3d4725dc	0.04862009
27	0x3bc8fbe4	0.0061335433
28	0x3d0135ae	0.031545334
29	0x3d10d00f	0.03535467
30	0xbbe5aa10	-0.0070087984
31	0x3c458d44	0.012057606
32	0xbcb730e3	-0.022362178
33	0xbbff771e	-0.0077961823
34	0x3da7f864	0.082016736
35	0x3d1f8b14	0.038950995
36	0x3d93dc39	0.072197385
37	0xbbff134a	-0.007784282
38	0x3d38a8b9	0.04508278
39	0xbd28bda8	-0.041196495
40	0xbdbd92c3	-0.09256508
41	0x3d477430	0.04869479
42	0x3da1570a	0.078779295
43	0xbdf13509	-0.11777694
44	0x3cf5aedf	0.029990612
45	0x3c74e135	0.014946272
46	0x3c30c504	0.01078916
47	0x3d7b4709	0.06134704
48	0x3dccd8b7	0.100022726
49	0xbd37c74d	-0.044867802
50	0x3c601a75	0.013678183
51	0x3d860f93	0.06545939
52	0xbdcafe1d	-0.099117495
53	0xbc963646	-0.018336426
54	0xbd9a3aa5	-0.07530717
55	0x3e07c83a	0.13259974
56	0xbb774169	-0.0037728196
57	0x3d8fea49	0.07027108
58	0x3d550ffd	0.0520172
59	0x3dcbfcd5	0.09960333
60	0xbda95d3a	-0.08269735
61	0x3d157847	0.03649166
62	0xbd8637c7	-0.065536074
63	0xbd233289	-0.039843116

gat_net.0.scoring_fn_source f4 [1, 8, 8]
0	0x3ca6d6b7	0.020366056
1	0xbe89f611	-0.26945546
2	0xbe9c4ebc	-0.3052882
3	0x3e5b8557	0.21437584
4	0xbeb29b3f	-0.34884068
5	0xbebadb97	-0.3649566
6	0x3dcec638	0.10096401
7	0xbd6463b1	-0.055759136
8	0x3c6c531f	0.0144241145
9	0xbd3e7906	-0.046502136
10	0xbe24eec4	-0.16106707
11	0xbe2a4940	-0.16629505
12	0x3e712bb8	0.23551834
13	0xbe954ea3	-0.29161558
14	0x3e63e524	0.22255379
15	0xbc244040	-0.010025084
16	0xbd650f08	-0.055922538
17	0x3d7ac1cc	0.061219975
18	0x3e3e9ee1	0.18615295
19	0xbe1c319f	-0.15253304
20	0xbda58a89	-0.08083064
21	0xbdf11b02	-0.117727295
22	0x3ce38ac9	0.027776139
23	0x3e3507f0	0.17678809
24	0xbdd90c38	-0.10598034
25	0x3d3d918d	0.046281386
26	0x3e473b18	0.19456136
27	0xbe02e4cf	-0.12782596
28	0x3e066351	0.13123824
29	0x3e1c0ab0	0.15238452
30	0xbe12856c	-0.14308709
31	0x3e491c23	0.1963964
32	0xbde8266f	-0.113354556
33	0x3ea8e3fd	0.3298644
34	0x3e525be9	0.20542873
35	0xbde6edd3	-0.1127583
36	0x3d3d5fd9	0.046233986
37	0x3d04549a	0.032307245
38	0xbdb81f49	-0.08990342
39	0xbe1a2196	-0.15051875
40	0xbd4c8f42	-0.04994131
41	0x3e6f4b95	0.23368676
42	0x3e5ec305	0.21754082
43	0x3d6c30d0	0.05766374
44	0xbe7afcba	-0.2451047
45	0x3d707229	0.05870262
46	0xbe848104	-0.2587968
47	0x3d299957	0.041406002
48	0x3e91e69f	0.28496262
49	0xbc821b26	-0.015882086
50	0x3e931d20	0.28733158
51	0x3e06edc1	0.13176633
52	0xbe8e26e7	-0.27764055
53	0xbe9ddaaa	-0.3083089
54	0xbe7fcc19	-0.24980201
55	0x3eaa9c1f	0.33322236
56	0xbdadc63d	-0.084850766
57	0x3e8e49ac	0.27790582
58	0x3e29a8a2	0.16568235
59	0x3e658997	0.22415768
60	0x3e9b0e2c	0.3028425
61	0xbdc704b3	-0.09717693
62	0xbe98a05c	-0.29809844
63	0xbceb7abd	-0.02874505

gat_net.0.bias f4 [64]
0	0x3c11db4e	0.008902384
1	0xbcff12a4	-0.031136818
2	0xbd290c17	-0.041271295
3	0xbc7ecd00	-0.0155518055
4	0x3bca5a0c	0.006175285
5	0xbd4347e5	-0.047675986
6	0x3d24b106	0.040207885
7	0x3c9b103b	0.018928638
8	0x3cb36712	0.021899734
9	0x3b9bd71a	0.0047558667
10	0x3cba6812	0.022754703
11	0xbb8ddf56	-0.0043296022
12	0x3bfde536	0.0077482713
13	0x3c143a0b	0.009047042
14	0xbce04093	-0.027374541
15	0xbc5e1eae	-0.013557119
16	0xbccdb934	-0.025112726
17	0x3bcb8f86	0.0062121777
18	0x3be225fa	0.0069015
19	0xbc6803b8	-0.014161043
20	0xbcdca337	-0.026933296
21	0xbc47cd7c	-0.012194987
22	0xbc2dadd2	-0.010600524
23	0x3cbfb99b	0.023403933
24	0x3c65cbcf	0.014025643
25	0x3c2943d9	0.010331118
26	0xbbfe215b	-0.007755441
27	0xbc901528	-0.017588213
28	0xbcdf3fb5	-0.027252058
29	0x3a3fa51c	0.0007310675
30	0x3c0dcefc	0.008655306
31	0xbcb0c2df	-0.021577297
32	0x3d80d10d	0.06289873
33	0x3b8d7309	0.004316692
34	0xbba62c8e	-0.0050712293
35	0x3cd91060	0.026497066
36	0xbc15e099	-0.009147787
37	0x3cdb443a	0.026765931
38	0x3cbd733c	0.023126237
39	0xbbfd25aa	-0.007725437
40	0x3d0731b5	0.03300639
41	0xbc9596ec	-0.018260442
42	0x3cd03ad9	0.025418686
43	0x3d6ec783	0.058295738
44	0xbb28c20d	-0.002575043
45	0x3c3aef20	0.011409551
46	0x3d54ecae	0.051983528
47	0x3c02f5f6	0.007993212
48	0x3cdebf8a	0.027190942
49	0x3a81b5d8	0.0009896113
50	0x3d13f722	0.036124356
51	0x3cb3bebe	0.021941539
52	0x3cdd3254	0.027001537
53	0xbc0c38a3	-0.008558425
54	0x3c328c9e	0.010897784
55	0x3c377304	0.011196855
56	0x3af4c2a6	0.0018673732
57	0x3ca6c797	0.020358844
58	0xbc204a19	-0.009783291
59	0xbbfa403e	-0.007637053
60	0x3c509b56	0.0127323475
61	0xbb816584	-0.003948869
62	0x3d02c28b	0.031923812
63	0x3c0d2dd1	0.0086168805

gat_net.0.linear_proj.weight f4 [64, 1433]
0	0x3cb775ef	0.022395102
1	0x3e1f2477	0.15541254
2	0x3dc8299a	0.0977356
3	0xb9ce3098	-0.00039327587
4	0x3e5dfbeb	0.2167813
5	0xbc8b406a	-0.016998488
6	0x3d12d664	0.03584899
7	0x3c6c4fa5	0.014423286
8	0x3e1df703	0.15426259
9	0x3c8a83ca	0.016908545
10	0x3bd97757	0.006636541
11	0x3d30a18d	0.043122817
12	0x3d5ef273	0.054430436
13	0xbc03d4fd	-0.008046386
14	0x3cbf53c9	0.023355382
15	0xbda10f57	-0.07864254
16	0xbca2a149	-0.019852297
17	0x3d6a9e78	0.057280034
18	0xba6f6690	-0.00091324095
19	0xbeb05bc9	-0.34445027
20	0x340a971d	1.2907226e-07
21	0x3d916060	0.0709846
22	0xbcb4ea7f	-0.022084473
23	0x3bfbaf9d	0.007680847
24	0xbcb8165e	-0.022471603
25	0xbd9aed45	-0.07564787
26	0x3d03ca78	0.03217551
27	0xbced5f4d	-0.028976107
28	0xbbebb346	-0.007193002
29	0x3bf846e1	0.007576809
30	0x3ae37272	0.0017352833
31	0x3bc19429	0.0059075546
32	0xbc81ac3e	-0.015829202
33	0xbacfc8e4	-0.0015852717
34	0xbc7800da	-0.015136922
35	0x3d943212	0.07236113
36	0xbdb7a250	-0.089665055
37	0x3c47f71c	0.012204912
38	0x3e3c980b	0.18417375
39	0xbc8ff955	-0.017574945
40	0x3e31644f	0.17323421
41	0xbd39d550	-0.045369446
42	0xbd1b7995	-0.037957747
43	0x3be80018	0.0070800893
44	0xbd1906f0	-0.03736013
45	0x3d557d4e	0.052121453
46	0x3c8b0ca8	0.016973808
47	0xbca65203	-0.020302778
48	0xbe0cccff	-0.13750075
49	0x3aae00d0	0.0013275389
50	0x3c8e3031	0.017356964
51	0xbe4b1358	-0.19831598
52	0xbd5528c6	-0.052040838
53	0x3b0120dc	0.0019703424
54	0x3cfbc4cc	0.030733489
55	0x3bf88cac	0.007585129
56	0xbd3d87c5	-0.046272058
57	0x3dc0a8e2	0.09407212
58	0xbe1e28fe	-0.15445325
59	0x3d8f1177	0.06985753
60	0xb46ee65d	-2.2249283e-07
61	0xbc91d41d	-0.017801339
62	0xbc9dffc9	-0.019287007
63	0xbd58d09c	-0.05293332
64	0x3b89aae3	0.0042012795
65	0x3db43207	0.087986045
66	0x3da5c128	0.08093482
67	0x3b928642	0.004471571
68	0xbd2612c4	-0.04054524
69	0x3cb41237	0.021981342
70	0x3d806118	0.06268519
71	0xbbc03452	-0.005865612
72	0x3c268680	0.010163903
73	0xbd361831	-0.044456664
74	0x3c55a31e	0.013039378
75	0xbdfe5cd7	-0.124200515
76	0x3e052d07	0.13005458
77	0xbe4ebc8b	-0.20189111
78	0x3ddbacb4	0.107263
79	0xbc69173a	-0.014226729
80	0xbd316a96	-0.04331454
81	0xbdcc2310	-0.09967625
82	0x3da028f3	0.078203104
83	0xbcce0a09	-0.02515127
84	0x3d2d6180	0.04232931
85	0xbe12dd0d	-0.14342137
86	0xbd948e8a	-0.0725375
87	0xbd2fe712	-0.042944975
88	0xbe2c53a4	-0.16828781
89	0x3c816bcf	0.015798477
90	0xbaf87c9a	-0.0018958033
91	0x3c93fa96	0.018063825
92	0x3c251b06	0.010077244
93	0x3e30744b	0.17231862
94	0xbda1a743	-0.07893231
95	0xbde45997	-0.111499004
96	0x3c37872e	0.011201663
97	0x3c5ef044	0.0136070885
98	0xbda520e1	-0.08062912
99	0x3d95d225	0.073154725
100	0xbcc89908	-0.024487033
101	0xbd1aff99	-0.037841413
102	0xbdfbbbfb	-0.12291714
103	0xbdbcf3f7	-0.0922622
104	0xbe416c3f	-0.18888949
105	0xbd21c62d	-0.039495636
106	0xbc6e354a	-0.014539072
107	0xbcb1ffb7	-0.02172838
108	0x3d2c851e	0.042119138
109	0xbc321ecf	-0.010871603
110	0x3c2611dd	0.010136095
111	0x3d93233f	0.07184457
112	0xbbe600fe	-0.0070191612
113	0x37176bf0	9.0254325e-06
114	0xbcf59fb1	-0.029983373
115	0x3d0895d6	0.03334602
116	0x3c83c537	0.01608525
117	0x3c92f294	0.017937936
118	0x3d9df681	0.077130325
119	0x3d8cbd84	0.06872085
120	0xbd80e027	-0.06292754
121	0xbc982dff	-0.01857662
122	0x3d1a0895	0.03760584
123	0xbd36a0d0	-0.044586957
124	0x3c89829b	0.01678591
125	0xbe14e119	-0.14538993
126	0x3cf70b5f	0.03015679
127	0x3cb92a63	0.02260322
128	0xbe7ec507	-0.24879847
129	0x3ba0d0b9	0.004907694
130	0x3db21edd	0.08697293
131	0xbd83e86a	-0.06440814
132	0xbb9090fa	-0.004411814
133	0xbdda708b	-0.10665997
134	0x3dca93ee	0.098914966
135	0xbe36ca20	-0.17850542
136	0xbda35fbf	-0.079772465
137	0xbbc2a859	-0.0059404788
138	0xbd57e634	-0.052709773
139	0x3db4b7a5	0.0882409
140	0x3e48912a	0.19586626
141	0x3cec17cc	0.028819941
142	0x3dd887b8	0.10572761
143	0xbe1750bb	-0.1477689
144	0x3c60776c	0.013700347
145	0x359568c2	1.1131854e-06
146	0xbd43ef54	-0.047835663
147	0x3cac1a34	0.021008588
148	0xbc2c6c27	-0.010523832
149	0x3e114409	0.1418611
150	0xbdaa3555	-0.083109535
151	0x3dc77b12	0.09740271
152	0x3d504a6b	0.05085222
153	0xbdce346e	-0.10068594
154	0x3d4c268e	0.049841456
155	0xbe31f33c	-0.17377943
156	0xbd1bf94c	-0.038079545
157	0x3b24af41	0.0025128874
158	0x3bc28377	0.005936082
159	0x3be070b2	0.006849372
160	0xbdef4c42	-0.11684467
161	0x3ce305cf	0.02771273
162	0xbd1f317b	-0.038865548
163	0xbd425822	-0.04744733
164	0xbd848297	-0.064702205
165	0x3c361760	0.0111139715
166	0x3c2ab741	0.010419668
167	0x3d8f40da	0.06994791
168	0x3e3c1a09	0.18369307
169	0xbd192f19	-0.03739843
170	0x3db85fa9	0.09002621
171	0x3bc41132	0.005983495
172	0x3ca01248	0.019539967
173	0xbd2723e2	-0.040805705
174	0xbc8f5b1e	-0.017499503
175	0x3b36688b	0.0027833309
176	0xbe81deeb	-0.25365385
177	0x3c3a33f0	0.011364922
178	0x3d799bc4	0.060939565
179	0xbdac8df4	-0.08425513
180	0x3c21f76e	0.009885652
181	0x3ce382e3	0.027772373
182	0x3d5695e3	0.052389037
183	0xbd0cbce4	-0.034359828
184	0x3cac2f65	0.021018693
185	0xb927db24	-0.00016007997
186	0x3da964a2	0.08271147
187	0x3ea89e11	0.32933095
188	0x3c241807	0.010015494
189	0x3d4ea13c	0.050446734
190	0xbd188aed	-0.037241865
191	0x3d5a8096	0.053345285
192	0xbdb3fd7a	-0.08788581
193	0xbd31c16b	-0.04339735
194	0xbd602024	-0.05471815
195	0x3d8e4291	0.0694629
196	0x3d715b45	0.058924932
197	0x3d08c0b5	0.033386905
198	0xbc5d56d1	-0.013509468
199	0x3dafb25d	0.08578942
200	0x3d4ce1d4	0.050020054
201	0xbc3a3f85	-0.011367683
202	0x3d364251	0.044496838
203	0x3ccd8b29	0.02509077
204	0xbc9e94be	-0.019358035
205	0xbdb7f77b	-0.0898275
206	0x3d9d23f0	0.0767287
207	0xbd2cdf16	-0.04220494
208	0x3d29d05d	0.041458476
209	0x3c903c48	0.01760687
210	0xba9cfd83	-0.0011977408
211	0xbd7218cc	-0.05910568
212	0x3d267676	0.040640317
213	0x3c7cc5fb	0.015428062
214	0xbd8a7886	-0.06761269
215	0xb9561654	-0.00020416948
216	0xbd12531a	-0.035723783
217	0xbddca802	-0.107742324
218	0xbd9ee53f	-0.07758569
219	0xbcb5c58a	-0.02218892
220	0x3d5772b2	0.052599616
221	0x3d34879f	0.04407465
222	0xbd28ed93	-0.041242193
223	0x3baed24a	0.005335127
224	0x3d7ea488	0.062168628
225	0x3c53e9a7	0.012934125
226	0x3d09f61f	0.033681985
227	0x3bd98015	0.006637583
228	0xbc1b4ac4	-0.009478275
229	0x3ceeb77f	0.029140232
230	0xbd9c7388	-0.07639223
231	0x3d4666bd	0.048437823
232	0xbd487e7e	-0.048948757
233	0x3da9107f	0.082550995
234	0x3e6f570a	0.23373047
235	0x3cc6394a	0.02419724
236	0x3d017bee	0.03161233
237	0xbd86ba58	-0.06578511
238	0xbe71af69	-0.2360207
239	0xbd3056d4	-0.043051556
240	0x3c11541c	0.008870151
241	0xbbeb244f	-0.007175959
242	0x3cc6d517	0.024271531
243	0x3d961289	0.07327754
244	0xbc3dae1c	-0.011577155
245	0xbd6a0f9a	-0.057143785
246	0x3aaceb14	0.0013192617
247	0x3d07b15c	0.033128127
248	0x3d1b6f28	0.037947804
249	0xbce97a0e	-0.028500583
250	0x3dbbeef3	0.09176435
251	0xbd1cfd3d	-0.038327444
252	0xbcbc2912	-0.022968803
253	0xbc80444e	-0.01565757
254	0x3e08705e	0.13324115
255	0xbd92ae88	-0.071621954

gat_net.1.scoring_fn_target f4 [1, 1, 7]
0	0x3ac8af72	0.0015311076
1	0x3dcecb60	0.100973845
2	0xbd0dbb15	-0.034602243
3	0xbe06bf97	-0.13159023
4	0x3d9ef518	0.07761592
5	0x3d0c0224	0.03418173
6	0xbe4f4b99	-0.20243682

gat_net.1.scoring_fn_source f4 [1, 1, 7]
0	0x3ee94329	0.45559052
1	0x3ebafdfb	0.36521897
2	0x3e20a249	0.15686907
3	0x3da8a4fb	0.082345925
4	0x3ea08a66	0.3135559
5	0x3e9d5d3b	0.30735192
6	0x3db68df7	0.089137964

gat_net.1.bias f4 [7]
0	0xbc82e529	-0.015978413
1	0xbe0545a0	-0.13014841
2	0x3b9945aa	0.004677494
3	0x3daea652	0.08527817
4	0x3ba33b6d	0.0049814493
5	0x3b96595c	0.004588289
6	0x3da6508b	0.08120831

gat_net.1.linear_proj.weight f4 [7, 64]
0	0xbe89d224	-0.26918137
1	0x3db3147a	0.0874414
2	0x3e8c1cac	0.27365625
3	0xbf0d4b66	-0.55193174
4	0x3e6cb284	0.23114973
5	0x3e650be8	0.22367823
6	0xbe09e144	-0.13464838
7	0x3f03c2db	0.514692
8	0xbeb153b5	-0.34634176
9	0x3f16f3fc	0.5896604
10	0xbf2b7c00	-0.66986084
11	0xbe27698f	-0.16348861
12	0x3e50eb2d	0.20402212
13	0x3ef74eb1	0.48302224
14	0xbe8699d7	-0.26289245
15	0x3daeda4b	0.0853773
16	0x3f2dfe4e	0.67966163
17	0x3f040d4f	0.5158281
18	0xbe481bec	-0.19541901
19	0x3e00e226	0.12586269
20	0x3f01c2cd	0.5068787
21	0x3ecdb39a	0.40176088
22	0x3f0c60e1	0.54835325
23	0xbe15fab1	-0.14646412
24	0xbf0078f0	-0.50184536
25	0xbeb752ba	-0.35805303
26	0xbece9453	-0.40347537
27	0x3f3183ed	0.6934193
28	0x3f10d132	0.56569207
29	0x3db0d2b1	0.08633936
30	0xbf22a44b	-0.6353194
31	0x3eacf1be	0.33778185
32	0xbe42cc29	-0.19023193
33	0xbdb0fc0a	-0.08641823
34	0x3d26ee20	0.040754437
35	0x3f038bdf	0.513853
36	0x3ef1d5ee	0.47233528
37	0xbf0c713e	-0.54860294
38	0xbeaad156	-0.33362836
39	0xbeb5ba58	-0.35493731
40	0x3eab1561	0.33414748
41	0xbf0c2ed7	-0.5475897
42	0x3d3d0adc	0.046152934
43	0x3e7c0b45	0.24613674
44	0x3ee49e87	0.44652197
45	0xbed9efe8	-0.42565846
46	0xbeed0402	-0.4629212
47	0xbea8b462	-0.3295012
48	0xbf0d592f	-0.5521421
49	0xbed98421	-0.4248362
50	0x3f174033	0.59082335
51	0xbee8923e	-0.45424074
52	0x3f098aa5	0.5372718
53	0xbcc1e1e0	-0.023667276
54	0x3ebeda1f	0.37275788
55	0xbed6eddb	-0.41978344
56	0xbe88a86b	-0.26690993
57	0x3c97ac53	0.018514788
58	0xbe44f6f1	-0.19234826
59	0xbf0155e8	-0.5052171
60	0xbeb36913	-0.35041103
61	0x3f0632e8	0.52421427
62	0x3ef8f5b7	0.48624966
63	0xbe6ed8d3	-0.233249
64	0x3f30069b	0.6876008
65	0x3f2a422e	0.6650723
66	0x3f0358f6	0.5130762
67	0x3e89cd86	0.26914614
68	0x3e841809	0.25799587
69	0x3f1ae18f	0.60500425
70	0xbe8d28c8	-0.27570176
71	0xbf12664f	-0.5718736
72	0xbea18a3e	-0.31550783
73	0x3e580f32	0.21099547
74	0xbecc8285	-0.39943328
75	0xbecc8667	-0.3994629
76	0xbf22a800	-0.635376
77	0xbf3a1790	-0.72692204
78	0xbedca2da	-0.43092996
79	0x3f1e2eb8	0.6179004
80	0xbf2c5535	-0.67317516
81	0x3ea8853c	0.3291415
82	0xbecb7886	-0.3974039
83	0x3f253a00	0.64541626
84	0x3f49b68b	0.78794163
85	0xbea30051	-0.3183618
86	0x3e59722f	0.21234964
87	0xbc96eed6	-0.018424433
88	0x3d1efd0b	0.03881554
89	0x3f13b027	0.5769066
90	0x3f2ffab3	0.6874191
91	0x3f1e0a3d	0.6173437
92	0xbf3b418b	-0.73146886
93	0x3f0992b8	0.537395
94	0x3ea0b3bf	0.31387135
95	0x3e57d659	0.21077861
96	0xbf3ab8f0	-0.7293844
97	0xbe629c48	-0.22129929
98	0x3ed3479e	0.41265577
99	0xbe871558	-0.2638347
100	0x3f1abe72	0.60446846
101	0xbeea8213	-0.45802364
102	0xbf23739c	-0.6384828
103	0x3ee0b0ab	0.43884787
104	0xbe49f77c	-0.19723314
105	0x3f2f57cc	0.6849334
106	0x3e94c1b3	0.2905403
107	0x3e64f4a9	0.22358955
108	0xbf2b34bc	-0.6687734
109	0xbe55842d	-0.20851202
110	0xbf1d0101	-0.61329657
111	0xbedf0a8d	-0.43562737
112	0x3dc15c9e	0.094414935
113	0x3f264db2	0.64962304
114	0x3e0a221f	0.13489579
115	0x3f0c8ad8	0.5489936
116	0xbec8e234	-0.3923508
117	0xbef7e407	-0.4841616
118	0xbf62f252	-0.88651
119	0x3f0ce539	0.55037266
120	0xbf0673ee	-0.52520645
121	0x3f09b4b9	0.53791386
122	0x3f1c77e4	0.6112044
123	0x3f3d75ea	0.7400805
124	0x3d9fa43c	0.07794997
125	0x3dde1509	0.10843856
126	0xbf24b42a	-0.6433741
127	0xbf083991	-0.5321284
128	0x3e9e17ff	0.30877683
129	0xbf2be2d4	-0.6714299
130	0xbef524e4	-0.47879708
131	0x3f0abbd4	0.5419285
132	0xbf23b5c8	-0.6394925
133	0xbf414714	-0.7549908
134	0x3eeabd17	0.4584739
135	0xbed92f0c	-0.42418706
136	0xbf147093	-0.57984275
137	0x3ecc2689	0.3987315
138	0x3d96c455	0.07361666
139	0x3f2a81e6	0.6660446
140	0xbb374b7e	-0.002796858
141	0xbc80c942	-0.015720967
142	0x3f0dc597	0.55379623
143	0xbefc2784	-0.49248898
144	0x3ef75396	0.48305959
145	0xbf0f156a	-0.5589205
146	0xbf10d45c	-0.56574035
147	0xbe9fb409	-0.31192043
148	0x3f078516	0.5293745
149	0x3f4659cf	0.7748079
150	0xbf1eedf0	-0.62081814
151	0xbef93c72	-0.4867893
152	0x3f4fd1c6	0.81179464
153	0xbee18819	-0.44049147
154	0x3f0df018	0.5544448
155	0xbefa82d2	-0.48927933
156	0xbec557cc	-0.38543546
157	0xbece8d70	-0.40342283
158	0x3f45cd82	0.77266705
159	0xbed50731	-0.4160705
160	0xbf0d1b42	-0.5511972
161	0x3f1d097b	0.6134259
162	0x3f06ba2a	0.52627814
163	0xbf2e3e6b	-0.6806399
164	0xbe42ba6a	-0.19016424
165	0x3eeab99d	0.45844737
166	0xbf08e56b	-0.53475064
167	0x3da85b21	0.082205065
168	0x3f3b8cb3	0.73261565
169	0xbef15290	-0.47133303
170	0xbf174913	-0.5909588
171	0xbf373068	-0.7155824
172	0x3e120266	0.14258727
173	0x3f3039b1	0.6883803
174	0xbeef78e5	-0.46771923
175	0x3ee31c91	0.44357732
176	0x3edad155	0.42737833
177	0xbf162469	-0.5864931
178	0x3ee462b2	0.4460655
179	0x3ef3939c	0.47573555
180	0xbf1c131b	-0.6096665
181	0xbec916ca	-0.392752
182	0x3eed0add	0.4629735
183	0x3f121b02	0.5707246
184	0x3f174f92	0.5910579
185	0xbf30bf6a	-0.69042075
186	0xbf22bc16	-0.63568246
187	0x3f2476df	0.6424388
188	0x3f1a34ca	0.602368
189	0xbed7bd2b	-0.4213651
190	0xbf0f54df	-0.5598888
191	0x3f23955a	0.6389977
192	0xbf491276	-0.78543794
193	0x3f13cf30	0.5773802
194	0xbd26ada0	-0.040692925
195	0xbf04d64f	-0.5188951
196	0xbe15717d	-0.14594074
197	0x3ca18c27	0.01972015
198	0x3f601f92	0.8754817
199	0x3ef93ea4	0.48680604
200	0xbe17e4ae	-0.14833328
201	0x3ef758e7	0.48310015
202	0x3ed43ac1	0.41451076
203	0xbf0cdddf	-0.5502605
204	0xbf1db1bb	-0.6159932
205	0x3e4c0b83	0.19926266
206	0x3da43b92	0.08019175
207	0x3efae1be	0.49000353
208	0x3c50abbb	0.012736256
209	0xbee27a01	-0.44233707
210	0x3f2f8f0a	0.68577635
211	0x3ec6b4c0	0.38809776
212	0xbed7cbc0	-0.42147636
213	0xbf23eb47	-0.6403088
214	0xbd9eee07	-0.07760244
215	0xbefa5829	-0.48895386
216	0xbe1b8d5c	-0.15190643
217	0xbeb82be1	-0.35970977
218	0x3e6e6b2d	0.23283072
219	0xbe8556e0	-0.26042843
220	0x3eab94a2	0.33511835
221	0xbf38d09c	-0.7219331
222	0xbecf71ce	-0.40516514
223	0xbeeeffcb	-0.4667953
224	0x3ea74d86	0.32676333
225	0xbf451466	-0.7698425
226	0x3e7eabc3	0.2487021
227	0x3eb6c4fd	0.35697165
228	0xbed854ed	-0.42252293
229	0xbe78f47e	-0.24312016
230	0x3edefd5e	0.4355268
231	0x3f4f9607	0.810883
232	0x3ee401f3	0.44532737
233	0x3e86c439	0.2632158
234	0xbf32a068	-0.6977601
235	0xbe206e48	-0.15667069
236	0x3d40c237	0.047060218
237	0x3ed025ce	0.40653843
238	0x3f3966c0	0.7242241
239	0x3f0b4602	0.544037
240	0x3d9147df	0.070937864
241	0x3f0713b2	0.5276443
242	0xbeec1847	-0.46112272
243	0xbe5beeef	-0.21477865
244	0x3f22b60e	0.63559043
245	0xbea393a5	-0.3194858
246	0x3ec668e8	0.38751912
247	0xbe8525ad	-0.26005307
248	0xbed99ba3	-0.42501554
249	0xbf2bdd4c	-0.6713455
250	0x3d244022	0.040100224
251	0xbef0d358	-0.47036242
252	0x3e620d38	0.22075355
253	0xbe8ba889	-0.2727702
254	0x3f0e6ba0	0.5563297
255	0xbea9aaca	-0.33138114
