python/binarypath/binaries/gat_000000.pth (torch, 372431 bytes, 8 tensors)

gat_net.0.scoring_fn_target f4 [1, 8, 8]
00000000: 563b 723b b400 e53b 4fc6 03bd f935 9a3d
00000010: d9a7 193b bdf4 9a3d 762a 673d c334 7a3d
00000020: 4ee2 8dbc 1658 3cbd e74a 133d 12e3 5cbd
00000030: 9d48 9d3d 2051 23ba 21e3 d23b 358a bfbb
00000040: 3b9f e33c 10de 4ebd 9f61 69bd b0d9 4f3d
00000050: 0c19 cfbb 6c8d b1bd 442c 8c3b 15d3 5e3c
00000060: 5597 993d 0140 a0bd e97b 3ebd f443 203c
00000070: 1b08 30bd 46b5 26bd 9651 5abc fac0 47bd
00000080: d290 82bc e07a d83c d8a6 063d baae fe3c
00000090: 6d18 39bc 8ea1 a03c 627f 1abd 3621 8b3c
000000a0: 24e2 9ebd 9af3 7e3c 8485 d0bc 94c7 383d
000000b0: d0fc 613d c69f 03bc dc0b 7e3d dea0 96bc
000000c0: 971d 5fbb d1a6 7dbc 10c1 1e3d d8a9 803d
000000d0: 39cf 85bc df0a e33c e78a 08bd ef06 333b
000000e0: 5d11 37bd b392 a53d 41ee dc3c 84a2 16bc
000000f0: 7ef3 233d 1473 de3b a654 343d 2213 8f3d
0.0036961637 0.006988609 -0.032171544 0.07529826 0.0023445992 0.075662114 0.05643698 0.061085474
-0.017319825 -0.045982443 0.035960104 -0.05392749 0.076798655 -0.0006230045 0.0064357673 -0.005845333
0.027785888 -0.050504744 -0.056977864 0.050744712 -0.0063201245 -0.08669552 0.004277738 0.013600131
0.074995674 -0.07824708 -0.04650489 0.009781826 -0.04297648 -0.04070022 -0.013325116 -0.04876802
-0.015938196 0.026425779 0.03287396 0.031089175 -0.0112973275 0.019608285 -0.037719138 0.01698361
-0.07757977 0.015561009 -0.02545429 0.045112208 0.05517274 -0.008033698 0.06202303 -0.018387254
-0.0034044737 -0.015481667 0.038758337 0.06282395 -0.016334163 0.027715145 -0.033335593 0.0027317365
-0.044694293 0.08084621 0.026969077 -0.00919402 0.040027134 0.0067886207 0.04402604 0.06986071

gat_net.0.scoring_fn_source f4 [1, 8, 8]
00000000: 2644 833e a189 36be 64a0 5dbe edd5 8b3e
00000010: 52ff 903d 1951 9a3e fd86 3f3e e401 df3d
00000020: b28c 17bd 2f21 323e 30fb 9cbd 0da8 3dbe
00000030: 0978 b63d 98c6 b93d eef7 dd3d 59be efbd
00000040: 28d4 05be c8be 973b 2618 31be cdf2 0b3e
00000050: 3fff 3e3e aed8 86be 8165 883d d037 28be
00000060: edbd 593e fba1 39be 35e9 55be b5a9 b03d
00000070: 4ab9 c2bc 3276 43be 3c2c 45bc 15db 5cbd
00000080: 583a b53c e418 813e e688 52bc 6ec8 fbbc
00000090: 9fbf 503e 24f3 f03d 688e a8bd 46c5 fbbb
000000a0: 274c 69be f69b 463e 444a 9d3d 0818 b33d
000000b0: 6e6e 353e 9fd3 693e 3dbe 033e ee5c 4dbd
000000c0: ddbb 783d fc64 583e 74ff 01bd 72a9 853e
000000d0: c8e9 43bd 06f5 6c3e 3b0c 20be 89d5 c6bc
000000e0: 9f9f afbc 6961 9b3e 2b1d e9bd b913 14be
000000f0: 9d51 11be 7fa1 ec3d 02ea 2d3e a7f4 123e
0.2563793 -0.17825939 -0.21643215 0.2731165 0.070799485 0.30139998 0.18703838 0.108890325
-0.036999412 0.17395471 -0.07665098 -0.18521138 0.08909614 0.09071082 0.108383045 -0.11706228
-0.13069212 0.004630897 -0.17294368 0.1366684 0.18652056 -0.26337188 0.06659985 -0.16427541
0.21263857 -0.18128197 -0.20889743 0.08626119 -0.023769993 -0.19088057 -0.012034472 -0.05391987
0.022122547 0.25214303 -0.012850022 -0.03073522 0.20385598 0.117651254 -0.08230287 -0.007683429
-0.22782956 0.19395432 0.07680181 0.08744818 0.17717907 0.22834633 0.12865539 -0.050137453
0.060726035 0.21132272 -0.03173776 0.2610584 -0.047830373 0.23140344 -0.15629666 -0.024271743
-0.021438418 0.30347756 -0.113825165 -0.14460649 -0.14191289 0.115542404 0.16983798 0.1435114

gat_net.0.bias f4 [64]
00000000: 4981 0dbc be21 ba3c badb 813c 8cc4 6b3b
00000010: 6e14 8b3b 87ec e3bb 6d31 1a3c b468 ef3c
00000020: 4421 0abb 5356 49bc bfbe 123d f084 7fbc
00000030: e4b2 d63c 7447 c8bc 890e 273c d525 90bb
00000040: e875 ed3b b2d2 87bc 36f6 8bbc 5c3a 843c
00000050: 535f 0dbb 7309 2c3d 8ed6 8d3c c14f 9e3c
00000060: d926 d03b bbb5 ad3c 02b7 173c 8809 ee3c
00000070: bb86 af3c 3ae2 b6bc 00bb 0f3d 346b 673c
00000080: 6c01 7a3a 94ad c63a 1b3f 13bd 8658 e93c
00000090: 0423 c3b9 08ac 1dbd c3b7 b5bb 8760 d8bc
000000a0: 0386 613c 679d f93b b02d a73c ae67 07bd
000000b0: 1624 a2bb aee9 8a3b d47e dc3b 3ddb a3bc
000000c0: a20c 863c 48f7 053d d032 31bc eb04 22bc
000000d0: 7fde 123c fcd6 013d 3f13 8abb c521 7d3c
000000e0: d22a 023d 1918 be3c ce29 44bc 776f 023c
000000f0: 8429 c1bc 6460 8d3c 27ed 843c 41bc 703b
-0.008636781 0.022721168 0.015851844 0.0035975305 0.004244379 -0.0069556865 0.009411198 0.029224731
-0.0021076957 -0.012288648 0.03582644 -0.01559566 0.026208349 -0.024448134 0.010196337 -0.004399041
0.0072467215 -0.01657996 -0.017085176 0.01614111 -0.002157171 0.0420012 0.017314222 0.019325139
0.0063522873 0.02120482 0.009259941 0.02905728 0.02142655 -0.02232467 0.035090446 0.01412468
0.0009536955 0.0015157931 -0.035948854 0.028484594 -0.00037219387 -0.03849414 -0.0055455877 -0.026413215
0.013764861 0.007617641 0.020407528 -0.03305786 -0.0049481494 0.0042392826 0.0067289863 -0.020002002
0.016363446 0.03270653 -0.010815337 -0.009888868 0.00896418 0.031699166 -0.00421372 0.015449946
0.031779118 0.02320485 -0.011972858 0.007961146 -0.023579367 0.017257877 0.016226364 0.0036733302

gat_net.0.linear_proj.weight f4 [64, 1433]
00000000: 0179 313c 86df 403e bf7f be3d b456 8bbc
00000010: 4209 b63c 793a 42bc 18f4 5fbd faa9 b93d
00000020: d0f2 a23d 40ef e23b 905e 1a3a aca2 8b3c
00000030: 9975 bcbc 26b1 783c 1a46 1f3d f660 f6bb
00000040: 8639 a9bc 933b 0f3d 27a8 acbd f033 1cbe
00000050: 4679 0db9 27ca 62bc 95c5 29bd 0286 dabc
00000060: 41c5 223d 9550 b43c 53ac 663d a82c 30bc
00000070: ab73 4f3d 36c1 46bd 5bfe b03c cd8f eb3b
00000080: 6569 563b 3651 94ba 9f80 8c3c fd60 1bbc
00000090: c3cc 5ebd 46ec 9a3c a836 393e a07d 22be
000000a0: 2eac 0b3e 0f9b 0ebe 13fc 203d ee42 353d
000000b0: 5558 f4bb e4a8 fe3d 131d 83bb 81b9 e53c
000000c0: dda9 dbbc ca28 02bc 8f7f 1f3d bb4a 21be
000000d0: 116f 33bd 3c15 143c 8395 fa3d 8012 a23c
000000e0: a749 f5bd 7960 d63c e50f 9ebd 6e5d cc3b
000000f0: 53c8 67b9 d358 9ebd 3478 923d f3e5 febd
00000100: 712a ba3d c3c3 c53d 0f11 f1bc f723 abbc
00000110: 70c9 0a3b 61a8 1bbd a8ed d43c c4d3 0e3c
00000120: 72b9 88bc 5ab6 82bd cd4b 913d 77d5 c7bd
00000130: d83f be3d e526 16be 25a6 f23d f497 e5b9
00000140: 1129 f83c 763d 70bd 1f05 e23d 914c 2f3d
00000150: 046d b7bb 84f9 3cbe 4392 10be 7563 cdbc
00000160: face 80bd 61ae 0ebe a024 8ebc 5fde a63c
00000170: 2d5e 01bd 8e68 1f3d f33a d83c 1f42 b3bd
00000180: 2911 f4bd c358 1dbc 5263 323d 19a6 3fbc
00000190: 04ac 433d 2c96 ff3b fbff 76bd d31f 04be
000001a0: 3e54 f2bd 75bf 1f3d 0bee 01bd c9d1 9f3c
000001b0: 2dcf e93b e3bf 80bb ff25 6abd 6abe ef3b
000001c0: a79b 083d 1c61 1e3c b7c9 5a3d 5a93 c73d
000001d0: d454 a03d d979 923d 9f83 bf3d e70c e7bc
000001e0: 772a 74bd e706 f8bc be50 453d e0f8 583c
000001f0: 079d 263d a864 abbd e94d 0d3e a107 86bc
00000200: 84f7 19be ac4e afbd 5cad b0bc 3c76 04be
00000210: 4c0c 233d 587b fdbd 0056 403d cd64 58be
00000220: 7392 5cba 2a35 91bc 1814 06bc 5c30 943d
00000230: 5484 5a3e bc0e e33c 17ff 863d d3e8 e3bb
00000240: 9e64 5d3b 80a7 4237 351b fabc f2d8 6b3d
00000250: e2be 183c 4d35 c53d 98db 9fbd aff2 3cbd
00000260: 91cf 193d 10aa 54bd b40b 023c c1d1 82bd
00000270: b46a 663c caff 933d 4af4 c33c 0cd4 113d
00000280: 07f7 79bd 7a62 9ebc 7a35 f1bd dcb1 5d3d
00000290: 813f 5c3d 2497 29bd 189a 86bc 4f22 683d
000002a0: 8ede ef3d 0b35 1d3d 579b 813d 3f81 c0b9
000002b0: 2ed1 a7bc 84e0 a83d 6dac 193d ad8b e9bc
000002c0: f43a 14be 0680 c5bd 9aba 733d 6879 f6bc
000002d0: b1e9 323c 7394 b43a dc8f 853d c695 0a3c
000002e0: 7822 94bb 765e 6939 9444 a5bb ce36 6b3e
000002f0: 9349 c83d f794 c53b 872c adbc a4e4 3e3e
00000300: 6802 cb3d 9ce9 8039 1ab4 e63c be23 213d
00000310: f776 c03d d9a6 11bd 9a5e e9b9 4b79 6c3c
00000320: 2a9d ffbb 4c15 36bd 2053 203d a39b 8e3d
00000330: 239c 5dba 69a4 95bd 9639 583d a482 f8bc
00000340: 67b4 fe3d d870 b63a af28 b13c 764c 35bd
00000350: 5c2a 803d 02ea 083d fae6 8bbc ac19 f6bb
00000360: 31e9 82bc 76e6 b9bd 3eb3 473b e987 b33c
00000370: 9006 9dbc 34a7 42bd d442 ddbc de84 103c
00000380: f003 973d f250 5a3c 903b 19bd c112 683c
00000390: 9a2d 95bd 66a1 873d f4ac 143a 2ad4 89bd
000003a0: 8d17 67bd 1b9e 6abd b87f 263c 602e 033d
000003b0: 51af acbc 1dc6 d8bc 4a58 bbbd 4262 ca3b
000003c0: f623 f2bc 8bf7 243c 9135 113d 4566 d1bb
000003d0: 7604 eb3c 528e 38bd 89a1 24ba 0042 febb
000003e0: b497 2d3d 489f d93b 2306 ae3d c0e6 933b
000003f0: 55eb 96bd 5ad4 0abd 30db c23d 2604 0f3b
0.010832072 0.18835267 0.093017094 -0.017009117 0.022221211 -0.011854761 -0.054676145 0.090656236
0.07956469 0.0069254935 0.00058887247 0.017045341 -0.023005294 0.015178954 0.038885213 -0.007518883
-0.020657312 0.034968924 -0.0843051 -0.15254188 -0.00013491986 -0.013842142 -0.041448195 -0.026675228
0.039738897 0.02201108 0.056316685 -0.010752834 0.05064742 -0.048524104 0.021605661 0.0071887732
0.0032716629 -0.0011315707 0.017151175 -0.009483573 -0.054394495 0.018911492 0.18087256 -0.15868235
0.136399 -0.13926338 0.039302897 0.044253282 -0.007456819 0.12434557 -0.0040012687 0.028042557
-0.026814396 -0.007944295 0.03894001 -0.15751164 -0.043807093 0.009038266 0.12235548 0.019784212
-0.11976939 0.026169049 -0.077178754 0.0062367236 -0.00022104503 -0.077317856 0.07151833 -0.12446203
0.09090126 0.09656479 -0.02942708 -0.020891173 0.0021177195 -0.038002376 0.02599223 0.008717481
-0.01668999 -0.06382437 0.07094536 -0.09757512 0.09289521 -0.14663275 0.11848096 -0.00043791498
0.03029302 -0.058652364 0.11036133 0.04279763 -0.0055977125 -0.18454558 -0.14118294 -0.025071839
-0.06289478 -0.13933708 -0.017351449 0.020369707 -0.031583954 0.03891807 0.026395297 -0.08752846
-0.119173355 -0.009603682 0.04355175 -0.011697316 0.04777147 0.0077998843 -0.060302716 -0.12902765
-0.11832474 0.039000947 -0.031721156 0.019509213 0.007135293 -0.0039291247 -0.057165142 0.0073164003
0.033351567 0.009666707 0.053415027 0.09744902 0.0782868 0.07152147 0.093512766 -0.028204395
-0.05961081 -0.030276729 0.048172705 0.01324293 0.040677097 -0.08368808 0.13799252 -0.01636106
-0.15035826 -0.08559927 -0.02156704 -0.12935728 0.03980665 -0.123770416 0.046957016 -0.21132202
-0.00084141566 -0.017725546 -0.008183502 0.07235786 0.21339542 0.027716987 0.06591623 -0.006955245
0.0033781896 1.16023e-05 -0.030530551 0.057579942 0.009322854 0.09629307 -0.07805556 -0.04612988
0.037551466 -0.051919997 0.007937361 -0.06387664 0.014063526 0.07226522 0.023920197 0.035602614
-0.0610266 -0.019334067 -0.11777778 0.054124698 0.0537715 -0.041403905 -0.0164309 0.056673344
0.11712371 0.038380664 0.06328457 -0.0003671739 -0.020485487 0.08245948 0.037517954 -0.028508985
-0.14475614 -0.09643559 0.05950413 -0.030087188 0.010919974 0.0013777151 0.065215796 0.00845856
-0.0045207106 0.00022255801 -0.0050435755 0.22970125 0.09779658 0.006029721 -0.021139396 0.18641907
0.09912568 0.00024588115 0.028162051 0.039340727 0.09397691 -0.03555951 -0.00044511707 0.014433215
-0.007800718 -0.044453904 0.039141774 0.06963279 -0.0008453747 -0.073067494 0.052789293 -0.030335732
0.12436753 0.0013919128 0.021625845 -0.044262372 0.062580794 0.033426292 -0.017077912 -0.0075103845
-0.015980335 -0.0907716 0.0030471827 0.021915393 -0.019168168 -0.04752274 -0.027009405 0.0088207405
0.07373798 0.013324963 -0.03741032 0.0141646275 -0.072840884 0.06622581 0.0005671524 -0.0672992
-0.056418944 -0.057279687 0.010162286 0.03202665 -0.021079691 -0.026461655 -0.09147699 0.006176264
-0.029558163 0.0100687845 0.035451476 -0.0063903653 0.02868865 -0.045057602 -0.0006280174 -0.0077593327
0.042381003 0.0066413023 0.08497264 0.0045135915 -0.07369105 -0.03389392 0.09514463 0.002182254

gat_net.1.scoring_fn_target f4 [1, 1, 7]
00000000: f948 cd3e a013 23be 53a3 013e 93d5 993e
00000010: 22f6 9b3c 46b8 993e e432 18be
0.40094736 -0.15925455 0.1265996 0.30045757 0.019038264 0.30023402 -0.14863163

gat_net.1.scoring_fn_source f4 [1, 1, 7]
00000000: 0a00 143c 05be fd3e 144f 6fbe 2d96 173f
00000010: bb23 a13e 99d5 fd3e e1c8 e6be
0.009033212 0.49559036 -0.2337001 0.59213525 0.31472573 0.49577025 -0.45075133

gat_net.1.bias f4 [7]
00000000: c8f2 ab3d 091f 0cbe 2561 013e 5228 6ebc
00000010: bee5 86bd d31a a3bd b368 373e
0.08395916 -0.13683714 0.12634714 -0.01453598 -0.065867886 -0.07964101 0.17911033

gat_net.1.linear_proj.weight f4 [7, 64]
00000000: 1efa 02bf c435 1d3e 0dd0 8abe 42bf bd3e
00000010: cb17 903d 750e 513e e143 9a3e 2943 74be
00000020: e17d 8d3e d42f 8a3e 4862 03bf 20c8 193d
00000030: e51a 473e 5d07 dc3e f04a 023f 02ac 77be
00000040: baae dc3e 6c5b cf3e d533 f43e ab6f d3be
00000050: 9058 e5be 9cad f53d 53a9 a83e 07f1 afbd
00000060: 5cb4 febe 7913 06bf f97b 8fbe fb58 b23e
00000070: 3c06 b03e 83d5 90bc 74bf 1c3f 44ae 88be
00000080: c81d c73e a1de e6be efcd df3e 9e3d a8be
00000090: 72dd ab3e 97b8 77bd c5d8 62be c4c5 0d3e
000000a0: 3563 bfbe 9315 45be 8639 c93e f97b 923e
000000b0: 167d bdbe 94e5 d8be 2740 b3be 9cbc 183f
000000c0: 5023 3dbe 414b 8abe 2c6e 0d3f bfb3 5ebe
000000d0: b490 fe3e 5232 87bd 03c5 52be 2320 10bd
000000e0: dfec d2be f026 93be 57e3 a0be c1e2 06be
000000f0: af2b c9bd 89a1 62bd de26 f0be 95c3 cbbe
00000100: 71ac fd3e 61ba 08bf 59bf a0be d909 033f
00000110: 98f4 c63e 291e 193f 884c b1bd 2a27 e63e
00000120: b576 99be ddcd ea3e 4482 f0be bb94 bebe
00000130: 70d3 0cbf 1466 043f 26aa 8bbe f76b f1be
00000140: bb0f 80be 979f e83e aa89 133f 4540 2abd
00000150: f0f6 a63b 99b6 053f 2f95 993e 3501 b9be
00000160: c5af cb3e 8cb1 e5be 84cc bfbe 335d 0a3f
00000170: 3b40 e7be 4f07 76be 0209 0fbe ecf4 a13c
00000180: d215 d23e 42b4 e03e e6fd bc3e d789 10be
00000190: 55e7 75be a430 a9be c4bb b2be b757 a03e
000001a0: be1a e3be 3c6c eb3d 1b68 d9be 0a05 9f3e
000001b0: 9e82 de3e 2a3c 0e3f 9a06 1e3f 90be 2ebe
000001c0: d87c dfbe 5a9e eebe ac1d c33e 9ec4 293f
000001d0: d19b 413e 1060 3fbe 2732 c4be 5dd1 893e
000001e0: 6eb8 f2be 5f08 083f f489 ffbe 16ee 1abf
000001f0: ec05 88be ab40 603e 0859 003e 6aae d33e
00000200: 84f3 bc3e 5023 be3d 8ff0 2c3e 23af 153d
00000210: 01d2 8c3e fbd4 bf3e e468 043f 912d 0e3f
00000220: ce30 13bf 0c29 d1be 10da 203e 1534 493e
00000230: e654 ecbe 68e6 c33e a934 d7be 0eb4 0c3f
00000240: 13c4 1ebf 8d26 033f b027 9abd 02cf 063f
00000250: 5342 113f ae66 9cbe ccd4 083f 6cee c5be
00000260: be69 f2bd d9fb fe3e d3ff d73e 2996 0cbf
00000270: 65c5 e43e ec19 a93e 9e39 6cbe 19fe 183f
00000280: 1478 0bbd 421d d7bd 4bff e83e 94de d93e
00000290: 1669 62bc cebe 173f b51f c7bd 785a 44bc
000002a0: eb87 f2be c62e 993e 81df 2cbe 3c3e dc3e
000002b0: 847b c3be 9af1 333e 2255 653e 1b88 2bbf
000002c0: 6933 0a3f fa5f 123d c3b5 e3be 06ea 843e
000002d0: 38ec a6be ce66 18bf c476 f0be 10a5 e7bd
000002e0: db52 6e3e eb96 cb3e 2bb7 833e 96d7 dfbe
000002f0: d766 d53e 2d1a dc3e d39c 0c3f a9dd edbd
00000300: 4fde f2be d413 d83e 25db 983e e93d 25be
00000310: df50 22be d470 9bbe e549 b2be bd86 98be
00000320: 6435 b63e f502 b73e 3bc2 083d 8d0e 58be
00000330: 9a79 21be baf1 ebbe 491e fbbd cbd3 b5be
00000340: 2841 993e ae86 f4bd 02a7 83be aac6 8bbe
00000350: 43e1 6c3e fb6b 963e ddae 01bf 13fb 043f
00000360: 8b6c b4be 44b7 003f 8250 063e 244c 39be
00000370: 44a1 eebd 2e3f 3e3b 8013 04be c403 b8be
00000380: 4d20 873e f3bf 87be d047 b4be e4e3 fbbe
00000390: 8af1 08bf 1440 1ebd d1bd ed3e a114 f7be
000003a0: 7bb4 ea3e 1d95 e8be 6eab f8be 1a1c abbe
000003b0: bd3b 74be 4d87 93be f953 b3be 7aef bbbe
000003c0: 6776 9d3e 6a96 77be 57ed 8d3d a3a3 c5bb
000003d0: 7e9d 8b3d 0c22 573e 30d6 b53d feea 993c
000003e0: 0c2d d6be cc6d b43e 9b7c 203e 75d5 0e3e
000003f0: aa79 bb3e abce 48be 3dc3 6e3d 5c57 d73e
-0.511629 0.15352541 -0.27111855 0.3705998 0.07035788 0.20415671 0.30129912 -0.23853745
0.276351 0.26989615 -0.5132184 0.03754437 0.19443853 0.42974368 0.50895596 -0.2418671
0.43102056 0.40499437 0.47695795 -0.41296133 -0.4479413 0.11996004 0.32941684 -0.08590894
-0.49746978 -0.5237346 -0.2802427 0.34833512 0.34379756 -0.017679935 0.61229634 -0.26695454
0.3888991 -0.45091727 0.43711802 -0.3285951 0.33567387 -0.060478773 -0.22153004 0.13844973
-0.37380376 -0.19246511 0.393017 0.2861021 -0.37009495 -0.42362654 -0.35009882 0.59662795
-0.18470502 -0.2701054 0.55246234 -0.21748255 0.49719775 -0.06601395 -0.20582967 -0.035186898
-0.41196343 -0.28740644 -0.31423447 -0.13172437 -0.09822785 -0.055329833 -0.46904653 -0.39797655
0.49545625 -0.5340939 -0.31395987 0.511869 0.38858485 0.59811646 -0.08657175 0.44951755
-0.2997338 0.45860186 -0.46974385 -0.37222847 -0.5501013 0.5171826 -0.2727825 -0.47152683
-0.25012 0.45434257 0.57631934 -0.0415652 0.005095355 0.52231747 0.2999663 -0.36133733
0.3978254 -0.4486202 -0.3746072 0.5404846 -0.4516619 -0.24026226 -0.1396828 0.019770108
0.41032273 0.43887526 0.3691246 -0.14115082 -0.24014027 -0.33044922 -0.3490888 0.3131692
-0.4435634 0.114952534 -0.4246224 0.31058532 0.43459028 0.55560553 0.61728823 -0.17064881
-0.43649936 -0.46605188 0.38108575 0.6631564 0.18907095 -0.18688989 -0.38319513 0.26917544
-0.47406334 0.53137773 -0.49909937 -0.6051954 -0.26567018 0.21899669 0.12533963 0.41344005
0.36904538 0.09284079 0.16888641 0.036543977 0.2750397 0.3746718 0.5172255 0.5553828
-0.57496345 -0.4085163 0.15708184 0.19648774 -0.46158522 0.38261724 -0.42032364 0.5496224
-0.62017936 0.512307 -0.07527101 0.5265962 0.5674183 -0.30547088 0.534497 -0.38658464
-0.11836575 0.4980152 0.42187366 -0.54916626 0.4468185 0.3302759 -0.23068854 0.5976272
-0.034050062 -0.10503627 0.45507273 0.42552626 -0.013819 0.5927552 -0.097228445 -0.01198446
-0.47369322 0.29918498 -0.16882135 0.4301623 -0.38180172 0.17572632 0.22395757 -0.67004555
0.53984696 0.03573606 -0.4447461 0.25959796 -0.32602096 -0.5953187 -0.4696561 -0.1131078
0.23273794 0.3976358 0.25725684 -0.43719167 0.41680023 0.4298872 0.54926795 -0.11614544
-0.47435233 0.42202628 0.29854694 -0.16136898 -0.15851162 -0.3035952 -0.34822002 -0.29790297
0.3558761 0.35744444 0.033388358 -0.210993 -0.15769044 -0.4608286 -0.12261636 -0.35513148
0.29932523 -0.119397506 -0.25713354 -0.27300006 0.23132806 0.29379258 -0.50657445 0.5194561
-0.35239062 0.5027964 0.13116649 -0.18095452 -0.11651853 0.0029029357 -0.12898064 -0.35940373
0.2639183 -0.26513633 -0.3521104 -0.49197304 -0.5349356 -0.03863533 0.4643388 -0.48257926
0.4584082 -0.45426264 -0.4856829 -0.33419877 -0.23850913 -0.28814164 -0.35025004 -0.36706144
0.30754396 -0.24178472 0.069300346 -0.00603147 0.068171486 0.21009082 0.08878744 0.01878881
-0.41831243 0.35240018 0.15672533 0.13948615 0.3661626 -0.19610088 0.058291662 0.42058837
