python/binarypath/binaries/gat_000026.pth (torch, 372431 bytes, 8 tensors)

gat_net.0.scoring_fn_target f4 [1, 8, 8]
0	0xbe3550d5	-0.17706616
1	0x3a85e04c	0.001021394
2	0xbc788fac	-0.015170973
3	0xbe2e205d	-0.17004533
4	0xbdcff274	-0.10153666
5	0xbe028f27	-0.12749921
6	0xbccba550	-0.0248591
7	0x3d236330	0.039889514
8	0x3b38aeba	0.0028180317
9	0xb9768ac0	-0.00023512077
10	0x3d6058af	0.054772075
11	0xbc472266	-0.012154197
12	0x3c385f96	0.011253258
13	0xbe1d90fd	-0.1538734
14	0x3e4459be	0.19174859
15	0xbe109fa0	-0.14123392
16	0xbcc693b2	-0.024240348
17	0xbdcd0e7e	-0.1001253
18	0xbe3d0ca1	-0.18461849
19	0xbc1ad291	-0.009449617
20	0xbd458f76	-0.048232518
21	0x3c13afa2	0.009014042
22	0x3e372a56	0.17887244
23	0x3cecebb0	0.028920978
24	0xbc69e63a	-0.014276082
25	0xbe19568e	-0.14974424
26	0x393013f0	0.00016792095
27	0xbb54f266	-0.0032493114
28	0xbd263552	-0.040578194
29	0x3dc2148c	0.09476575
30	0xbd03449c	-0.032047853
31	0x3c956f96	0.018241685
32	0xbe40d1c3	-0.18830018
33	0x397d1a28	0.00024137704
34	0x3e1bdaf8	0.15220249
35	0x3dbc0cb7	0.09182113
36	0xbd9d7316	-0.076879665
37	0xbd8baa23	-0.068195604
38	0xbbcde67b	-0.006283579
39	0xbdd9980d	-0.106247045
40	0xbb893700	-0.0041874647
41	0xbe3f5a33	-0.18686752
42	0xbc531636	-0.0128837135
43	0x3e2e130e	0.16999456
44	0x3e339224	0.17536217
45	0xbb953ac7	-0.004554126
46	0xbd1de709	-0.03855041
47	0x3e28ead9	0.16495837
48	0xbde05ff8	-0.109558046
49	0x3e3269b3	0.17423134
50	0x3e1c730c	0.15278262
51	0x3ac1f830	0.0014798697
52	0xbdbf38be	-0.093369946
53	0xbdb47773	-0.08811846
54	0xbd12877a	-0.03577373
55	0xbcf5ac89	-0.029989498
56	0x3d2e0139	0.042481635
57	0xbc1f5b46	-0.009726351
58	0x3e174dd7	0.14775787
59	0xbdda9972	-0.106737986
60	0x399af7f8	0.0002955792
61	0x3e16811f	0.14697693
62	0xbbc4478a	-0.0059899734
63	0xbd6236b4	-0.05522795

gat_net.0.scoring_fn_source f4 [1, 8, 8]
0	0xbb2f91e1	-0.0026789831
1	0x3ce1083e	0.02746975
2	0xbd498f4a	-0.049208917
3	0xbe2776af	-0.16353868
4	0xbe1f2a0a	-0.1554338
5	0x3e315c99	0.1732048
6	0xbe002967	-0.12515794
7	0x3e3c34f2	0.18379572
8	0x3df5e692	0.120068684
9	0xbe54fdef	-0.20799993
10	0x3e1c4bc8	0.15263283
11	0x3de239ce	0.110461816
12	0x3ddb8f20	0.10720658
13	0xbdbb0e97	-0.09133642
14	0x3d9b0832	0.075699225
15	0xbe3982bc	-0.18116277
16	0xbe464681	-0.19362833
17	0xbd52df19	-0.051482294
18	0x3db99170	0.09060943
19	0x3d6d7397	0.057971563
20	0xbdcdd044	-0.10049489
21	0x3d50be2c	0.050962612
22	0x3d111c03	0.035427105
23	0x3e21218c	0.15735453
24	0x3e05271a	0.13003197
25	0xbe08c5c0	-0.13356686
26	0x3dbffb41	0.09374095
27	0x3df02e6c	0.11727604
28	0x3e362ecb	0.17791288
29	0x3da41aa5	0.080128945
30	0xbe2bfcb2	-0.16795614
31	0x3d707ac2	0.05871082
32	0x3d3edf3f	0.046599623
33	0x3d84aa8b	0.06477841
34	0xbc0c2517	-0.008553765
35	0xbd00596c	-0.03133528
36	0xbd693be5	-0.056941886
37	0xbcd6c012	-0.026214633
38	0xbe3f322e	-0.18671486
39	0x3bdca48a	0.006733482
40	0x3b859994	0.004077146
41	0x3cbe1854	0.02320496
42	0xbd34eb1c	-0.04416953
43	0x3e3d21b8	0.18469894
44	0x3db9de88	0.090756476
45	0xbcfb314a	-0.030663151
46	0x3e0d302a	0.13787904
47	0x3db56562	0.08857228
48	0xbd85b18a	-0.065280035
49	0x3daedbff	0.08538055
50	0x3e5074d3	0.20357065
51	0xbe0807cd	-0.13284226
52	0xbbdf61cc	-0.006817078
53	0x3e3de536	0.18544468
54	0x3e290b92	0.1650832
55	0x3e5f723d	0.21820922
56	0x3e008a2c	0.12552708
57	0xbcad37bb	-0.021144738
58	0x3e53b632	0.20674971
59	0x3e241774	0.16024572
60	0x3da62b99	0.08113784
61	0xbdb24752	-0.087050095
62	0x3dc5b7b0	0.09654176
63	0xbd0f0057	-0.034912433

gat_net.0.bias f4 [64]
0	0xbda88f8e	-0.08230506
1	0x3d9557f0	0.07292163
2	0xbd9e0905	-0.07716564
3	0x3d9729e4	0.07381037
4	0xbda23987	-0.07921129
5	0xbd903bd3	-0.070426606
6	0xbd1584c9	-0.036503587
7	0xbdaa23a1	-0.08307577
8	0x3dafa4e4	0.08576372
9	0xbd9f0d91	-0.077662595
10	0x3d8c3398	0.06845778
11	0xbdad79f4	-0.08470526
12	0xbdab3de3	-0.08361413
13	0x3d9b8483	0.07593634
14	0x3da149a7	0.07875376
15	0xbda3ed28	-0.08004218
16	0x3da606b7	0.081067495
17	0xbd99df87	-0.075133376
18	0x3da0f7b1	0.078597434
19	0x3d3b855c	0.04578148
20	0xbdb24bdb	-0.087058745
21	0xbdbebcc9	-0.09313352
22	0xbdaba33f	-0.08380746
23	0x3d9eab57	0.07747524
24	0xbd8f669a	-0.070019916
25	0x3db3186b	0.08744892
26	0x3d95fe1b	0.073238574
27	0xbda378be	-0.07982014
28	0x3d4818ca	0.048851766
29	0x3da70f64	0.081572324
30	0xbda67411	-0.08127607
31	0x3db91534	0.09037247
32	0xbdaa2608	-0.08308035
33	0x3dacebcd	0.08443413
34	0xbdaf8868	-0.08570939
35	0xbdab1e79	-0.083554216
36	0x3db4c625	0.088268556
37	0xbd9a4150	-0.075319886
38	0x3dba7b21	0.09105516
39	0x3dab72b2	0.08371486
40	0x3d941ec6	0.07232432
41	0xbd9f5222	-0.077793375
42	0x3da2c42e	0.079475746
43	0xbda925b2	-0.08259143
44	0x3d9588da	0.07301493
45	0xbd3d2d02	-0.0461855
46	0x3db10da9	0.086451836
47	0x3da9f372	0.08298387
48	0xbda5432f	-0.08069455
49	0x3d9c2adc	0.07625362
50	0x3daff3f5	0.08591453
51	0xbdb1bfee	-0.08679186
52	0xbd9f8058	-0.077881515
53	0x3daafd6a	0.08349116
54	0xbd9fb336	-0.07797854
55	0x3dac59c9	0.08415563
56	0x3daa9268	0.08328706
57	0xbd9fe432	-0.07807197
58	0x3da7a54c	0.08185825
59	0xbdb298d5	-0.08720557
60	0x3db2b468	0.08725816
61	0xbdbda630	-0.092602134
62	0x3da2b4ae	0.07944618
63	0xbdba0b59	-0.09084196

gat_net.0.linear_proj.weight f4 [64, 1433]
0	0xb93a8e4c	-0.00017791352
1	0x3c9bcb14	0.019017734
2	0x3cbd0144	0.023071893
3	0xbbed3d66	-0.0072399853
4	0x3d523c42	0.051326998
5	0x3b86ea57	0.004117291
6	0xbd29b75e	-0.04143464
7	0x3ca0030d	0.019532705
8	0xbcb9dc2d	-0.022687996
9	0xbad3900e	-0.0016140954
10	0x3c1e8a0d	0.009676469
11	0x3c65ff78	0.014037959
12	0xbd862398	-0.06549758
13	0xbc39c857	-0.011339269
14	0x3c87f73e	0.016597386
15	0xbbcbbe2d	-0.006217739
16	0xbd04c514	-0.03241451
17	0xbc68f4d7	-0.014218531
18	0xbd42ab70	-0.047526777
19	0xbe12a9af	-0.14322542
20	0x3b8b35bd	0.0042483495
21	0xbc0990c1	-0.008396328
22	0xbcb1a441	-0.021684768
23	0xbd7306b3	-0.05933256
24	0x3a201863	0.00061071495
25	0xbd906fa7	-0.07052546
26	0x3cfd2ca0	0.030905068
27	0xbd24490b	-0.04010872
28	0x3c06367b	0.0081917
29	0xbc78ff90	-0.01519765
30	0xbd02892d	-0.031869102
31	0xbc411922	-0.011785777
32	0x3c1f86d8	0.009736739
33	0xba39a944	-0.00070824125
34	0xbd74f0a6	-0.059799813
35	0x3caf3aac	0.021390282
36	0xbc4e939d	-0.012608436
37	0xbc52e918	-0.012872957
38	0x3c9ff135	0.019524196
39	0xbc168da5	-0.009189044
40	0x3c69a0bb	0.014259513
41	0xbd8c86ec	-0.06861672
42	0xbca538ed	-0.020168746
43	0xbd0ecb5d	-0.03486191
44	0xbd0c329f	-0.034227964
45	0xbd69bb7f	-0.057063576
46	0xb9e0b30c	-0.0004285801
47	0xbd13c1b4	-0.0360734
48	0xbdd10bcc	-0.10207328
49	0x3c2dfb72	0.010619031
50	0xbc71feac	-0.014770191
51	0xbd10064e	-0.035162263
52	0x3c9b4f8d	0.018958831
53	0xbc5cad3b	-0.013469036
54	0xbd62cb19	-0.05536947
55	0x3c874cca	0.016516108
56	0xbd54a740	-0.051917315
57	0x3c9504b4	0.01819072
58	0xbd5fe785	-0.054664154
59	0xbb93f982	-0.0045158276
60	0x3c628330	0.013825223
61	0x3ccb6688	0.024829164
62	0x3a2ebd70	0.00066658016
63	0xbd767f2c	-0.060179874
64	0xbc0aab2c	-0.008463662
65	0xbbb0a45c	-0.005390687
66	0x3bfb0427	0.007660407
67	0x3ba55535	0.005045558
68	0xbc3f42a5	-0.011673604
69	0xbcbe9227	-0.02326305
70	0xbc6bd366	-0.014393663
71	0xbd05bcf7	-0.032650914
72	0xbcd8f9c7	-0.02648629
73	0x3c950600	0.018191338
74	0xbca6a953	-0.020344412
75	0x3bc48660	0.005997464
76	0xbdc38a1f	-0.09547829
77	0xbce5ab7c	-0.028035872
78	0xbb8cde27	-0.0042989436
79	0xbcc98c97	-0.024603171
80	0x3b835efc	0.0040091258
81	0xba96dcdc	-0.0011509913
82	0xbccd965d	-0.025096113
83	0xbc3b3931	-0.01142721
84	0x3b64bdbe	0.0034903134
85	0xbdb24996	-0.08705442
86	0xbd18e431	-0.037326995
87	0x3d059eb8	0.03262207
88	0xbd7b05d7	-0.061284866
89	0xbdf92386	-0.12164979
90	0xbbc0a46e	-0.0058789765
91	0xbc0b081e	-0.008485822
92	0x3d0132d9	0.031542633
93	0xbc89923e	-0.016793367
94	0xbcc9908d	-0.02460506
95	0xbceb2566	-0.028704356
96	0xbcb0fb22	-0.021604124
97	0xbaab3565	-0.0013062177
98	0xbb9cf740	-0.0047902167
99	0xbd376528	-0.044774204
100	0xba05abe4	-0.0005099161
101	0xbbefc39c	-0.0073170196
102	0xbd30ccc1	-0.04316402
103	0xbd45bc66	-0.048275374
104	0xbd381482	-0.044941433
105	0x3be4c5ef	0.0069816033
106	0x3c0a5060	0.008442014
107	0xbcb3bbb5	-0.021940092
108	0x3b85785d	0.0040731863
109	0xbabc997f	-0.0014389007
110	0x3c00a8f7	0.007852784
111	0xbc342f2e	-0.010997577
112	0x3c02f22e	0.00799231
113	0xbc957a4c	-0.018246792
114	0xbc9581a3	-0.018250292
115	0x3c2ee28b	0.010674129
116	0x3c7ec7bc	0.01555055
117	0x3a4db89d	0.0007847639
118	0xbb86a4fc	-0.004109023
119	0xbc27c266	-0.010239219
120	0xbc514812	-0.012773531
121	0xbdb3a9e4	-0.087726384
122	0xbce18062	-0.027527038
123	0x3ca3403c	0.01992809
124	0x3cce110b	0.025154611
125	0xbcd8e8d5	-0.02647821
126	0xbd03e957	-0.032204952
127	0xbc8112fc	-0.015756123
128	0xbd80045c	-0.062508315
129	0x3c09fbed	0.00842188
130	0xbce102dd	-0.027467186
131	0xbc56b74c	-0.013105225
132	0xbcb69849	-0.022289412
133	0xbda02b2e	-0.07820736
134	0x3c7f6514	0.015588064
135	0xbd97c9d3	-0.07411542
136	0xbb537574	-0.0032266052
137	0xbc3d9f71	-0.011573658
138	0xbd4160be	-0.0472114
139	0x3caf1e44	0.021376736
140	0x3d513f5f	0.051085826
141	0xb9251830	-0.00015744637
142	0xbc4f0a03	-0.012636664
143	0xbc8acf92	-0.01694468
144	0x3c99297e	0.018696543
145	0x3c58f867	0.0132428175
146	0x3c78e96a	0.015192369
147	0xbd1ab750	-0.037772477
148	0x3c62bb4c	0.0138386
149	0x3d964227	0.07336836
150	0xbc4d2abf	-0.0125223985
151	0xbc67fd3e	-0.014159499
152	0xbbcc41c0	-0.006233424
153	0xbd61df8a	-0.055144824
154	0x3c03e4fb	0.008050199
155	0x3caff519	0.021479176
156	0xbd1b6755	-0.037940342
157	0x3c500a71	0.012697802
158	0x3cc58d06	0.024115097
159	0xbd3e1af8	-0.04641244
160	0xbca412c9	-0.020028489
161	0x3c184dca	0.00929589
162	0xbb3fbffc	-0.0029258719
163	0x3c3e938e	0.0116318595
164	0xbb695c0c	-0.0035607843
165	0xbc83018d	-0.01599195
166	0xbc193820	-0.00935176
167	0xbc7c4b13	-0.015398758
168	0x3bacc2fe	0.0052722683
169	0xbc7ed13c	-0.015552815
170	0x3d065ed3	0.032805275
171	0x3c629655	0.013829787
172	0xba93002a	-0.0011215259
173	0x3d0cd3f5	0.034381825
174	0xbd1eef61	-0.03880251
175	0xbc901310	-0.017587215
176	0xbdb82637	-0.08991664
177	0x3b4bd9a0	0.0031105056
178	0x3bbbe38e	0.0057339137
179	0x3d04df00	0.032439232
180	0x3b7c3290	0.0038482286
181	0x3b2f319f	0.0026732457
182	0x3b14e919	0.0022721945
183	0xbc74a852	-0.014932709
184	0xbc23a1ef	-0.009987338
185	0xbb9b7f58	-0.004745405
186	0xbd78a913	-0.060708117
187	0xbd40c1ad	-0.047059704
188	0xbc7fee67	-0.015620804
189	0xbc97f102	-0.018547539
190	0x3bbf1e4e	0.00583247
191	0x3cdbb64d	0.026820326
192	0x3d3720c0	0.044708967
193	0xbc394814	-0.011308689
194	0xbd08d056	-0.03340181
195	0x3ce14707	0.027499689
196	0xbcd4a59a	-0.025957871
197	0xbcc97a3e	-0.024594422
198	0x3c664cda	0.014056409
199	0xbb8eca1e	-0.0043575903
200	0xbb3b4822	-0.002857693
201	0xbc0a6d0d	-0.008448851
202	0x3bcac880	0.0061884522
203	0x3c88bd75	0.016691903
204	0x3bfcc09a	0.0077133896
205	0x3b5c1331	0.0033580775
206	0xbc5e803a	-0.013580376
207	0xb9d33c54	-0.00040290004
208	0x3b70da50	0.0036751218
209	0xba1bf4c4	-0.00059492537
210	0xbb9788f8	-0.0046244822
211	0x3c9f9871	0.01948187
212	0x3ca4b402	0.020105366
213	0xbca10bc8	-0.019658938
214	0xbcaa12b6	-0.020760875
215	0x3ba64938	0.0050746463
216	0x3bcf4de6	0.006326425
217	0xbd20323b	-0.039110404
218	0xb85e1060	-5.2944175e-05
219	0x3b92b202	0.0044767866
220	0xbd6dfa49	-0.05810002
221	0xbbfa29ca	-0.007634376
222	0xbd4739f9	-0.04863927
223	0x3c22038e	0.009888543
224	0x3d1c651c	0.038182363
225	0xbd42a20e	-0.04751783
226	0x3c65798a	0.014006028
227	0xbc18b879	-0.009321325
228	0xbcf6513a	-0.030068029
229	0x3a303850	0.00067222584
230	0xbccb52ea	-0.02481981
231	0xbcfb9072	-0.030708525
232	0xbca8c221	-0.02060038
233	0xbc874ab6	-0.016515117
234	0xbd13c658	-0.036077827
235	0xbc19c5e5	-0.009385561
236	0x3c62a55b	0.013833369
237	0xbd6e1b8c	-0.05813174
238	0xbd659e86	-0.056059383
239	0xbce56a48	-0.02800478
240	0xbc813118	-0.01577048
241	0x3c46f4be	0.012143312
242	0xbd0367c5	-0.032081384
243	0xbc845602	-0.016154293
244	0xbc43c095	-0.011947771
245	0xbc823595	-0.01589469
246	0x3c689681	0.014196039
247	0xbcfe0208	-0.031006828
248	0xbb42b4d6	-0.0029709837
249	0x3b6ed110	0.003644053
250	0x3c23fea8	0.010009445
251	0xbca77fb5	-0.020446638
252	0xbcdf08c1	-0.027225854
253	0x3b8743a3	0.004127936
254	0x3d57edf3	0.05271716
255	0xbc95862f	-0.01825246

gat_net.1.scoring_fn_target f4 [1, 1, 7]
0	0xbea0cf44	-0.3140813
1	0xbeb61747	-0.35564634
2	0x3f25db49	0.6478773
3	0xbe984cdf	-0.29746148
4	0x3dd33e72	0.10314645
5	0x3edb784c	0.42865217
6	0xbf0a6ec3	-0.5407526

gat_net.1.scoring_fn_source f4 [1, 1, 7]
0	0xbe80b71f	-0.2513971
1	0x3ea2d8dd	0.3180608
2	0xbecdfcd4	-0.40231955
3	0x3dc5aa93	0.09651675
4	0x3eb83b0f	0.35982558
5	0x3debf110	0.115205884
6	0xbebb93e4	-0.3663627

gat_net.1.bias f4 [7]
0	0x3dc1b596	0.09458463
1	0x3dc4252c	0.095774025
2	0xbdc3290d	-0.09529314
3	0xbdc186b5	-0.094495215
4	0xbdc2bcf1	-0.09508694
5	0xbdc138ce	-0.09434663
6	0xbdc29fb8	-0.0950312

gat_net.1.linear_proj.weight f4 [7, 64]
0	0xbe5f9eb7	-0.21837889
1	0x3e646320	0.22303438
2	0xbeb0c111	-0.34522298
3	0x3e0cbaf4	0.13743192
4	0xbea70d87	-0.32627508
5	0xbea9a2e3	-0.33132085
6	0xbe3123fb	-0.17298882
7	0xbea52a7d	-0.32258978
8	0x3e1f9f6d	0.1558816
9	0xbeae3160	-0.34022045
10	0x3ead7cf4	0.33884394
11	0xbe6c68d8	-0.2308687
12	0xbe4254f1	-0.18977715
13	0x3ea5e912	0.3240438
14	0x3e8fdbb5	0.2809731
15	0xbeb17347	-0.34658262
16	0x3e90f568	0.2831223
17	0xbe6721b0	-0.22571445
18	0x3de9052c	0.113779396
19	0x3e9303b4	0.28713763
20	0xbe3c02a9	-0.1836039
21	0xbd4f1d53	-0.050565075
22	0xbe506930	-0.20352626
23	0x3e8a56e7	0.27019426
24	0xbeb24f47	-0.3482611
25	0x3dca9ec8	0.09893566
26	0x3ea42aab	0.32063803
27	0xbe42db94	-0.19029075
28	0x3de57479	0.11203856
29	0x3ebeb8d1	0.3725038
30	0xbeab7ece	-0.33495182
31	0x3d930d96	0.07180326
32	0xbea5ae82	-0.323597
33	0x3ea2dd45	0.3180944
34	0xbe2a6ae3	-0.16642337
35	0xbe82cbba	-0.25546056
36	0x3df3d626	0.1190608
37	0xbeb87cef	-0.36032817
38	0x3c6aa1d6	0.014320811
39	0x3ea8cc99	0.32968596
40	0x3e9f73d0	0.31143045
41	0xbe54b59d	-0.20772405
42	0x3e6ac003	0.22924809
43	0xbe592b76	-0.21207985
44	0x3e9b6e78	0.30357718
45	0xbe261f95	-0.16222985
46	0xbc1c61db	-0.009544815
47	0x3e637fcf	0.22216724
48	0xbea1bb07	-0.31588003
49	0x3e90dcf0	0.28293562
50	0x3e7d27cc	0.24722213
51	0xbdf6e042	-0.120544925
52	0xbe890022	-0.26757914
53	0x3e49778e	0.19674513
54	0xbe7cce5e	-0.24688098
55	0x3e9d0ec6	0.30675334
56	0x3e6f9ac2	0.23398879
57	0xbea8f8c3	-0.3300229
58	0x3ea035cc	0.31291044
59	0xbe04c954	-0.12967426
60	0x3db3a232	0.08771171
61	0xbdc2fce6	-0.09520893
62	0x3e89134d	0.26772538
63	0xbe17c761	-0.14822151
64	0x3d6e28e2	0.058144458
65	0xbe25d370	-0.16193938
66	0xbe8c850e	-0.27445263
67	0x3e58b178	0.21161449
68	0x3d12492e	0.03571432
69	0xbdfb7e59	-0.12279958
70	0x3df435d6	0.11924331
71	0xbe9dc335	-0.30812994
72	0xbd3c99c6	-0.046045087
73	0x3db2a21c	0.08722326
74	0x3dbb57d0	0.09147608
75	0x3d0f4476	0.0349774
76	0xbd69d3ca	-0.057086743
77	0x3dae478d	0.08509741
78	0x3e808a95	0.2510573
79	0xbd987f1f	-0.074461214
80	0x3981a6e8	0.00024729152
81	0x3d1bf5fa	0.03807638
82	0xbe4a5cb9	-0.19761933
83	0xbd11304c	-0.03544645
84	0xbdcfc6fa	-0.10145374
85	0xbe1b589c	-0.1517052
86	0x3e404132	0.1877487
87	0x3e5b6c67	0.21428071
88	0xbcb4e422	-0.022081438
89	0x3d7f4162	0.062318213
90	0xbcf0d01c	-0.02939611
91	0x3d17d547	0.03706863
92	0xbe324bdd	-0.17411752
93	0x3e40e4a8	0.18837225
94	0xbe470be5	-0.19438131
95	0x3e31cae6	0.17362556
96	0xbe2fc5d9	-0.17165317
97	0x3d66fd6b	0.056394022
98	0xbd1f151a	-0.038838483
99	0xbddf7aa4	-0.10912064
100	0x3e882f35	0.26598516
101	0x3d459f4c	0.04824762
102	0x3b24ad8e	0.002512786
103	0xbb39b5d6	-0.0028337142
104	0xbd58402d	-0.052795578
105	0xbeb7c62d	-0.35893384
106	0xbe1021ab	-0.14075343
107	0x3e0fdbca	0.14048687
108	0x3e8c0ce1	0.27353576
109	0xbe130806	-0.1435853
110	0x3e8dfcd4	0.27731955
111	0x3cb8d2bd	0.022561425
112	0x3d9ce711	0.0766126
113	0x3d2c5d81	0.04208136
114	0x3e4832c5	0.19550617
115	0xbe3988be	-0.18118569
116	0x3e34c522	0.17653325
117	0x3e63d7e6	0.22250327
118	0xbe88d961	-0.26728347
119	0x3e0adc96	0.1356071
120	0x3e8c0316	0.27346104
121	0x3dd1ef11	0.102506764
122	0x3e3a483d	0.18191619
123	0xbddc68e2	-0.10762192
124	0x3ccc607c	0.024948351
125	0x3cf1ab31	0.029500576
126	0xbe38d12c	-0.18048543
127	0xbdaf018f	-0.08545219
128	0x3e984c7a	0.29745847
129	0xbcd196b3	-0.025584554
130	0xbc39816b	-0.01132236
131	0xbe7a2888	-0.24429524
132	0x3ea43fca	0.32079917
133	0xbd76a217	-0.060213175
134	0xbcddc9d2	-0.027073774
135	0x3eb603f9	0.35549906
136	0x3ba5f871	0.005065017
137	0x3e8d6869	0.2761872
138	0x3e29c8a6	0.16580448
139	0x3e5adf95	0.21374352
140	0x3e8f6cec	0.28012788
141	0xbd2a45fd	-0.041570652
142	0x3e364c6e	0.17802593
143	0x3d684769	0.056708727
144	0xbe42c945	-0.1902209
145	0xbde3636b	-0.11102947
146	0x3bb35de5	0.0054738396
147	0x3e5cef16	0.21575579
148	0x3d5290b1	0.05140752
149	0x3ebb2315	0.36550203
150	0x3d37e740	0.04489827
151	0xbe42efd5	-0.19036801
152	0xbdead86a	-0.11467059
153	0xbea0e0b6	-0.3142144
154	0x3dc1a21f	0.0945475
155	0x3e653aee	0.22385761
156	0xbe0eb4c0	-0.13936138
157	0xbe250c3f	-0.16117953
158	0x3e790aeb	0.24320571
159	0xbea80357	-0.32815048
160	0x3ccdf5b6	0.025141578
161	0xbea6e0b9	-0.32593325
162	0x3e9e8f7f	0.30968854
163	0x3eac1c5f	0.33615395
164	0xbea549f5	-0.32282987
165	0xbe0a6851	-0.13516356
166	0xbd0b12ad	-0.033953357
167	0xbd4dbe21	-0.05023015
168	0x3d656aad	0.056009937
169	0xbe2cb22d	-0.16864844
170	0xbe3cb117	-0.1842693
171	0x3ec21f94	0.37914717
172	0x3df259af	0.11833512
173	0x3deede74	0.11663523
174	0xbd40c6c4	-0.047064558
175	0xbc08f030	-0.008358046
176	0xbc9ff6ec	-0.019526921
177	0xbdc37be1	-0.095451124
178	0xbd98ecb3	-0.07467022
179	0x3eaf3727	0.34221765
180	0xbc1b02ec	-0.009461146
181	0x3d8aa7b4	0.06770268
182	0x3c323d6e	0.010878904
183	0xbdd424a6	-0.10358553
184	0xbce5aff2	-0.028037999
185	0x3d563a47	0.05230167
186	0x3e44a905	0.19205101
187	0x3d3d93c4	0.0462835
188	0xbe41f861	-0.18942405
189	0x3e5bcb78	0.21464336
190	0xbd70c605	-0.058782596
191	0xbe23f5e3	-0.16011767
192	0x3e1d4100	0.15356827
193	0x3c83061b	0.015994122
194	0x3d2218da	0.03957448
195	0xbd318dc7	-0.0433481
196	0xbdeeb883	-0.116562866
197	0xbd98bebc	-0.07458255
198	0x3e77c937	0.24197851
199	0x3e43f980	0.19138145
200	0xbe993966	-0.29926604
201	0x3e8a1a9e	0.26973432
202	0xbe8a24b8	-0.2698114
203	0xbd217672	-0.0394196
204	0x3dca3408	0.098732054
205	0xbeb9572b	-0.36199316
206	0xbea35ef0	-0.3190837
207	0x3ea4d36d	0.32192555
208	0xbd152fa4	-0.036422387
209	0x3e816030	0.25268698
210	0xbda6fb5d	-0.081534125
211	0x3df3f489	0.11911876
212	0x3ea90d0f	0.33017775
213	0x3eb02b04	0.34407818
214	0x3ebac91d	0.36481562
215	0xbdf71787	-0.12065034
216	0x3d8c97ab	0.06864866
217	0xbe8cc1cc	-0.27491605
218	0x3e27cdef	0.16387151
219	0x3e98d691	0.298512
220	0xbe5e93f6	-0.2173613
221	0xbe0e129f	-0.13874291
222	0x3eae2377	0.34011433
223	0xbc4fadbb	-0.012675698
224	0x3da9011f	0.08252167
225	0xbb86da1d	-0.0041153566
226	0x3db4dd2e	0.08831249
227	0x3d5fde55	0.05465539
228	0xbe12d634	-0.14339525
229	0xbd5479e6	-0.051874064
230	0xbe24fcc8	-0.16112053
231	0xbe1da602	-0.15395358
232	0x3d9e02ec	0.07715401
233	0x3e935040	0.28772163
234	0xbe0b0626	-0.13576564
235	0x3e137223	0.14399008
236	0xbe0a698b	-0.13516824
237	0x3d416777	0.047217812
238	0xbe683b5d	-0.22678895
239	0xbe7068d5	-0.2347749
240	0x3de81e13	0.11333861
241	0xbcf75430	-0.03019151
242	0xbe16ae4b	-0.14714925
243	0x3e2d59c4	0.16928774
244	0x3dad5c57	0.08464878
245	0xbe63e65b	-0.22255842
246	0xbda2d1e5	-0.079501905
247	0xbe9bb0aa	-0.3040822
248	0xbd49c58a	-0.049260654
249	0xbe16f04e	-0.14740106
250	0xbeb0726a	-0.3446229
251	0x3e9b9d7d	0.30393592
252	0xbdaea0cc	-0.08526763
253	0x3e756c64	0.23967129
254	0x3e3e8cad	0.18608351
255	0x3d3f9fa1	0.046783093
