python/binarypath/binaries/gat_000005.pth (torch, 372431 bytes, 8 tensors)

gat_net.0.scoring_fn_target f4 [1, 8, 8]
0.08861458 0.023994131 -0.08246023 -0.036003176 -0.06518827 0.017650753 0.03566944 -0.06869725
-0.0063591143 0.028629307 -0.08367372 -0.04848215 0.055481408 -0.015823673 0.092505775 0.09711215
0.033810265 -0.027617969 0.15133014 0.04701094 0.06412709 -0.03346302 -0.14560875 -0.051429678
0.11089718 0.030830165 -0.06987871 -0.030528003 0.055302877 -0.028613785 0.02143245 -0.068466365
0.029982556 0.02920896 0.023199081 0.02792217 0.008718062 0.015777055 0.03435105 0.1131529
-0.0024800915 0.036662452 0.052929178 -0.0391448 -0.024778854 -0.0022492316 -0.04093016 -0.02039024
0.07773082 -0.04345537 -0.07386074 -0.006604945 -0.0014354449 0.024768097 -0.0147488415 -0.03090995
0.0023401224 0.017904578 0.14924134 -0.08871918 0.00058360456 -0.1273557 -0.028982315 0.05814216
00000000: 907b b53d 578f c43c e9e0 a8bd 1178 13bd
00000010: 6d81 85bd 5098 903c 1e1a 123d 25b1 8cbd
00000020: 1e60 d0bb 0288 ea3c 215d abbd 3895 46bd
00000030: 7940 633d a6a0 81bc ab73 bd3d bce2 c63d
00000040: a27c 0a3d 143f e2bc 4af6 1a3e 8b8e 403d
00000050: 1055 833d 8510 09bd 761a 15be eda7 52bd
00000060: 101e e33d 8b8f fc3c 921c 8fbd dd15 fabc
00000070: 4585 623d 7567 eabc 1b93 af3c 1838 8cbd
00000080: fa9d f53c a147 ef3c 000c be3c 09bd e43c
00000090: 34d6 0e3c e23e 813c b0b3 0c3d b5bc e73d
000000a0: 0889 22bb 5e2b 163d 44cc 583d 4c56 20bd
000000b0: 06fd cabc d867 13bb 62a6 27bd 6f09 a7bc
000000c0: 5631 9f3d 42fe 31bd 4d44 97bd 4b6e d8bb
000000d0: 8a25 bcba 77e6 ca3c 20a5 71bc dd36 fdbc
000000e0: bd5c 193b 9fac 923c b9d2 183e 67b2 b5bd
000000f0: 0afd 183a 8869 02be 526c edbc 7926 6e3d

gat_net.0.scoring_fn_source f4 [1, 8, 8]
0.28955662 -0.0391636 -0.217137 -0.16452657 -0.20440178 0.018665371 0.022194887 -0.28920263
-0.1237752 -0.17299134 0.017180428 0.07544982 0.007223414 -0.37728897 0.020905139 0.3044714
0.18829525 0.22188024 0.34883088 0.0732247 0.16092122 0.38892862 -0.16307718 0.40779138
0.0147611685 -0.031094091 -0.14831088 -0.04812591 0.024736729 -0.0683933 -0.13282162 -0.27936986
-0.036460515 0.098007016 -0.0142159555 -0.074304886 0.015112008 0.14894825 0.15171635 0.26936343
0.045039352 0.036493883 0.11668379 0.07566293 -0.1143861 0.038895577 0.03700339 0.010827225
-0.018535063 -0.020760223 -0.2059851 0.17011388 0.16729759 0.0068816487 -0.06556027 -0.072619654
-0.25895426 -0.29605424 -0.105197154 -0.031131579 0.18729377 -0.12137454 -0.23594499 0.014006999
00000000: c440 943e 036a 20bd 2959 5ebe a779 28be
00000010: b34e 51be 1fe8 983c 0dd2 b53c 5e12 94be
00000020: da7d fdbd a424 31be f8bd 8c3c 6f85 9a3d
00000030: 63b2 ec3b 052c c1be 4141 ab3c ade3 9b3e
00000040: 78d0 403e 9334 633e f699 b23e d5f6 953d
00000050: 88c8 243e a721 c73e b4fd 26be 08ca d03e
00000060: d4d8 713c 09b9 febc cfde 17be ad1f 45bd
00000070: aea4 ca3c c911 8cbd 6402 08be 9109 8fbe
00000080: 9f57 15bd e7b7 c83d 0aea 68bc 292d 98bd
00000090: 5b98 773c e485 183e 885b 1b3e 01ea 893e
000000a0: 2f7b 383d 9c7a 153d e9f7 ee3d 2bf5 9a3d
000000b0: 4243 eabd f850 1f3d de90 173d ac64 313c
000000c0: d8d6 97bc 5811 aabc c2ed 52be 5532 2e3e
000000d0: 0f50 2b3e 747f e13b 7644 86bd 9db9 94bd
000000e0: a795 84be 6c94 97be 9b71 d7bd a707 ffbc
000000f0: f0c9 3f3e 3793 f8bd 909b 71be 9d7d 653c

gat_net.0.bias f4 [64]
-0.02616075 0.006117398 0.014338043 0.0077553755 4.259922e-05 0.00924 0.013570975 -0.0076701213
0.003312786 0.042919677 -0.020701056 -0.01811188 -0.007321177 0.016316585 -0.019879881 0.008919627
0.0016857526 0.02114348 -0.0077384906 -0.033283778 -0.005864836 -0.0070328815 0.012140226 -0.0024630716
0.005666488 0.010065452 0.041854292 0.005102062 0.00926235 0.0137718385 0.034956217 0.01606379
-0.013469182 -0.00587008 -0.00916902 -0.0015463389 0.0077573196 -0.031233309 -0.012832314 0.022112058
0.015244364 0.027167797 0.02486662 -0.014878049 -0.011012165 0.03263828 0.019996455 -0.0046659335
0.018929245 -0.032438543 -0.013515289 -0.0070687574 0.04050872 0.009595676 -0.0052325134 0.0017867659
-0.016899247 0.023209741 0.008556184 0.0018452457 -0.003752354 -0.0028431327 -0.0018262735 0.026599305
00000000: 124f d6bc 7474 c83b 1cea 6a3c ce20 fe3b
00000010: 90ac 3238 5e63 173c cb58 5e3c a455 fbbb
00000020: 541b 593b 8bcc 2f3d 4395 a9bc 5e5f 94bc
00000030: 7ce6 efbb 5caa 853c 22db a2bc a123 123c
00000040: 79f4 dc3a 1735 ad3c 2a93 fdbb 9254 08bd
00000050: cf2d c0bb 1674 e6bb cce7 463c 7c6b 21bb
00000060: f2ad b93b 91e9 243c 686f 2b3d 332f a73b
00000070: 1dc1 173c 47a3 613c 402e 0f3d 3698 833c
00000080: d8ad 5cbc cd59 c0bb a839 16bc 86ae caba
00000090: 1d31 fe3b ffdc ffbc a03e 52bc 5924 b53c
000000a0: 7fc3 793c 008f de3c 15b5 cb3c 0fc3 73bc
000000b0: 5e6c 34bc b8af 053d 9bcf a33c b0e4 98bb
000000c0: 8111 9b3c 47de 04bd 3b6f 5dbc 09a1 e7bb
000000d0: 79ec 253d 2f37 1d3c 8175 abbb ea31 ea3a
000000e0: 4a70 8abc 5b22 be3c 3d2f 0c3c 2cdc f13a
000000f0: 0eea 75bb da53 3abb 925f efba c9e6 d93c

gat_net.0.linear_proj.weight f4 [64, 1433]
-0.014857262 0.10316106 0.09551511 -0.028321091 -0.13725042 -0.021039523 -0.0588958 0.16899075
-0.048440114 0.056751404 0.002661845 0.017596032 -0.039063033 0.12280741 -0.02426919 -0.015164635
0.03860317 0.05151543 0.08535838 0.05680524 1.788303e-09 0.08567721 0.004176509 -0.027183574
-0.015365523 -0.17524697 -0.086273976 -0.037099082 0.012606735 -0.14546138 0.0044687362 -0.0011027466
0.03234662 0.00074999186 0.010569949 0.004806441 0.05551001 0.07246878 0.09562594 0.055910565
-0.1572941 -0.05921297 -0.043054394 -0.007249427 0.048818763 0.11558384 0.026937949 0.012971934
-0.10439005 -0.00023615945 0.025017783 0.15715662 -0.18933403 0.011027763 0.07988427 -0.044722002
-0.18917142 -0.025490582 0.12033348 0.035775952 -1.0808086e-09 0.22145763 0.0856839 -0.15862764
-0.050637197 0.19333403 0.042213734 -0.086443044 0.0053253905 0.030820288 -0.10207317 -0.043602254
-0.0128720645 -0.059272394 0.018062577 -0.14404817 0.082745984 0.1013126 0.021062614 -0.053716224
0.019508246 -0.18706928 0.008035642 -0.023277516 -0.027537402 -0.20754427 0.0120156715 0.1121724
0.022741014 -0.04766427 -0.04234604 0.028047882 0.10898962 -0.18484668 0.036113936 0.07530736
0.02397276 -0.08989218 -0.063179016 0.2077407 0.055750143 -0.011676466 0.03213515 -0.09121641
-0.062327046 0.056826174 0.014449454 -0.05854254 0.078157604 -0.046010964 0.019519262 0.09121039
0.020070245 0.0014169603 0.0216604 0.009161228 0.12091243 0.0041282643 0.09462497 0.11234092
-0.09735572 -0.14470202 -0.06883486 -0.010558984 0.038842835 0.13181137 -0.010985981 0.028373105
0.029892057 -0.050923947 0.014228608 0.09596406 -0.012167182 0.122717485 0.030665187 0.028939066
0.056862436 0.06782929 0.0035759616 0.019335298 0.20139813 0.05076026 -0.02758642 -0.04350311
0.00032085972 5.5146603e-09 -0.079300374 0.036584634 0.023692591 0.1368805 -0.06398207 0.0876759
-0.08964877 0.040422432 -0.031833153 0.027567135 0.041265562 -0.035406157 0.04313439 0.053147428
-0.05947744 0.061493494 0.036931913 -0.009357314 0.020756248 -0.0585271 0.08288689 0.0012861476
0.2266328 -0.0079732835 -0.0595126 -0.0008053921 0.11930166 0.07400199 0.063267335 0.087569825
-0.037692726 0.14802408 0.06392992 -0.16543661 0.00894088 -0.007526052 0.057975616 0.042902373
-0.005684526 0.0005020768 0.0417761 0.09017025 0.059182573 0.0019915234 0.024213899 0.13833973
-0.13114035 -0.04243072 -0.01688106 -0.10048468 -0.087902114 0.009071531 0.06644364 0.14814335
-0.017277343 -0.045681793 0.03693661 0.15271868 0.07270079 -0.09468224 -0.020303119 -0.048307255
0.15760595 0.00075569935 0.027573891 -0.080613576 0.2838753 -0.12869552 -0.21056443 -0.027014032
-0.024752414 -0.13433786 -0.058008324 0.009043646 -0.02339459 -0.012303849 -0.01670939 -0.003993763
0.0049535795 -0.11019824 -0.059427567 0.028832676 -0.100416705 0.05663108 0.09786944 -0.058390737
-0.022387747 -0.08300855 -0.07584136 -0.019172993 0.046225034 -0.193285 0.045319352 -0.07497488
-0.0025774362 -0.030804673 -0.0068021733 -0.014766803 -0.07572852 -0.07855093 -0.026716597 0.068976335
-0.008087194 0.096214555 0.16408318 0.027228078 0.015971597 -0.037748303 0.10827272 0.010444217
00000000: e06b 73bc 1b46 d33d 6d9d c33d a201 e8bc
00000010: 608b 0cbe 145b acbc b93c 71bd e90b 2d3e
00000020: 2469 46bd 2974 683d 5972 2e3b 8e25 903c
00000030: 8f00 20bd 7482 fb3d 2ed0 c6bc 1775 78bc
00000040: 5c1e 1e3d d801 533d 60d0 ae3d 9dac 683d
00000050: 51c8 f530 8877 af3d 19db 883b 16b0 debc
00000060: adbf 7bbc f173 33be 69b0 b0bd 35f5 17bd
00000070: 7b8c 4e3c d4f3 14be 7a6e 923b 098a 90ba
00000080: e47d 043d 1a9b 443a 942d 2d3c 597f 9d3b
00000090: 775e 633d 836a 943d 88d7 c33d 7a02 653d
000000a0: b411 21be 4d89 72bd ce59 30bd 9a8c edbb
000000b0: 2ff6 473d 38b7 ec3d f9ac dc3c 3c88 543c
000000c0: 73ca d5bd 92a1 77b9 18f2 cc3c aaed 203e
000000d0: c8e0 41be caad 343c 5d9a a33d 6b2e 37bd
000000e0: 27b6 41be a0d1 d0bc 6671 f63d ce89 123d
000000f0: 928b 94b0 cac5 623e 0a7b af3d 496f 22be
00000100: f368 4fbd 5bf9 453e 4fe8 2c3d 0d09 b1bd
00000110: 9d80 ae3b d47a fc3c bd0b d1bd 4798 32bd
00000120: 5ae5 52bc 9cc7 72bd f8f7 933c 5d81 13be
00000130: ba76 a93d fb7c cf3d 818b ac3c 8b05 5cbd
00000140: c2cf 9f3c 178f 3fbe eda7 033c 7db0 bebc
00000150: 1e96 e1bc 7c86 54be 61dd 443c a5ba e53d
00000160: 5d4b ba3c 9c3b 43bd 0b73 2dbd acc4 e53c
00000170: f335 df3d 7348 3dbe 35ec 133d bf3a 9a3d
00000180: 8662 c43c 6419 b8bd 0064 81bd fab9 543e
00000190: 435a 643d a64e 3fbc 26a0 033d abcf babd
000001a0: a54a 7fbd 90c2 683d 67bd 6c3c 4dca 6fbd
000001b0: 1811 a03d fe75 3cbd dce6 9f3c 83cc ba3d
000001c0: 5b6a a43c 4cb9 b93a 2771 b13c fa18 163c
000001d0: f0a0 f73d 6446 873b bcca c13d ff12 e63d
000001e0: 7062 c7bd c42c 14be 4bf9 8cbd 97ff 2cbc
000001f0: aa19 1f3d 8ff9 063e 8bfe 33bc b76e e83c
00000200: 30e0 f43c a195 50bd 1c1f 693c ce88 c43d
00000210: dc58 47bc 4e53 fb3d 8f35 fb3c 9f11 ed3c
00000220: 96e8 683d 15ea 8a3d ae5a 6a3b 0f65 9e3c
00000230: 503b 4e3e fee9 4f3d eafc e1bc 5130 32bd
00000240: 1039 a839 777b bd31 3c68 a2bd c5d9 153d
00000250: f716 c23c 672a 0c3e 0809 83bd 6c8f b33d
00000260: c699 b7bd fe91 253d 7b63 02bd 79d4 e13c
00000270: 1406 293d 0c06 11bd b0ad 303d 1eb1 593d
00000280: 9e9e 73bd 9ae0 7b3d eb45 173d 6b4f 19bc
00000290: 0209 aa3c 1dba 6fbd 9ac0 a93d f493 a83a
000002a0: 6e12 683e 60a2 02bc 7cc3 73bd f320 53ba
000002b0: 6e54 f43d 5b8e 973d 4e92 813d cf57 b33d
000002c0: b063 1abd a093 173e b1ed 823d 3768 29be
000002d0: c57c 123c 1a9d f6bb d777 6d3d 66ba 2f3d
000002e0: 4345 babb ce9d 033a 6a1d 2b3d 2eab b83d
000002f0: 6d69 723d 3884 023b 3a5c c63c eea8 0d3e
00000300: a849 06be d6cb 2dbd 264a 8abc e9ca cdbd
00000310: 0606 b4bd c2a0 143c 9a13 883d e4b2 173e
00000320: 3789 8dbc d51c 3bbd d84a 173d 4962 1c3e
00000330: 27e4 943d c3e8 c1bd ba52 a6bc d4dd 45bd
00000340: 7463 213e 201a 463a a4e2 e13c bb18 a5bd
00000350: 1a58 913e c2c8 03be 349e 57be 884c ddbc
00000360: 93c5 cabc dd8f 09be 239a 6dbd cd2b 143c
00000370: 03a6 bfbc 1596 49bc 21e2 88bc 1dde 82bb
00000380: a351 a23b 9daf e1bd 526a 73bd 8132 ec3c
00000390: 46a7 cdbd fef5 673d c66f c83d 202b 6fbd
000003a0: 8266 b7bc 6300 aabd b752 9bbd ae10 9dbc
000003b0: 7656 3d3d 81ec 45be c9a0 393d 6e8c 99bd
000003c0: 34ea 28bb 155a fcbc c4e4 debb 76f0 71bc
000003d0: 8e17 9bbd 4fdf a0bd c4dc dabc 7743 8d3d
000003e0: 2680 04bc 230c c53d 6c05 283e 6b0d df3c
000003f0: ded6 823c f79d 1abd 16be dd3d 391e 2b3c

gat_net.1.scoring_fn_target f4 [1, 1, 7]
0.072252706 0.109109074 -0.26996732 -0.014861601 -0.0303327 -0.019649992 -0.0008510094
00000000: 3af9 933d 9474 df3d 2839 8abe 137e 73bc
00000010: 487c f8bc 05f9 a0bc 4616 5fba

gat_net.1.scoring_fn_source f4 [1, 1, 7]
0.4877385 0.35176468 0.16182765 0.38254455 0.3449185 0.31033283 0.37553668
00000000: dcb8 f93e 801a b43e 26b6 253e e1dc c33e
00000010: 2899 b03e f2e3 9e3e 5846 c03e

gat_net.1.bias f4 [7]
0.0025761295 -0.063172266 0.06628206 -0.004044167 -0.051422104 0.062505975 0.020694008
00000000: 48d4 283b 7660 81bd e4be 873d ef84 84bb
00000010: fc9f 52bd 2203 803d 7b86 a93c

gat_net.1.linear_proj.weight f4 [7, 64]
-0.5893983 0.06554277 0.3803521 -0.4577005 0.5222658 0.032338507 -0.13066316 0.5030442
0.49575296 -0.3446586 -0.46108213 -0.20164092 -0.44024953 0.16506863 -0.4828006 -0.4909637
-0.10879805 -0.120458804 0.33689728 -0.5541278 0.46261925 -0.71608007 0.4557201 -0.3020797
-0.6176643 -0.14376774 0.44185168 -0.16245036 0.60638314 0.2872116 -0.41582382 0.08766034
0.67603624 -0.47170004 -0.7647336 0.54019237 0.0059521007 -0.19863832 0.36458305 -0.35627994
0.41160294 0.57589364 0.1882062 -0.40482146 0.4266886 0.40964422 0.7573864 0.53393924
-0.42467955 -0.045329075 0.63509876 0.50692725 -0.14281082 0.32226136 0.38499057 -0.11061368
-0.17201771 0.50268126 -0.71181613 0.50446284 0.55575275 0.42766258 0.18837297 0.5801041
0.7093098 -0.6245304 -0.47799262 0.18896271 -0.6455578 -0.7077489 0.20411384 0.0015137044
-0.18050927 0.024441533 -0.31571254 -0.33374277 0.6506034 -0.7215084 -0.0811391 0.6654884
0.5311844 -0.6043882 0.5077996 0.65317094 0.33212984 -0.22220322 -0.32543427 -0.24621429
0.57300884 -0.666823 -0.5740326 -0.56948406 0.59926575 -0.4679939 -0.39223808 -1.0153794
0.4882378 0.7771277 0.23837748 0.3965122 -0.5634162 0.8362351 0.48983133 0.20652537
-0.58209634 -0.16152689 -0.7188202 0.61003935 0.27525792 0.54462576 -0.039490834 -0.87358356
-0.5089159 -0.5167241 0.11227553 0.48126203 -0.55840874 0.74964243 -0.84248877 -0.63882816
0.14766175 -0.7890526 0.5870642 -0.51094675 0.6759397 -0.01255893 -0.530976 -0.23453777
0.3806941 0.65888435 -0.22981167 0.5703613 -0.55625176 0.96200335 -0.5697105 -0.8286547
0.34738317 -0.64881194 0.87678987 -0.50524354 -0.84932506 0.6678556 0.5747985 0.62718135
0.43361932 0.748553 0.4277233 -0.14913206 0.46242028 0.66169095 -0.70526075 0.9448287
0.532542 0.6445754 -0.50612044 -0.54398143 -0.6074363 0.4453857 -0.72945684 -0.1989231
-0.39936548 0.47768784 0.23734 -0.3950794 0.73369575 -0.96875423 0.59174144 -0.35234243
-0.51841533 -0.8446007 -0.5823885 -0.7341204 -1.0199908 -1.0080681 0.53099453 0.032001335
-0.7838835 0.6433352 0.34351984 -0.76557153 -0.20487338 -0.4363326 -0.38738808 0.88649976
-0.4926489 0.22568999 0.040035218 -0.56694114 0.53678584 0.6721802 0.18196923 -0.67023855
-0.51513875 -0.2764662 -0.4235612 -0.19722879 -0.5837309 -0.42779958 0.8004138 0.43918598
-0.5067759 0.19562592 -0.13028663 0.40577734 -0.42387012 0.5408036 -0.7191523 -0.6596834
-0.6110667 0.042035427 -0.6341889 0.3495915 0.3152455 -0.106435135 -0.63231736 0.011228663
0.72666246 -0.53291976 0.22465363 0.5185947 0.13618545 -0.66984075 -0.14034787 0.4924901
0.24945576 -0.20497312 0.5404385 -0.39302018 -0.5595838 -0.5763888 -0.789516 0.10347459
-0.012556591 0.06278601 0.6728162 -0.30408633 0.4180477 -0.38703638 -0.14290832 0.16760953
0.12890872 -0.33311862 -0.62248504 -0.18279618 0.4880906 0.2813119 -0.22953948 0.4652711
0.5048893 0.49309257 0.28048378 0.0036776701 -0.6397926 0.5197699 0.5101182 -0.2528072
00000000: cfe2 16bf 4a3b 863d 83bd c23e b857 eabe
00000010: 36b3 053f 6275 043d 90cc 05be 81c7 003f
00000020: 55d3 fd3e 1877 b0be f512 ecbe f57a 4ebe
00000030: 6368 e1be c007 293e a431 f7be 985f fbbe
00000040: 83d1 debd 1bb3 f6bd cd7d ac3e 52db 0dbf
00000050: 6edc ec3e 0651 37bf 2554 e93e 31aa 9abe
00000060: 3f1f 1ebf da37 13be 623a e23e 6359 26be
00000070: ed3b 1b3f 660d 933e dce6 d4be 4487 b33d
00000080: b610 2d3f ab82 f1be 95c5 43bf 0c4a 0a3f
00000090: d709 c33b d867 4bbe a1aa ba3e 536a b6be
000000a0: 9fbd d23e c46d 133f 20b9 403e c244 cfbe
000000b0: ee76 da3e e3bc d13e 13e4 413f 3eb0 083f
000000c0: 996f d9be fbaa 39bd d595 223f fcc5 013f
000000d0: 003d 12be 71ff a43e 7c1d c53e 6d89 e2bd
000000e0: 6925 30be b8af 003f 9539 36bf 7a24 013f
000000f0: d045 0e3f 97f6 da3e d8e4 403e b481 143f
00000100: 5495 353f 39e1 1fbf 73bb f4be 717f 413e
00000110: 4743 25bf 082f 35bf 3803 513e 7e67 c63a
00000120: 6cd7 38be 9c39 c83c 13a5 a1be 55e0 aabe
00000130: f28d 263f c6b4 38bf 422c a6bd 735d 2a3f
00000140: b3fb 073f 2fb9 1abf 28ff 013f 3636 273f
00000150: ec0c aa3e 3e89 63be 529f a6be 991f 7cbe
00000160: b5b0 123f eab4 2abf cdf3 12bf b5c9 11bf
00000170: 7b69 193f e59c efbe 6ed3 c8be f4f7 81bf
00000180: 4efa f93e d7f1 463f 3a19 743e a603 cb3e
00000190: 0b3c 10bf 8113 563f 2ccb fa3e 637b 533e
000001a0: 4404 15bf 4e67 25be 9a04 38bf 8a2b 1c3f
000001b0: 9bee 8c3e 986c 0b3f 24c1 21bd 2ca3 5fbf
000001c0: 5048 02bf 0848 04bf b7f0 e53d fa67 f63e
000001d0: e0f3 0ebf 91e8 3f3f 58ad 57bf 3e8a 23bf
000001e0: a434 173e 5aff 49bf d749 163f 68cd 02bf
000001f0: 620a 2d3f f8c3 4dbc 0bee 07bf ab2a 70be
00000200: 56ea c23e a5ac 283f c053 6bbe 3303 123f
00000210: 8466 0ebf da45 763f 8cd8 11bf b722 54bf
00000220: 35dc b13e 8a18 26bf 4d75 603f a457 01bf
00000230: 5e6d 59bf 96f8 2a3f ff25 133f f58e 203f
00000240: 5a03 de3e 2ba1 3f3f 8cfe da3e 13b6 18be
00000250: 5ac2 ec3e 9464 293f f88b 34bf 4be0 713f
00000260: ac54 083f e502 253f 1c91 01bf 5e42 0bbf
00000270: f280 1bbf 9809 e43e afbd 3abf 7fb2 4bbe
00000280: a279 ccbe 8093 f43e 4209 733e d947 cabe
00000290: 7cd3 3b3f 4700 78bf 5e7c 173f 3a66 b4be
000002a0: deb6 04bf c037 58bf 6a17 15bf 51ef 3bbf
000002b0: 0f8f 82bf 6008 81bf 42ef 073f d513 033d
000002c0: 97ac 48bf 9eb1 243f d5e1 af3e 7ffc 43bf
000002d0: 54ca 51be fd66 dfbe bb57 c6be a6f1 623f
000002e0: 7a3c fcbe 471b 673e f8fb 233d 0e23 11bf
000002f0: cc6a 093f 0014 2c3f 2456 3a3e c194 2bbf
00000300: 22e0 03bf fa8c 8dbe 03dd d8be 58f6 49be
00000310: 636f 15bf 8c08 dbbe ebe7 4c3f fcdc e03e
00000320: 11bc 01bf 2952 483e dc69 05be 0cc2 cf3e
00000330: 8105 d9be 1b72 0a3f 5d1a 38bf 03e1 28bf
00000340: de6e 1cbf 572d 2c3d 345a 22bf a8fd b23e
00000350: dc67 a13e aafa d9bd 8ddf 21bf 6df8 373c
00000360: 8d06 3a3f 6e6d 08bf 9a0b 663e 9fc2 043f
00000370: 3374 0b3e af7a 2bbf 5ab7 0fbe aa27 fc3e
00000380: 5571 7f3e 79e4 51be 2d5a 0a3f f139 c9be
00000390: e240 0fbf 378e 13bf b81d 4abf 7cea d33d
000003a0: 29ba 4dbc f495 803d af3d 2c3f 34b1 9bbe
000003b0: 590a d63e a229 c6be 8f56 12be d5a1 2b3e
000003c0: a600 043e 868e aabe 2e5b 1fbf ec2e 3bbe
000003d0: 03e7 f93e 1d08 903e 660c 6bbe 0338 ee3e
000003e0: 6d40 013f a176 fc3e 929b 8f3e 1105 713b
000003f0: 73c9 23bf a40f 053f 1b97 023f f26f 81be
