python/binarypath/binaries/gat_000011.pth (torch, 372431 bytes, 8 tensors)

gat_net.0.scoring_fn_target f4 [1, 8, 8]
000000 f4 ba 00 3d bb 41 89 3d 3a eb 9b 3c 05 4d d6 3d
       0.031428292 0.0670199 0.019033063 0.10463909
000010 1b 9c d7 3d 4c d4 df 3d ff b7 aa bd 56 34 52 3c
       0.10527822 0.10929164 -0.08335876 0.012829861
000020 47 74 5a bd 38 2b 33 bd c3 6f cb bb 0c 5d 62 bd
       -0.053333547 -0.04374239 -0.0062083914 -0.055264518
000030 32 24 0e 3d b5 04 ef bc 94 28 fa bd e9 c6 05 3d
       0.034702487 -0.02917705 -0.12214771 0.0326604
000040 a7 cc 99 bc a2 52 14 bd 4d cc 61 bd 34 c7 36 3b
       -0.018774344 -0.036211617 -0.055126477 0.002788973
000050 b1 14 0f bd 1e 0f 48 3d 20 b0 2d bb bd 68 ab 3d
       -0.034931842 0.048842542 -0.0026502684 0.083695866
000060 be 16 e5 3d bb fc 84 3d ae 52 95 3d ee 1f 43 bd
       0.11185978 0.06493517 0.072911605 -0.047637872
000070 ed f6 cf 3c 97 2d 9f 3d fb 8a fc bc ec 01 4b 3e
       0.025386298 0.077723674 -0.03082799 0.19824952
000080 17 51 64 3c d2 f6 61 3d 1a 37 5d bc 5f 1b 63 bd
       0.013935349 0.055167027 -0.013501907 -0.055446025
000090 f4 ed 8e 3d 4c 46 14 3d ec b0 2f 3e e0 e8 02 3d
       0.0697898 0.036199853 0.17157334 0.03196037
0000a0 cd c9 46 3d 49 0c 44 bc 1f 58 2b 3c 40 53 e2 bc
       0.048532296 -0.01196582 0.010458021 -0.027627587
0000b0 61 63 47 bd 6a c8 d0 bd 4d 43 b6 bd 5d 6b e7 3c
       -0.04867876 -0.10194476 -0.08899555 0.028249437
0000c0 a8 ef 23 be ca df 9a bd 07 a6 8a 3d d8 ce d9 3d
       -0.1600939 -0.075622156 0.067699485 0.106351554
0000d0 5d 05 24 3d 10 df 42 bd b1 53 cd 3d e5 d8 27 3e
       0.040044177 -0.04757601 0.100257285 0.16391332
0000e0 6a 0e da bd a7 a2 11 be f6 14 81 bd 89 2d 31 3c
       -0.106472805 -0.14222203 -0.06302826 0.010814079
0000f0 f6 a8 69 3d 67 74 14 3e a4 f1 a5 bd 06 79 e5 bc
       0.0570459 0.14497529 -0.0810273 -0.02801181

gat_net.0.scoring_fn_source f4 [1, 8, 8]
000000 4d cb bf 3d 93 d6 6e 3e 96 d5 83 3e a6 a0 af 3e
       0.093649484 0.23324041 0.2574889 0.34302253
000010 73 b1 ad 3e b0 aa ec 3e a3 8f 3c be 83 6f 6b 3d
       0.33924446 0.46223974 -0.18414168 0.057479393
000020 8b 8d 28 3e ec 8e fb 3c 00 27 db bd 4b 20 cb be
       0.16460244 0.030707799 -0.10700798 -0.39673075
000030 b3 3a d7 3d 6a b7 1c 3e 7e 75 8e be 38 8f ba 3e
       0.10509243 0.15304342 -0.27824014 0.36437392
000040 ad 96 00 bf f9 82 73 3c 31 6a bb bd cd 61 97 3e
       -0.50229913 0.014862769 -0.09151114 0.29566804
000050 6f c1 4d 3c 2d 1e ef 3d 42 f5 5c be e4 3f 0f 3e
       0.012558325 0.116756774 -0.21577933 0.13989216
000060 26 ee fc 3e 37 68 a6 3e 72 ed 59 be cd 8a a8 be
       0.49400443 0.32501385 -0.21281984 -0.32918397
000070 18 4c cc 3b 88 d8 55 be 07 36 32 be 32 10 bd 3e
       0.006234657 -0.20883381 -0.17403422 0.3692642
000080 fa fd 1f 3e 0b 45 7f 3e 7e b0 f2 bb c8 7a 8f be
       0.15624228 0.24928682 -0.0074062934 -0.28023362
000090 f5 ae 04 3e 18 33 24 3e fc 5f e1 3e d7 ca 74 3e
       0.12957366 0.16035116 0.44018543 0.23905502
0000a0 21 c8 c9 3d aa be 47 be bc 6a 03 3e 68 e6 90 bd
       0.09852625 -0.19506326 0.12833685 -0.070751965
0000b0 5a fc fb bd 08 ae 39 be a3 75 9b be 20 b4 11 3e
       -0.123039916 -0.18132794 -0.30363187 0.14228868
0000c0 70 85 a4 3e 66 39 80 be b9 b8 fe 3b cf e2 43 3d
       0.32133055 -0.25043792 0.0077734855 0.047823723
0000d0 59 ba ac be d4 25 fb 3d fe b9 eb 3b f0 f4 61 3e
       -0.33735922 0.122630745 0.007193803 0.22066092
0000e0 17 c8 d0 be 96 0a d7 bd bf 4e 9e bb dd 7a 78 3d
       -0.40777656 -0.10500066 -0.0048311646 0.060664047
0000f0 92 1c 0c 3e f2 9a 07 3e ee b0 3a 3e 1b 6a 38 be
       0.13682774 0.132427 0.18231556 -0.18009226

gat_net.0.bias f4 [64]
000000 35 0e 2d 3d d9 6b 8c 3c 4d 42 00 3d 1b fd 39 3b
       0.042249877 0.01714127 0.03131323 0.0028379622
000010 7b 80 71 3b 7d 12 b9 3c f1 0e eb 3a 04 d0 db 3c
       0.0036850262 0.022591824 0.001793353 0.026832588
000020 29 66 07 3d db 94 1a 3c 57 9d 59 3d cc 24 cc ba
       0.033056412 0.009434904 0.053128567 -0.0015574931
000030 e7 1e 1b 3d 84 2f 51 3d 76 1e 62 bb b3 2d 47 3d
       0.037871268 0.051070705 -0.003450302 0.048627567
000040 be f3 05 3b 96 2a 1a 3d 8c 78 db 3b 96 90 94 3d
       0.002043947 0.03763827 0.00669772 0.0725414
000050 87 db 6a 3b c1 b0 f6 bd bc 2f 2a 3c ca cb 23 3d
       0.0035836415 -0.12045432 0.010387357 0.03998927
000060 ca a5 53 3c 83 7a 05 3d a3 a4 55 3c 72 61 02 bd
       0.012917945 0.03258754 0.013039741 -0.031831212
000070 e3 11 f1 3b 3f f9 27 3d 0f c2 b8 3c 08 84 a2 3c
       0.0073568686 0.041009184 0.022553472 0.019838348
000080 ad 7a 80 3c f7 4f 75 3c fe 86 14 3d 86 12 c5 3c
       0.015683496 0.014972678 0.03626155 0.024056684
000090 23 a9 02 3d bf 19 ca 3c 2c 16 df 3b 61 b8 7a 3d
       0.031899583 0.02467048 0.006808063 0.061210994
0000a0 65 ef c0 bc 85 53 bb bb de 09 1d 3c 66 db 23 bc
       -0.023551652 -0.0057167434 0.009584872 -0.010001039
0000b0 64 00 06 3d 70 71 a5 bc 83 6a b0 3b 3b 9a 19 bd
       0.032715216 -0.020195693 0.005383791 -0.0375006
0000c0 f4 06 16 b9 57 cf 8a 3c 16 92 32 3d f0 66 12 3d
       -0.00014307705 0.01694457 0.04359635 0.0357427
0000d0 ef 64 bd 3b 06 60 a5 3c 80 a5 61 3c ca 46 39 3d
       0.0057798545 0.02018739 0.013772368 0.045233525
0000e0 33 3f 2a bc d5 18 27 bb f2 c8 7f 3c 79 ad 05 bd
       -0.010391044 -0.0025496979 0.015611874 -0.03263614
0000f0 06 c4 c2 3c 3e fb 73 bb f2 38 bc 3c 2f 6e 8e 3d
       0.023775112 -0.003722861 0.022976372 0.069546096

gat_net.0.linear_proj.weight f4 [64, 1433]
000000 4c 8e f2 3c 1b f8 26 3d 32 70 3e be ab d9 39 3d
       0.029608868 0.040763956 -0.18597487 0.0453736
000010 96 6b 36 be df 21 82 3d e4 de 3c be aa 75 50 3d
       -0.17814478 0.06354117 -0.18444401 0.050893463
000020 69 83 82 3b 8e 20 92 bb aa f1 12 bc 10 1c 90 3d
       0.0039829505 -0.004459447 -0.00896875 0.070366025
000030 f6 13 bf bd 3a aa 12 3d 56 18 9a bc 45 a6 07 3e
       -0.09329979 0.035806872 -0.018810432 0.1324702
000040 ca 20 bb 3d af 1c 2b 3d 63 e5 58 3d 1c 57 08 3e
       0.091371134 0.0417754 0.052953135 0.1331448
000050 c7 30 45 80 95 4c 93 bd fd f1 8e 3c cf 79 24 3d
       -6.354147e-39 -0.07192341 0.017449373 0.04015523
000060 1e 14 0a bd 85 d6 33 bd 8d 03 d8 bd d6 5d b7 3d
       -0.03371059 -0.043905754 -0.10547552 0.08953445
000070 2b ca 22 be 5d b5 ee bd 57 ae 1d 3e eb b8 c4 3c
       -0.15897433 -0.11655686 0.15398537 0.024013957
000080 61 a9 30 3c 04 a8 bc b7 13 b1 fa 3d d1 e7 6a bc
       0.010782571 -2.2489585e-05 0.122408055 -0.014337496
000090 07 2c 8f 3d 9f d2 14 3d a8 25 e2 3b 93 fe 3c 3e
       0.069908194 0.036333676 0.0069014616 0.18456487
0000a0 e3 dd 86 be e1 44 12 3c d2 80 aa 3b e3 0c c4 3a
       -0.2634116 0.008927555 0.005203345 0.0014957454
0000b0 36 93 0d 3e a1 15 e2 3d f1 01 a5 3b 78 ed e4 bb
       0.13825688 0.11039282 0.005035632 -0.0069863163
0000c0 88 19 b3 bd df b8 e0 bc 97 9b e4 3d 8a 68 90 3e
       -0.08745104 -0.027431903 0.11162489 0.28204757
0000d0 62 4b 61 be 58 31 56 3a 4a d1 74 3d 97 0a 08 3d
       -0.22001413 0.0008170805 0.059769906 0.033213224
0000e0 e0 b7 55 be d1 97 80 bd 54 a1 bc 3d 6d 0a ed bc
       -0.20870924 -0.06278957 0.092104584 -0.028935635
0000f0 92 82 03 80 a1 80 c9 3d 28 c1 a6 bb 99 eb a7 be
       -3.22346e-40 0.09838987 -0.005088944 -0.32796934
000100 a1 c5 08 be 1c 51 2e bd 96 a5 98 3c 9b 3b 38 bd
       -0.1335664 -0.04255782 0.018633645 -0.04497872
000110 79 cc 2a bc 80 2d fe 3b 7d a8 0e bd f9 75 e0 bd
       -0.010424727 0.007756889 -0.03482865 -0.109600015
000120 61 56 eb 3b 35 ee cb 3b a7 57 36 3e 56 48 74 3d
       0.007181928 0.006223465 0.17806874 0.059639297
000130 2c 0b 31 3e 31 37 93 3e c7 b3 84 bd 23 3a 04 3b
       0.17289418 0.28753045 -0.06479602 0.0020176254
000140 39 d3 07 3d 6d 31 90 bd a0 f3 9a 3c 78 a5 4b bd
       0.033160422 -0.07040677 0.018914998 -0.04971835
000150 a0 94 c1 ba d0 96 2a 3e 2b 1a 76 3d 85 c6 04 bd
       -0.0014769025 0.16659093 0.06008355 -0.032415885
000160 71 9c 8e 3e 37 8a 08 be 42 24 0a bb 47 42 d3 bd
       0.2785373 -0.13333975 -0.002107874 -0.10315376
000170 a4 a2 1f bd c6 35 04 3d 9c 9a c0 3d 03 2d 34 3e
       -0.038973466 0.032277845 0.094044894 0.17595296
000180 1f 34 58 3d 51 21 56 bd 6e f6 cd bd 31 2d a1 3c
       0.05278408 -0.052277867 -0.10056768 0.01967487
000190 00 01 2a 3d 1b 22 aa ba c9 8b f7 3d 7f ff 33 bd
       0.04150486 -0.0012980135 0.12087209 -0.043944832
0001a0 f1 20 48 3c a2 43 df bc 2f 20 7e 3d eb cd fc 3b
       0.012214885 -0.02725393 0.06204241 0.007714977
0001b0 de 1a b9 3c 19 de 39 bd 37 01 5a bd 69 01 6b 3c
       0.02259582 -0.045377824 -0.053223815 0.014343598
0001c0 25 06 d1 3c a8 1d 44 b9 96 5f 5d 3d f0 18 31 3d
       0.025515625 -0.00018703064 0.054046236 0.043236673
0001d0 a4 79 06 3e af 18 4e 3d d1 69 5f 3c d8 d6 19 be
       0.1313234 0.05031651 0.013636068 -0.15023363
0001e0 23 4e 67 bb bd 63 56 bc 55 b9 d6 bd 20 f3 e0 3c
       -0.0035294376 -0.013085303 -0.10484568 0.027459681
0001f0 b3 51 95 3d 66 74 f3 ba a2 3e 0e 3e 44 6c d3 bb
       0.072909735 -0.0018574118 0.1389108 -0.0064521153
000200 6b 9b 20 3e 23 9f 07 3d a8 dc 9d bc 09 fd de 3d
       0.15684287 0.03311075 -0.019270256 0.108881064
000210 b4 10 4c be 7e 8a fe bc 36 85 1a 3d 1a cc 7f 3b
       -0.19928247 -0.031071898 0.037724696 0.0039031566
000220 ee 77 43 3d 62 d6 cf 3c f3 a7 ee 3d 1c da ca 3d
       0.047721796 0.02537078 0.116531275 0.09904882
000230 57 4d c0 bd 62 21 81 3d f1 89 d7 3b b5 72 80 3c
       -0.093897514 0.063051954 0.006577723 0.015679697
000240 cb 27 ae 3b e8 15 c7 1b 46 09 1e be 0d dc a0 bd
       0.0053148023 3.2935945e-22 -0.15433225 -0.07854471
000250 c2 4a a9 bc c0 d0 d9 3d 76 f1 c5 bd 20 39 3d 3d
       -0.02066553 0.10635519 -0.09665196 0.046197057
000260 d1 f5 73 3d 54 eb f8 3d 40 5f 2c 3c a4 f2 b6 3d
       0.0595606 0.1215426 0.010520756 0.08932999
000270 1e d8 21 3e 2d e4 65 3e 4e 97 11 be 43 5a 09 be
       0.15805098 0.22450323 -0.14217874 -0.13413338
000280 99 25 dd 3d ee 66 89 bc 78 57 88 3d 7e 58 b5 bb
       0.10798187 -0.016772714 0.06657308 -0.0055342307
000290 91 c7 96 3c be 4a 56 bd 94 ac 2e 3d 80 f7 b4 bc
       0.018405708 -0.052317373 0.042645052 -0.022090673
0002a0 4b 2f f1 bc 5d 26 ba 37 c7 2a a8 bd ed 03 75 3b
       -0.029441496 2.2190792e-05 -0.08211284 0.0037386373
0002b0 ae e0 fa 3d 39 4e 3f 3d ec 43 85 bc 54 b1 cc bc
       0.122498855 0.04670546 -0.01626774 -0.0249869
0002c0 2d a7 ca 3d 0f d1 a5 3d fc c2 40 bd eb e5 2e be
       0.098951675 0.080965154 -0.04706095 -0.17079894
0002d0 17 f9 05 3c 83 2f 4d 3d 54 f3 b9 bc b0 90 d3 3c
       0.008177063 0.05009414 -0.022699036 0.025825828
0002e0 68 80 d9 bb 10 89 b3 36 c3 ed 9d 3d e8 49 94 bc
       -0.0066376217 5.350572e-06 0.07711365 -0.018101647
0002f0 3f d2 8b 3d 85 c1 c4 bd 8a d1 77 3d 21 f6 49 bd
       0.06827211 -0.096072234 0.060502566 -0.049306992
000300 43 49 91 bd 84 ae a6 bc d1 42 fc bc ad b3 23 bd
       -0.07094052 -0.020346887 -0.03079358 -0.039966274
000310 c0 e2 13 3b 06 1c 5c bd 45 84 32 3b 80 0c 15 3d
       0.0022565573 -0.053737663 0.0027239483 0.036388874
000320 89 cb 0d bd 0d 15 0a 3d 07 b0 58 bc f3 c9 35 3d
       -0.034617934 0.03371148 -0.013225562 0.044382047
000330 e7 e5 ac 3b 70 f3 2c be 31 6e 2b bc 0e 7d c6 3d
       0.00527643 -0.16889739 -0.010463283 0.09691821
000340 c9 b3 17 3c 90 19 64 3c d3 0a d4 bc 61 4c 33 be
       0.009259173 0.01392211 -0.025884068 -0.17509605
000350 ee 5e aa 3d fe e0 aa 3d bb 81 bb bd c7 f7 cf bd
       0.08318888 0.08343695 -0.091556035 -0.10154682
000360 fe 82 f7 3c f3 10 8d 3d df 3a 84 3d fa 44 93 ba
       0.03021383 0.068879984 0.06456541 -0.0011235767
000370 42 95 59 bd 1a b2 9e bd 9f 65 01 be 92 db 6a 3c
       -0.05312086 -0.07748814 -0.12636422 0.014334576
000380 ce 5a 31 be 18 6e 85 39 fa c6 11 bd 47 22 38 3c
       -0.17319795 0.00025449763 -0.03559015 0.011238641
000390 39 29 17 3d 88 da 12 3d 88 dd 08 3e 92 1d 32 bd
       0.036904547 0.03585294 0.13365757 -0.04348523
0003a0 67 b6 b8 3d e7 4f 92 be 21 c3 b1 be da 56 78 bd
       0.090191655 -0.28576586 -0.34719184 -0.060629703
0003b0 87 99 3e bd ba 9f 4d be cd 21 87 3d 46 49 aa bc
       -0.046533134 -0.20080462 0.06598244 -0.020786893
0003c0 16 5a 50 3d d2 99 7f bc fb ab 04 3b 47 cc 33 bd
       0.050867163 -0.015600638 0.002024411 -0.043895986
0003d0 2e 71 ae bd ee 6e dd bd 28 84 01 3b 11 20 73 3d
       -0.08517681 -0.10812174 0.001976261 0.059356753
0003e0 46 e5 69 3d b5 7b 09 3e 57 52 f3 bb fc b9 a6 3a
       0.057103418 0.13426097 -0.007425587 0.0012720223
0003f0 92 fd af bd 41 0e d4 3c e2 b1 78 3d 08 f1 48 be
       -0.085932866 0.025885703 0.060716517 -0.19623196

gat_net.1.scoring_fn_target f4 [1, 1, 7]
000000 38 0a 58 3b ee fc 3f 3d 93 83 02 3d 98 15 96 bd
       0.0032965075 0.046872072 0.03186376 -0.073283374
000010 00 58 b5 b6 aa a6 c3 3a 77 dc 4c 3d
       -5.404465e-06 0.0014926989 0.05001494

gat_net.1.scoring_fn_source f4 [1, 1, 7]
000000 73 94 6d 3d 7b 46 c0 3d 8f e3 5e 3d d7 db 98 3c
       0.0580029 0.09388443 0.054416236 0.018659515
000010 b9 c7 7e 3d e6 34 3d 3d 61 3b 51 3d
       0.06220219 0.046193026 0.05108202

gat_net.1.bias f4 [7]
000000 f6 0c 1d 3d e7 a1 f8 bd 0a b9 b0 3c 88 bd ff 3c
       0.03834244 -0.121402554 0.021572609 0.031218305
000010 40 ed 9b bd b0 3e b0 3d 42 0f 44 3c
       -0.07613611 0.08605707 0.011966528

gat_net.1.linear_proj.weight f4 [7, 64]
000000 ec 24 c5 bf 38 44 b3 3e fa 89 86 bf 46 62 0b bf
       -1.5401893 0.35012984 -1.0510857 -0.5444683
000010 2e 16 c3 bf 38 17 36 be 36 7a 51 3f 89 4c 28 bf
       -1.5241144 -0.17782295 0.81827104 -0.65741783
000020 65 83 9c 3e 46 3c 0e 3f 10 f3 5b 3e e6 10 27 3f
       0.30568996 0.5556072 0.2147944 0.6526016
000030 9d 46 32 3e f1 26 8e bf 8f 1e 14 bf 6f 7f 1f 3e
       0.1740975 -1.1105634 -0.5785913 0.15575956
000040 12 aa 85 3f b2 3e 56 3f 21 c3 58 3f db 5e 0e 3d
       1.0442526 0.83689415 0.84672743 0.03475843
000050 3c 44 22 bf 86 32 d4 3d e6 31 82 bf e7 bd 61 bf
       -0.6338537 0.10361199 -1.0171478 -0.88180393
000060 dd 64 01 3f ba d8 e8 bc 8c e9 82 3f ff b9 2d 3f
       0.5054453 -0.028423656 1.0227523 0.6786193
000070 cc 84 98 bf 94 d2 ea be 47 7f 13 bf 03 a1 6a 3d
       -1.1915526 -0.45863783 -0.57616085 0.05728246
000080 3f a7 99 bf e7 bd 40 3d e9 08 26 3f af ed b1 3c
       -1.2004164 0.047056105 0.64857346 0.021719782
000090 da bc 80 bf 5b c1 83 3d 86 59 16 bf c2 12 7e 3d
       -1.0057633 0.06433364 -0.5873035 0.062029608
0000a0 c5 35 d2 bd 0c 45 0e bf 5b 26 9c bd 7a 58 50 3f
       -0.10264162 -0.5557411 -0.07624503 0.81385005
0000b0 23 7c cf bf 75 c6 86 bf d3 6b 09 bf 56 6c 0a bf
       -1.6209759 -1.0529314 -0.5368015 -0.5407156
0000c0 f1 88 64 bf 6c 1b 0c bf ce 92 b1 bf cc ac 94 bf
       -0.89271456 -0.5472934 -1.3872926 -1.1615233
0000d0 58 21 21 3f a0 73 c2 3e ca e9 11 bf 61 cf 4b be
       0.62941504 0.3797884 -0.5699736 -0.19903328
0000e0 52 f4 96 bf be ec ed be 08 23 3b 3f 1b e5 28 bf
       -1.1793311 -0.46469682 0.7310033 -0.6597459
0000f0 b3 60 37 bf 3c 36 86 3f 9a b6 38 bf 1f 8c 8e be
       -0.71631926 1.0485301 -0.7215363 -0.2784128
000100 23 95 a3 3d bd b7 b3 bf f1 c0 cb 3d 9e ea 3b 3f
       0.0798743 -1.4040447 0.0994891 0.7340487
000110 e0 5c 22 bd f7 32 04 3f 0d 1e 0c 3e a8 4d 50 bf
       -0.039639354 0.51640266 0.13683338 -0.81368494
000120 46 24 12 bf 13 f4 f7 3e 9b 5e b2 3e f1 66 94 bf
       -0.570866 0.484284 0.34837803 -1.1593915
000130 5d 42 b8 bf 2f b4 6e 3e 40 c0 e6 3e f7 e1 7c bf
       -1.4395252 0.23310922 0.4506855 -0.98782295
000140 b7 7f 95 bf dd fe ad 3e 80 a0 1f 3f 8e e8 88 3e
       -1.16796 0.33983508 0.6235428 0.26739925
000150 5e f0 1b 3f 92 cf ae 3e 80 fd 93 bf 74 b5 3f 3f
       0.60913646 0.3414274 -1.1561737 0.7488625
000160 3d 56 d6 3e 6a d0 83 bf 63 1c f4 be 82 8f 72 3f
       0.4186267 -1.0297978 -0.47677907 0.94750226
000170 7e f3 f3 3e a4 2f 8b bf c3 86 2b 3f 43 fe 0b 3f
       0.47646707 -1.0873914 0.67002505 0.5468485
000180 99 84 1f 3f 29 07 02 3f 2b d6 ac 3d 66 1e d0 bf
       0.623117 0.50792176 0.08439287 -1.6259277
000190 18 9a 7f bf e8 aa 13 3e 5a 73 91 3f 99 54 86 bf
       -0.99844503 0.14420664 1.1363328 -1.0494567
0001a0 41 a4 7c 3f fa dc 59 3e 4a c1 17 3f ce 49 8f bf
       0.9868813 0.21275702 0.5927931 -1.1194398
0001b0 5c 7a 6a 3c c7 c6 80 bf 9c 9f 0e bf e2 ea a7 3f
       0.014311399 -1.0060662 -0.55712295 1.3118556
0001c0 f2 a4 0f be 11 69 b6 bf db 8a 7d bf 9c 57 20 3f
       -0.14027765 -1.4250814 -0.9904 0.6263368
0001d0 34 d3 45 bf 27 e9 36 3f 30 98 88 3f 10 ef 8c 3e
       -0.77275395 0.7144951 1.0671444 0.2752614
0001e0 65 d5 89 bf 2f b0 1c be fb 8b 01 bf 19 0c 3f 3f
       -1.0768248 -0.15301584 -0.5060422 0.74627835
0001f0 b9 c3 6d 3e d7 34 08 3e e8 81 4d 3f 12 60 d5 bf
       0.23219194 0.13301407 0.80276346 -1.6669943
000200 8c e3 d8 be 7f 52 66 3e 1d 48 b0 3e 84 5c 8c bf
       -0.42361104 0.22492407 0.34430018 -1.0965734
000210 97 83 12 3f 33 79 66 3e 4b 53 ca be be 17 2f 3f
       0.5723204 0.22507171 -0.39516672 0.683956
000220 73 d8 2f 3d 94 e2 7f bf af ce dc bf bf 2b 1b bf
       0.04293103 -0.99955106 -1.7250575 -0.60613626
000230 2a cf f8 3e 30 26 88 bf 09 6f 40 bf 8e 40 8f 3e
       0.48595554 -1.0636654 -0.75169426 0.2797894
000240 56 cf 2e bf 1e 5f d1 3e f6 08 47 bf ef 91 9e bf
       -0.6828512 0.4089288 -0.7774805 -1.2388285
000250 f0 09 6d 3e 59 05 b3 3f ce 0b 3c 3f 69 09 a0 bf
       0.23148322 1.3986007 0.7345551 -1.2502872
000260 06 b4 91 bf a4 cf 5f 3f 43 e4 66 bf a5 c7 10 3f
       -1.1383064 0.8742621 -0.9019205 0.56554633
000270 41 f9 c0 bd f1 b5 24 3d 07 e2 a9 bf 9a fd 0d 3f
       -0.094225414 0.040212575 -1.3272103 0.5546509
000280 8e 76 0a bf 44 a2 ad bf 31 33 23 3d ca 1d cb be
       -0.5408715 -1.3565145 0.03984374 -0.39671165
000290 e7 d5 51 bf 90 00 a6 3e 79 6d 7c bf 74 39 d8 bf
       -0.81967014 0.32422304 -0.9860454 -1.6892533
0002a0 11 03 ad 3f 4e cf 80 bf ab e9 cb bf e2 2a 97 bd
       1.3516561 -1.0063264 -1.5930685 -0.07381226
0002b0 b1 50 b4 3e 61 32 06 3f 58 e6 a2 3f bb 27 eb 3e
       0.35217813 0.5242062 1.2726545 0.4592875
0002c0 57 53 71 3f 77 d6 c6 3e de 00 b3 3e 75 7a e2 3e
       0.9426779 0.388355 0.349616 0.44234052
0002d0 80 20 5c bf 27 5e 4b bf 90 e3 e0 3e 22 13 b6 bd
       -0.8598709 -0.7944054 0.43923616 -0.08890368
0002e0 9b 15 51 bf c6 f4 3e bf a7 a4 c4 bf c4 e9 44 3f
       -0.8167359 -0.74592245 -1.5362748 0.769192
0002f0 e3 70 6c 3f 77 f1 82 3e ed bd 76 bf 9b 78 88 bd
       0.9235975 0.25574848 -0.96383554 -0.06663629
000300 91 c6 8f 3e ec 5e b8 bf 32 4c 4c bf b0 a8 a4 bf
       0.28081182 -1.4403968 -0.79803765 -1.2863979
000310 4a 86 9e bf 80 98 13 bf 82 d0 e9 3e c7 fa 39 bf
       -1.2384732 -0.5765457 0.4566689 -0.7264828
000320 0e bf a3 bf 6b 17 98 bf 69 b1 85 bc 0e e4 7f 3f
       -1.279268 -1.1882147 -0.016319947 0.9995736
000330 84 34 9a bf 29 31 19 bf 5f 7b b3 3f 3a 61 94 3e
       -1.2047276 -0.5984064 1.4022025 0.28980428
000340 be 32 7f 3f 2c 9a 9e bf bb 9f 28 3f 3d 32 8b bf
       0.996868 -1.23908 0.6586873 -1.0874707
000350 f3 47 fb 3e cc 05 47 3d 78 4f bd 3c ce fc 62 3f
       0.4907833 0.048589513 0.023109183 0.88667
000360 9c 80 be bf 11 c9 2a bf f0 7c 30 3e 8a 0c a2 3f
       -1.4882998 -0.66713053 0.1723516 1.2660077
000370 89 42 16 3f eb a0 55 3f 04 4d b5 ba 10 5e bc bf
       0.58695275 0.83448666 -0.0013832157 -1.4716206
000380 4d e9 a3 bd bb d1 5e bf c6 4d a0 bf 65 fa d0 3e
       -0.08003483 -0.87038773 -1.2523735 0.40816036
000390 15 78 5d bf 74 cc d1 bf 0c 40 58 bf bc 69 d1 3d
       -0.86511356 -1.6390519 -0.8447273 0.10225245
0003a0 2c bd 9f be d9 a0 36 bf e0 d2 61 be f1 62 56 3f
       -0.31199014 -0.71339184 -0.22053099 0.8374472
0003b0 b8 10 ee 3e 74 45 fa 3d d9 60 d5 be 27 15 63 3f
       0.4649713 0.122202784 -0.4167545 0.8870415
0003c0 95 08 84 bf 74 cf 03 3f 41 35 7f 3e bd 0b b5 3e
       -1.0315119 0.51488423 0.24922659 0.35360518
0003d0 d3 ae 4e be 90 a4 df be 5c 8a 97 3f b9 d3 f6 bd
       -0.20183878 -0.4368024 1.1839099 -0.12052102
0003e0 ce 3b 66 3f d5 cf 31 3f 3f db f0 3e 26 af 1f bf
       0.89935005 0.6945775 0.47042271 -0.6237663
0003f0 d5 41 2f 3f 96 ca 85 bf e7 17 b0 be 6e 41 18 3e
       0.68459827 -1.0452449 -0.34393236 0.1486871
