python/binarypath/binaries/gat_000008.pth (torch, 372431 bytes, 8 tensors)

gat_net.0.scoring_fn_target f4 [1, 8, 8]
000000 0b dc 44 3d 09 c7 7c 3c 1a f8 44 bd bf 20 a4 bd
       0.04806141 0.015428313 -0.04808817 -0.08014058
000010 86 1b 35 3d 35 7e 41 bc b7 94 44 bd 8f 5d b7 bd
       0.0442157 -0.011809875 -0.047993388 -0.08953392
000020 3c 65 ff 3c 1e ec f3 3d 03 48 24 3c b1 e9 0e 3c
       0.031176202 0.1191027 0.010026935 0.008722709
000030 36 1f 0e 3d 30 7f 0a be c1 7d c9 bc e9 9f 36 3d
       0.034697734 -0.1352508 -0.024596097 0.044586096
000040 88 e7 e5 bd 25 fe 28 3d ed c3 e4 3d 7c 90 e6 bd
       -0.11225802 0.041257996 0.111701824 -0.11258027
000050 65 80 5e bd 0c 82 09 be b0 b0 f3 ba 84 a9 32 bb
       -0.054321665 -0.13428515 -0.0018592086 -0.0027261684
000060 eb ad 14 bd ba 40 25 3b d9 32 98 bd 97 9e 91 bd
       -0.036298674 0.0025215582 -0.074315734 -0.07110327
000070 7c a7 57 3d d2 c7 13 3d d9 5a 8a bd c7 31 00 ba
       0.05264996 0.036079235 -0.06755609 -0.000489023
000080 ec a1 45 bd 74 d4 2c bd a7 1e 93 3d bc 77 17 bc
       -0.048250124 -0.0421948 0.07183581 -0.0092448555
000090 b0 9e d3 3d e7 4f bd bc 65 b4 bd 3b d1 d2 b5 3d
       0.103330016 -0.02310939 0.005789327 0.08878101
0000a0 3f 83 80 bd b7 1e ad bc a7 66 b3 3d 36 ca a4 3c
       -0.06275033 -0.02113281 0.08759814 0.020115953
0000b0 6e d0 de 3c 31 03 2f bc 19 f6 b1 bd e1 f2 81 bd
       0.027198996 -0.010681913 -0.086895175 -0.063451536
0000c0 ba 9b f2 3c cd b4 f8 3d ed bf 2f bc 2c 3b 21 3b
       0.029615272 0.1214386 -0.010726911 0.002460192
0000d0 f2 e7 a2 bd 60 37 7c bd d8 f1 ef 3b b3 f6 b8 bc
       -0.07954396 -0.061576247 0.007322531 -0.022578573
0000e0 f0 a2 1d 3d 03 e4 8d 3a bb 6c c7 3d cc e4 92 bd
       0.038485467 0.0010825399 0.097375356 -0.07172546
0000f0 da f2 02 3c f6 a4 c1 3d 8e 84 55 bd a1 09 a0 3b
       0.007992471 0.09455292 -0.052128367 0.0048839604

gat_net.0.scoring_fn_source f4 [1, 8, 8]
000000 cc b0 95 3d 29 a8 23 3e 62 54 97 be e9 62 d7 bd
       0.07309112 0.15982117 -0.29556566 -0.105169125
000010 26 b7 28 3e 88 8c 50 be fb 60 46 be 8b ed 76 be
       0.16476116 -0.20366108 -0.19372933 -0.24114053
000020 39 f5 47 3e ee 80 44 bd 81 82 c6 bd a0 aa c7 3e
       0.19527139 -0.04797452 -0.096928604 0.38997364
000030 9d 0c 37 3d 91 88 43 be 51 99 33 3e 68 38 29 be
       0.044689763 -0.19095065 0.17538954 -0.16525424
000040 4b 33 a6 be b0 6d 11 3e 3e 9f b4 3e aa 7e 12 be
       -0.32461008 0.14201999 0.35277742 -0.14306131
000050 ab e5 0e be d8 10 94 be 96 bb 2a 3c 11 7e 82 be
       -0.13954799 -0.289191 0.010420701 -0.25486806
000060 8e 2e 5f bd 8e 34 dd be e1 93 8e bd 1b 64 fa bd
       -0.054487757 -0.4320416 -0.069617994 -0.12226125
000070 ea bd b8 3e 91 3c af 3e b0 30 44 be 63 96 6f 3e
       0.36082393 0.34225896 -0.19159198 0.23397212
000080 51 4b 84 be d9 e6 05 be 70 26 f7 3c 28 e1 52 3e
       -0.25838712 -0.13076343 0.030169696 0.20593703
000090 d2 6a 7c 3d e3 f7 f3 3d 0b 37 f7 bc b2 0a 91 3e
       0.06162531 0.11912515 -0.030177614 0.28328472
0000a0 a8 9e 83 bd 66 e3 00 3d 50 17 86 3e 2d 20 9c 3e
       -0.06426746 0.031466864 0.2618966 0.30493298
0000b0 29 6e c9 3c 92 5f 42 bd 1f bd 1f be bb 50 24 bd
       0.024588661 -0.047454424 -0.15599488 -0.040116053
0000c0 34 0e 5f 3e cf 2d 0e 3f 9c d3 95 3e 72 33 86 3d
       0.21782762 0.5553865 0.29263008 0.06552781
0000d0 5b d5 d9 bd 70 a5 77 3d 72 52 c9 3d 9b ea 23 be
       -0.106363975 0.060460508 0.09830178 -0.16007464
0000e0 4c 7f 3c 3e c2 e7 07 3e a3 36 b8 3d d3 8b 63 3e
       0.18407935 0.13272002 0.08994796 0.22221307
0000f0 19 bf 52 3e 89 36 4d 3e 7b 49 50 be 6a 5a 34 3e
       0.2058071 0.20040335 -0.2034053 0.17612615

gat_net.0.bias f4 [64]
000000 e4 93 5a bc d9 13 50 3c a4 e6 e4 3b 59 ca 83 3d
       -0.013340924 0.012700045 0.0069855023 0.06435079
000010 3e e2 89 bc cc 9b d2 3c 9b 9e 7f bd 1b 00 fa 3c
       -0.016831513 0.025709055 -0.062407117 0.030517628
000020 9d 37 18 ba 8b 5d be 3c 82 e9 15 3d 46 d2 b5 3c
       -0.0005806627 0.023237964 0.036599644 0.022194993
000030 77 da 98 bb 6c 5d 11 bb be 25 ee 3c c8 c4 17 bc
       -0.004664715 -0.0022180928 0.029070731 -0.009263225
000040 46 c8 cc 3a fa b5 12 3c 06 9f fa 3c 99 44 46 bc
       0.0015623651 0.008954519 0.030593406 -0.012101316
000050 4c 1b 8f bd 27 f5 1c bc 79 46 34 bd 4a 04 cf 3c
       -0.06987628 -0.009579933 -0.04401252 0.0252706
000060 51 f5 66 3d d8 f7 4b 3c d6 7d fc bc 54 62 8d bc
       0.056386296 0.012449227 -0.030821722 -0.0172588
000070 14 70 95 3c 77 e9 ab 3c 3f e0 d9 3a bc 1b 02 bd
       0.01824192 0.020985348 0.0016622617 -0.03176473
000080 0e 7f 44 bc 52 24 06 3c 0b 95 38 3c 52 f4 03 bd
       -0.011993183 0.00818737 0.011266003 -0.032215424
000090 1e 38 f0 3b 34 56 61 3c c0 54 10 3c df 03 95 bc
       0.0073309084 0.013753463 0.0088092685 -0.018190322
0000a0 8e 70 89 bb a9 ae 0f 3d 60 f0 ac bb 98 30 19 bb
       -0.004194326 0.03507868 -0.0052776784 -0.0023374911
0000b0 d8 13 e8 bc 4d bb 14 3d 12 77 9a 3c 66 44 85 bb
       -0.028329775 0.036311436 0.018855605 -0.0040669916
0000c0 0b f0 67 bc 84 fc 21 3c 82 05 39 3d f8 61 ad bb
       -0.014156352 0.009886865 0.04517127 -0.00529122
0000d0 c8 0d 94 3b 25 58 ab bb 85 1d 76 3c a9 af 8f bb
       0.0045182444 -0.0052290135 0.015021686 -0.004384954
0000e0 b5 0a 12 bb 60 9f cc 38 7d 29 34 bb b0 38 d1 3c
       -0.0022284214 9.757164e-05 -0.002749055 0.025539726
0000f0 3a b4 69 bc 40 c2 6b 3c 82 b5 6c 3b 05 56 65 3c
       -0.014264161 0.0143895745 0.003611893 0.013997559

gat_net.0.linear_proj.weight f4 [64, 1433]
000000 8b ed f7 3c 83 1c 8e 3d fb a8 05 3d b5 b4 ce bb
       0.030264637 0.06939032 0.032631855 -0.006308163
000010 41 49 0c be dd 61 94 bd 53 0d 58 bc 5e 4e 01 3d
       -0.13699819 -0.072452284 -0.0131867705 0.031568877
000020 bf 7f 4c bb 35 ac 27 3d 70 46 8c 3d d4 fa 8b 3d
       -0.0031204072 0.040935714 0.068493724 0.06834951
000030 92 93 17 bc 9d ad 23 bd 88 4e 89 bd 7e a9 0d bd
       -0.009251492 -0.039960492 -0.06704432 -0.03458547
000040 34 1f d8 3d 54 d3 92 3d b9 e7 9d 3c 77 58 8c bd
       0.105528265 0.07169214 0.019275533 -0.06852811
000050 f6 46 71 b1 3e 76 89 bc d9 8c 98 bc f6 a4 3d bd
       -3.5110452e-09 -0.016780015 -0.018621849 -0.046299897
000060 e6 cb 36 ba 2c 92 d6 b9 97 46 e7 bd f8 8f 2e bc
       -0.0006973132 -0.00040926167 -0.11292761 -0.010654442
000070 88 06 3d 3d 82 a0 66 bd ff 35 a8 3a 83 02 8b bb
       0.046148807 -0.056305416 0.0012833475 -0.004242243
000080 e5 5e 0c 3c 3c 4f 31 3b ba de 68 bb 1b fe 8d 3d
       0.0085675465 0.0027055284 -0.0035533146 0.069332324
000090 5c d1 55 3d a8 b6 70 3d 8e 58 90 3c 10 b7 14 3d
       0.052201614 0.058767945 0.017620351 0.036307395
0000a0 e9 9c 22 be 02 31 36 be 45 6d f8 3c d7 3f cd 3c
       -0.15880169 -0.17792132 0.030325541 0.025054855
0000b0 78 b3 f2 3d f5 84 2d 3e ac 9c 19 3d f8 3d 3a 3d
       0.11850637 0.1694525 0.03750293 0.045469254
0000c0 84 e1 02 be ce f8 85 38 54 c2 31 3d 71 38 2a 3e
       -0.1278134 6.388278e-05 0.043398216 0.16623093
0000d0 c8 ee ae be bc 09 11 3b e2 a5 c0 3d 31 a1 b8 3d
       -0.3416655 0.0022131046 0.0940664 0.0901512
0000e0 00 28 1e be 0c b6 c0 3c c7 d9 50 bd fd 57 47 3d
       -0.15444946 0.023524307 -0.05098894 0.048667897
0000f0 49 13 ce 31 6d 73 79 3e a1 99 1e 3c 6f 0b 18 be
       5.9975815e-09 0.24360438 0.009680183 -0.14848112
000100 74 9a ea bd c3 34 88 3d 24 32 ee 3d 93 a7 92 bd
       -0.11455241 0.066506885 0.11630657 -0.071608685
000110 e5 2f a0 39 56 7c e0 3c b9 1a 80 bd 33 8a a8 3c
       0.00030553262 0.027403038 -0.06255097 0.020573711
000120 5f 68 94 bd 31 51 cc bd 23 36 32 3d 27 b4 ed bd
       -0.0724647 -0.099764235 0.04350866 -0.11606627
000130 c2 96 32 3e 7a 45 16 3e 2d 2a 82 3d 17 e0 6b bd
       0.17440322 0.1467494 0.06355701 -0.057586756
000140 5e ad 29 be 74 cc 25 be 40 f0 24 bd 20 4e cc 3c
       -0.1657004 -0.16191274 -0.040268183 0.024939597
000150 71 41 00 bd ae 50 80 be dd e1 86 ba a3 35 7a 3c
       -0.03131241 -0.25061554 -0.0010290701 0.015271577
000160 c7 10 15 3d 72 6f 54 3c 2f 95 1d 3d 23 4f cb bc
       0.036392953 0.012966024 0.03847235 -0.024818009
000170 12 e1 1a 3d a9 54 c9 bd 32 d1 3d bd 21 64 fb 3d
       0.0378123 -0.09830601 -0.046342082 0.122749574
000180 9d df a2 3c 6b dc a0 bd d9 14 01 be 2c ae 25 3e
       0.019882018 -0.078545414 -0.12605609 0.16179723
000190 de 51 e0 3c 2f f2 a9 bc 7c ab ad 3d 20 dd 95 bd
       0.027382787 -0.020745365 0.08479974 -0.07317567
0001a0 5d 7f 20 bd 81 de 8a 3c 4b 95 47 3c eb f1 c9 bd
       -0.039183963 0.016951801 0.01218159 -0.09860595
0001b0 08 f9 de 3a 94 21 63 bd 10 a9 8b 3c b6 67 e7 3c
       0.0017011473 -0.055451944 0.017048389 0.028247695
0001c0 f3 c6 86 3d 2e ca a8 b9 96 79 a2 bb 8b 17 4b 3d
       0.06580915 -0.00032194093 -0.004958342 0.049583
0001d0 50 64 89 3d c0 7e bd 3d 57 02 82 3d 54 c4 4c 3d
       0.06708586 0.09252691 0.063481025 0.04999192
0001e0 2a 21 d3 bc 9e cd d6 bd 13 98 1f 3d 12 61 e4 bd
       -0.02577265 -0.10488437 0.03896339 -0.11151327
0001f0 72 91 b2 b9 6a 5c 39 3e fe 56 de 3d 00 bb 98 3b
       -0.0003405917 0.1810166 0.10856436 0.004660964
000200 4a d4 40 3b 9c fe 58 bc ec 8e c9 3c 97 c7 e0 bc
       0.002942341 -0.013244297 0.024604283 -0.027438922
000210 dc 8a 9f bd 72 b7 ba 3b cf 2d ae 3d 79 ae f9 bd
       -0.07790157 0.005698138 0.08504831 -0.12191481
000220 96 7c 67 bc 5f 54 35 bc 55 68 7e 3c 9a 92 ce 3d
       -0.014128825 -0.011067479 0.015527804 0.10086556
000230 d0 9d 88 3e f9 2c c0 3c 83 fc 22 3c ce 75 ac bd
       0.266829 0.023458945 0.009947899 -0.08420907
000240 9e cd c3 3b 7a e1 d7 31 ae 13 ff bc 3a ee 6b bb
       0.005975439 6.2829573e-09 -0.031137314 -0.0036000148
000250 fe dd b9 3d 6d 6f 06 3e c4 63 07 be d7 4b 5f bd
       0.09075545 0.13128443 -0.13221651 -0.054515686
000260 42 04 ac 3d 62 57 f7 3c ce 31 59 3d 97 6c 6c bd
       0.083992496 0.030193035 0.053026013 -0.057720747
000270 1b d0 b8 3d bc a4 a2 3d 89 15 05 3d 43 18 ea 39
       0.09024068 0.07941577 0.03249124 0.00044650034
000280 01 99 48 be b4 08 a7 3c dd ed 77 bd af 74 e5 3c
       -0.19589616 0.020389892 -0.06052958 0.02800974
000290 46 ba 78 3a b2 10 a0 b9 0d 6f 1c 3c 6d f5 85 bc
       0.0009488206 -0.00030530017 0.009547961 -0.01635238
0002a0 b8 2d 43 3b 77 be 78 bd 41 e1 8a bd 4b 3a 7f 3c
       0.002978189 -0.060728516 -0.06781245 0.015577863
0002b0 58 2e 21 3e e0 21 02 3d 35 1c c2 3d e8 f5 37 39
       0.15740335 0.031770587 0.09478036 0.00017543847
0002c0 e4 1b 5c be d5 f1 90 3d 9b 3d 3b 3d 07 6e 0d be
       -0.21495014 0.07077376 0.04571305 -0.13811503
0002d0 06 f5 50 3c 0d 1c 28 3d b2 d0 91 3d 69 f1 12 3d
       0.012753731 0.041042376 0.071198836 0.035874758
0002e0 70 62 3c bd 09 79 2b 3b cb b2 cd bd de e9 3b 3e
       -0.045992315 0.0026164672 -0.10043868 0.18350932
0002f0 1b 01 d3 bc d2 7c cc 3a 0a 13 f6 bc ee f1 f4 3d
       -0.025757363 0.0015601164 -0.030038375 0.11960207
000300 8e 62 d6 bd 01 3c ac bd 93 49 c1 3d e0 09 ba bd
       -0.104680166 -0.08409882 0.09437861 -0.09083915
000310 ef 08 aa bd 37 a9 70 bd ff 1a 1d 3d 83 95 96 3d
       -0.08302485 -0.058755126 0.038355824 0.07352736
000320 a2 f6 83 bd 69 f6 98 bb 73 57 59 3d 47 c5 81 3d
       -0.06443526 -0.0046680463 0.053061914 0.06336456
000330 b3 40 e4 b9 77 7a 33 be cb 4c 6d 3d 03 d6 61 bd
       -0.00043535754 -0.17527185 0.057934564 -0.055135738
000340 00 28 df 3d 13 26 05 3c c1 3f c3 bc 5c 87 c5 bd
       0.10896301 0.008126753 -0.023834111 -0.096449584
000350 b1 12 92 3d 40 d7 4c bd 87 5c c3 bd 16 85 fd bb
       0.07132471 -0.050009966 -0.095391326 -0.0077368123
000360 04 c4 6b bd 98 18 35 be 0e 7f 21 bc e4 42 e7 bb
       -0.057559982 -0.17685163 -0.009856952 -0.0070575345
000370 52 16 60 3c dc 82 12 bd db 59 47 bd b8 ef 6f b9
       0.013677197 -0.03576933 -0.048669677 -0.00022882118
000380 0e d3 48 3d bf 0a 65 bc d5 85 bc bd db 5c c1 3c
       0.049029402 -0.013979613 -0.09205214 0.023603847
000390 5f 9b 14 bb c7 c1 86 bc 22 ef a4 3b ce b5 24 be
       -0.0022675616 -0.016449822 0.0050333897 -0.16084978
0003a0 1d 19 d5 3d eb 45 9f bd 51 00 9c bd 5f 8c 3f bd
       0.104051806 -0.07777008 -0.07617248 -0.046764728
0003b0 af 4d 93 bd a7 a5 24 be 84 18 22 3e a9 c9 03 bd
       -0.07192551 -0.16078816 0.15829664 -0.03217474
0003c0 8f e7 92 3c 10 02 19 bc 2f 51 03 3b e9 5e aa 3c
       0.017932681 -0.009338871 0.0020037403 0.02079721
0003d0 d1 c9 e6 3d cc 5f 89 bd 6e b8 50 3a 38 49 f7 bc
       0.11268962 -0.06707725 0.00079620525 -0.03018628
0003e0 af 51 f2 3c 83 06 39 3d d9 6d bc 3d ed 81 c1 bd
       0.029579965 0.045172226 0.09200639 -0.094486095
0003f0 94 bf 8e bd 5a f4 52 bd 2f 73 eb 3d de 78 29 bd
       -0.069701344 -0.051502563 0.11496579 -0.041375034

gat_net.1.scoring_fn_target f4 [1, 1, 7]
000000 9e cd 08 3e cc 48 eb bd ad 3b 4e be 2b 08 28 be
       0.13359687 -0.11488494 -0.20139952 -0.16409366
000010 7e dc 11 bd c7 e0 b4 3a 76 8a 4c 3e
       -0.03561067 0.0013799899 0.19974694

gat_net.1.scoring_fn_source f4 [1, 1, 7]
000000 d1 0f ac 3e 4e 75 ea 3d 44 6c 9f 3d 62 59 2d 3e
       0.33605817 0.11448155 0.07784322 0.16928628
000010 cf 2f 40 3e 20 98 af 3e 7f 18 64 3e
       0.18768238 0.3429575 0.2227497

gat_net.1.bias f4 [7]
000000 64 e9 70 bd 9c db 80 bd d7 20 51 3d ef 4b 58 3d
       -0.05881633 -0.06291887 0.05105671 0.05280679
000010 9f 45 01 bd 6e 2c 47 bb 14 12 f3 3c
       -0.031560536 -0.0030391472 0.029671706

gat_net.1.linear_proj.weight f4 [7, 64]
000000 de c9 f7 be a4 7c 1d 3f 59 e0 f3 3e dc 35 02 bf
       -0.483962 0.6151831 0.476321 -0.5086343
000010 9c 46 da 3e 78 cf e8 be ba b7 bb be a3 14 f4 be
       0.42631996 -0.45470786 -0.3666361 -0.47671995
000020 59 83 e8 be d4 cd 3f bf 8d 2c 56 be ba 5c 40 3e
       -0.4541271 -0.74923444 -0.20915432 0.18785372
000030 71 62 9c 3e 39 f7 f0 3e 6e c7 4b 3e 32 20 20 bf
       0.30543855 0.47063616 0.19900295 -0.62549126
000040 88 5e d4 be 4b 4f 4a 3f bc 31 5a 3e 88 f0 f5 be
       -0.41478372 0.7902724 0.21308035 -0.48035073
000050 a8 a2 a6 be 33 2e 08 3f 5f 12 9a 3e 20 e2 0d bf
       -0.32545972 0.53195494 0.3009214 -0.55423164
000060 0e 18 5a 3e 5b 50 d3 bd 9d 9d d0 3e ed 25 60 3e
       0.21298239 -0.10318061 0.4074525 0.21889468
000070 0e 6e ac be 52 37 4d bf 86 4a 6b 3e c6 fa 67 bd
       -0.33677715 -0.8016254 0.22977647 -0.05663564
000080 81 f7 1a 3e 8d 60 60 bc 5b 11 3f bf e2 88 9e 3e
       0.15133478 -0.0136948945 -0.7463586 0.30963808
000090 54 56 f9 be 31 90 03 bf 58 91 08 bf 7f e8 0e bf
       -0.48698676 -0.51391894 -0.53346777 -0.5582351
0000a0 04 fe 03 bf cb e2 e6 3e fd 5d 0d 3f c6 14 d6 be
       -0.5155947 0.45094904 0.5522154 -0.41812724
0000b0 31 03 af 3e a5 6a f4 3e bd 7a d5 bd d7 a0 06 bf
       0.34182122 0.47737613 -0.10423801 -0.5258917
0000c0 45 1d b5 be ee 72 e8 be 27 27 b0 3d 92 28 1d bf
       -0.35373893 -0.45400184 0.08601218 -0.6139003
0000d0 c1 35 3a bf 22 9f 82 3e de 90 d1 be 89 8e dc 3e
       -0.7273827 0.25512034 -0.40930837 0.43077496
0000e0 13 65 18 bf 9c 94 9e be 19 dd e4 be 4f 19 23 3f
       -0.59529227 -0.30972755 -0.44699934 0.6371049
0000f0 16 cd b2 3e f9 a2 06 bf f4 8d cf 3e a6 5b cc be
       0.34922093 -0.52592427 0.4053799 -0.39913672
000100 70 fd 0a 3f 80 9e e6 be 56 0d 17 bf 58 13 6f be
       0.54292965 -0.450428 -0.59004724 -0.23347223
000110 8f 21 f0 bd d5 7c 57 bf 40 08 8e 3e e5 61 14 be
       -0.11725151 -0.84174854 0.2774067 -0.14490469
000120 29 8b 29 3f 5c 6d fe 3e 48 89 10 3f ca 0c fd 3e
       0.66227967 0.4969281 0.56459475 0.4942382
000130 03 9b c1 3d 9f 43 cd bc b3 a4 0b bf 62 7d 18 bf
       0.09453394 -0.025056658 -0.54548186 -0.5956632
000140 9a e5 23 3f 60 32 07 bf 28 a8 50 bf 3b c9 9d be
       0.6402222 -0.5281124 -0.81506586 -0.3081759
000150 5e 9e 24 3f 89 74 42 3f 99 c1 b5 3d 0c 36 4b be
       0.6430415 0.7595907 0.088748164 -0.19844836
000160 04 30 30 bf 72 d3 49 bf b9 d2 1b bd 34 3f 62 bf
       -0.68823266 -0.78838265 -0.038042758 -0.8837769
000170 83 29 13 3f dc 38 0a be a5 a4 3c bf 1f 91 3d 3f
       0.57485217 -0.13498253 -0.7368873 0.7404956
000180 3f ad 91 3e 72 c4 44 3e 89 5f 3a bf ea 1a 4f 3f
       0.2845249 0.19215563 -0.72802025 0.8090044
000190 ad 4e 0e bf d2 ae 43 3e 63 f1 50 bf be 1e 72 3f
       -0.555888 0.19109657 -0.81618327 0.9457816
0001a0 ae 20 3d 3f f3 0d 40 3e b1 5a da 3e f8 fc 2b 3f
       0.7387799 0.18755321 0.42647317 0.67182875
0001b0 f4 c1 22 bd c3 ac 20 bf e4 46 19 bf 7e b3 8f be
       -0.03973575 -0.62763613 -0.59873796 -0.2806663
0001c0 f7 6d 0d 3f 4d 9c 4a 3f c2 58 c2 3e b4 7d 42 3f
       0.5524592 0.79144746 0.37958342 0.7597306
0001d0 61 b3 69 bf 05 2e 07 3f 48 8f 3b bf 26 6b 2b bf
       -0.91289335 0.52804595 -0.73265505 -0.6696037
0001e0 e4 cf 3e 3f d6 93 29 3f 09 99 11 3f 03 ed 43 3f
       0.74535966 0.66241205 0.5687414 0.76533526
0001f0 72 88 46 bf 33 ff 7e be e2 4d 0c bf 92 41 2b bf
       -0.7755195 -0.24902038 -0.5480634 -0.6689693
000200 5a b6 45 3f d8 0e 86 3e 67 86 21 bf e7 30 7e bf
       0.7723137 0.261832 -0.63095707 -0.9929337
000210 c8 84 db 3e d4 03 49 be 63 d5 32 be 72 7b 25 bf
       0.42874742 -0.19630367 -0.17464213 -0.6464149
000220 f9 1d c0 3e 5a d5 ac 3e a6 4b 69 bf 44 a3 af 3e
       0.37522867 0.33756524 -0.91131055 0.3430425
000230 2d 18 7c bf 57 37 45 bf 78 a2 a6 3c c3 e8 10 3f
       -0.9847439 -0.77037567 0.020341143 0.56605166
000240 3e 9b 20 bf 6e 18 04 bf be 97 0d 3f 4b 70 2b be
       -0.6273688 -0.51599777 0.55309665 -0.16742055
000250 f3 9b 13 3c 89 72 47 bf ad 31 38 3f 5b 74 7c bf
       0.009009349 -0.7790914 0.719508 -0.98615044
000260 2b 58 3a bf e3 00 09 bf 6d 8d bb bd 76 c8 95 3e
       -0.72790784 -0.5351698 -0.09157834 0.29254502
000270 06 73 ef 3e 04 7d 22 3f 4d 8e e9 3c 1b 70 17 3f
       0.46767443 0.6347201 0.028510237 0.59155434
000280 ad c0 39 bf e1 7a 4b bc c0 ee 2c 3f ee 2c 25 3f
       -0.72559625 -0.012419433 0.67551804 0.6452168
000290 a2 d9 48 3f 1f 43 23 3f f3 19 2f 3f 42 37 13 bf
       0.7845708 0.63774294 0.6839897 -0.5750619
0002a0 c7 af 1f 3f 10 d5 d7 3e e1 29 66 bf fb fc 54 bf
       0.6237759 0.4215474 -0.8990765 -0.8319852
0002b0 7e 13 5e bf f0 ba c0 3e d9 da c0 be 7b d6 4b 3f
       -0.8674849 0.37642622 -0.37666968 0.79624146
0002c0 21 ba 2b 3f 26 f7 56 bf 8f 86 6e bf fb a4 cc be
       0.67080885 -0.8397087 -0.9317407 -0.3996962
0002d0 65 ee fc 3c 97 b6 ec 3e 2f d8 3c 3f 9e 00 1d 3f
       0.030875394 0.46233055 0.7376737 0.61329067
0002e0 a5 93 e7 3e dd 1d 98 3e fd dc 2a 3f 0b 65 0a bf
       0.4522983 0.29710284 0.6674345 -0.5406043
0002f0 c5 48 49 3f b8 9a 75 3f 50 d2 41 bf 85 d0 e0 3e
       0.7862666 0.9593921 -0.75711536 0.43909088
000300 36 b0 39 bf a4 18 24 bf 2b cf 0b bf 70 6f 84 be
       -0.725345 -0.641001 -0.5461299 -0.2586627
000310 ce 53 f4 3e 94 5e 26 3f b4 d9 aa 3e 1e d7 d2 bd
       0.47720188 0.64988065 0.3336922 -0.102949366
000320 0c 48 6b bf 1c 82 f6 3e 7b 5c 1b 3f 13 5c 90 be
       -0.9190681 0.4814614 0.6068799 -0.28195247
000330 3c c3 05 bf f7 a1 37 bf c1 81 89 be 3c 92 50 bf
       -0.5225103 -0.71731514 -0.26856807 -0.81473136
000340 ef 37 a2 be 9e 9d cf be cd 82 0f bf 79 a7 47 bf
       -0.316833 -0.4054994 -0.5605896 -0.7798992
000350 7e b0 6d 3e 52 65 42 bf d9 78 cb 3e 64 79 97 bd
       0.23211858 -0.7593585 0.39740637 -0.073962
000360 e1 82 e8 3e 64 26 0c 3f 4e 0b c9 be 10 d8 3b 3f
       0.45412353 0.5474608 -0.39266437 0.7337656
000370 6e 3c 1e bf 19 ec cb be 18 07 c7 3e 71 3b e8 3e
       -0.6181096 -0.39828566 0.388726 0.4535785
000380 65 ae 17 bf 27 9d 5d bf 15 51 25 bf f8 c4 41 bf
       -0.5925048 -0.8656792 -0.64576846 -0.75691175
000390 7c 3f f2 3e 7a 1f f6 bd 5d 44 82 3c 3a 79 f0 be
       0.4731406 -0.120177224 0.015901739 -0.4696749
0003a0 f5 aa 2b 3f c5 1d 23 bf 5e 6e db be a5 de d7 be
       0.67057735 -0.637173 -0.4285764 -0.42162052
0003b0 88 dc 14 3f 01 70 3b bf 55 5d 62 3f 53 6a 7c bf
       0.58149004 -0.7321778 0.88423663 -0.9859974
0003c0 ed 61 f0 be d5 c2 56 3e 29 67 5a 3d 56 56 a4 3e
       -0.4694971 0.2097276 0.053321037 0.3209712
0003d0 4f aa db 3e c1 fc 7e be 0e c7 43 bf 6c eb 3d bf
       0.42903373 -0.24901105 -0.7647561 -0.7418735
0003e0 d1 c5 ec 3d cb 05 09 bf 11 a4 54 be b0 27 ae 3e
       0.11561168 -0.53524464 -0.20765711 0.34014654
0003f0 34 04 d1 be e5 be 34 bf 95 65 05 bf 88 ca 09 3f
       -0.4082352 -0.7060378 -0.52108127 0.53824663
