python/binarypath/binaries/gat_000023.pth (torch, 372431 bytes, 8 tensors)

gat_net.0.scoring_fn_target f4 [1, 8, 8]
00000000: e530 533c 2eba 943c 7e1d df3b f2b1 a8bc
00000010: 4f1f 0abc adc2 f7bc 32bb b23c c995 023c
00000020: 3b31 0d3b e076 6a3b 3afc 863c f9c8 10bd
00000030: aef1 abbc 24b9 c1ba 6ffb 8a3b f622 9ebb
00000040: 7b44 75bd c636 413d e9b1 fc3c 4c05 793c
00000050: 709c 783d 381d 003d c3cc b93c fca4 0cbd
00000060: 7103 81bd 4b32 893c d6b3 073b d087 43bd
00000070: 6454 b83b 6be8 97bc 91db 32bd e92c 293d
00000080: 5370 9dbc 00c5 d9bc 20e6 90bb 5b34 7f3d
00000090: 0f8b 14bd 8e1b 23bd aa7d 983c 4f5c a8bb
000000a0: 1ed0 e1bc 60a4 0bbd 329d 153c 1a6c d0bc
000000b0: 09d8 78bd 4121 0d3c c027 2ebc fcb8 223d
000000c0: 5b84 ebbc 700e d4bc f109 0bbc b401 5e3d
000000d0: 51e1 653d 1755 9c3c cd06 23bd e771 13bc
000000e0: d9ff 4c3d 03ea 1b3d c1ff 713c c030 91bc
000000f0: 9fda 19bc 2262 123c 3fce b6bc 531e 263d
0.012890075 0.018155184 0.0068089357 -0.020592663 -0.008430316 -0.030244196 0.021817777 0.007970282
0.0021544236 0.0035776421 0.016477693 -0.035347912 -0.020989265 -0.0014779908 0.004241399 -0.004825945
-0.05987976 0.047171377 0.030846553 0.015199017 0.060696065 0.031277865 0.022680646 -0.03433703
-0.062994845 0.016747614 0.0020706556 -0.047736943 0.0056252945 -0.018543443 -0.043666426 0.041302595
-0.0192186 -0.026583195 -0.0044219643 0.06230579 -0.03626543 -0.0398212 0.018614609 -0.005137957
-0.027565058 -0.034092307 0.009131717 -0.025442172 -0.060752902 0.008613885 -0.010629594 0.039727196
-0.028749635 -0.02588579 -0.008486257 0.054200843 0.05612308 0.019083543 -0.039801408 -0.008999324
0.050048683 0.038064968 0.014770449 -0.017723441 -0.009390502 0.0089345295 -0.022315143 0.040556263

gat_net.0.scoring_fn_source f4 [1, 8, 8]
00000000: 080c e73d 145c 03bd 90a6 573c ebfc 2fbe
00000010: c9b3 d8bd efd7 3abe 6ad8 903d 64b7 093d
00000020: 1759 9c3d 8198 423e b638 df3d 211e 52be
00000030: 2632 6dbd 6b4b 19be 80f9 003e 29d9 9e3d
00000040: 8587 86bd 4a9b 193e 047c 51bd 69a2 693d
00000050: d8d5 193e 0e75 ffbd 99bb 353e fcf8 4cbe
00000060: 2b4b 0bbe 4b3a be3d 5ff3 e53d 166c 7abe
00000070: 62fa bdbd af6b 7ebe f249 36be c144 353e
00000080: 183a 99bd 99e0 12be feda 48be 9900 373e
00000090: 24e2 bdbd 46e6 cbbd 88cd e83a c201 4c3e
000000a0: 42a4 6fbe e7d4 a2bd 68fb a13c 4e00 96bc
000000b0: d166 efbd 210b af3c 14ce e0bc 0571 713e
000000c0: 475f 603d 6f6c 5dbc 1d01 aa3d 5893 023e
000000d0: 3e46 143e 6af6 903d 877f a4bd fa55 d5bd
000000e0: f2a5 ed3d f2cf cb3c 7f43 be3d 68fa 85be
000000f0: 2dec 2cbe caec bf3d 3307 c1bd a74b c1bc
0.11281592 -0.032070234 0.01316227 -0.17186324 -0.10581166 -0.18246435 0.07072528 0.03362216
0.0763418 0.19003488 0.10899489 -0.20519306 -0.057909153 -0.14970176 0.12595177 0.07756264
-0.06568817 0.15000644 -0.05114366 0.057039652 0.15022981 -0.12473498 0.17747344 -0.20016855
-0.13602893 0.09288462 0.1122806 -0.24455294 -0.09276272 -0.24845766 -0.17801645 0.17702009
-0.07481784 -0.1434349 -0.19614789 0.17871322 -0.092716485 -0.099560305 0.0017761448 0.19922546
-0.23402503 -0.07950764 0.0197732 -0.018310692 -0.116895325 0.021367611 -0.027442016 0.2357827
0.054778364 -0.013514622 0.083009936 0.1275152 0.1447992 0.0707825 -0.080321364 -0.10416789
0.11603917 0.02487943 0.092902176 -0.26167607 -0.16886969 0.09371336 -0.09425201 -0.023595644

gat_net.0.bias f4 [64]
00000000: 406d 0b3c 481a 0b3b a9cf a33b f892 39bc
00000010: 02f0 3b3d 3251 b33c 4270 d53c 81e2 823a
00000020: 7c10 843c 802b 8c3c 124e 513b 9169 1bbc
00000030: 2f3c 843c 46da 59bb deb7 a73c 3eb4 7c3c
00000040: 08d3 013c 90e3 083c 78d2 3a3c 5bb3 90bc
00000050: 8270 d33c b176 873b d33a 163d 1efe f83c
00000060: 1371 5dbc 02c4 6ebb c9af 8e3c ba4a c13c
00000070: b22c eeba 85ff 97bc 65b7 213d af1f 39bd
00000080: 8341 163d 1569 2dbc 0193 b83b 4957 3bbc
00000090: c5e8 4c3b ef89 6abb 58a3 28bc 42fc da3c
000000a0: 58cb e03b c2f7 b53b 4622 933c 9ca9 83bc
000000b0: bfa1 e2bb 58f7 a1bc eb9c 183d f402 a6bc
000000c0: 9944 613c 56d2 eeba 94bc 68bc 44f1 1b3c
000000d0: 12e5 b03c bae7 cb3c 2740 e63c 35bd 843c
000000e0: 2647 173d 953b 343d e3a2 8b3b beb9 083b
000000f0: 3a81 5fbc 809a 04ba ac46 0f3d 0125 a8bc
0.008509934 0.0021225382 0.0049991203 -0.011326544 0.045883186 0.021889303 0.026054505 0.0009985716
0.016121142 0.017110586 0.0031937403 -0.009485618 0.016141979 -0.0033241673 0.020473417 0.015423832
0.007923849 0.008355036 0.011402719 -0.017663648 0.025810484 0.004134022 0.036677193 0.03039461
-0.0135157285 -0.0036432748 0.017417805 0.023595203 -0.0018171279 -0.018554458 0.03948154 -0.04519623
0.03668357 -0.010584136 0.0056327586 -0.011434385 0.003126667 -0.0035787781 -0.01029285 0.026731614
0.006860178 0.0055532167 0.017960679 -0.016072087 -0.0069162543 -0.019771263 0.037259024 -0.02026508
0.013749265 -0.0018220644 -0.014205117 0.009517971 0.021593604 0.02489077 0.028106762 0.016203502
0.036933087 0.044002134 0.004261361 0.0020862664 -0.01364165 -0.00050584227 0.034979507 -0.020525457

gat_net.0.linear_proj.weight f4 [64, 1433]
00000000: 7cbd 683c 6a71 573b 983b d23d d433 9c3b
00000010: d452 783d 4581 1ebb 5a79 843d f933 9e3c
00000020: 7cd5 333c ba26 b03c d859 a6bb 6c37 ac3c
00000030: 7de6 493c 542a 3bba d68e 343c a532 1ebc
00000040: 1d99 0f3d 55ab 0dbc e23d 653d aa44 343d
00000050: e7de b4b9 f39e 5d3d 0933 a3bb ad15 46bd
00000060: 32fd 85ba bda7 d03d f4e5 bd3c 226a 11bd
00000070: e63f 383c 7901 643c 1d39 22bd f038 dcb8
00000080: cf92 62bd 9e7d 093b ea5d c9bc a1f0 2ebc
00000090: b368 923b ecc6 0bbd 4e24 d23c a8e7 3ebb
000000a0: 45b1 ccbb c272 af3b b69c f6ba 053c 943b
000000b0: ad20 3c3d 46c3 97bd b7a7 27bc e046 86bd
000000c0: b360 0dbd 999d bdbc f4e0 18bd 4ea8 c03d
000000d0: 1fc5 41bd 7194 81b9 1a4b ef3b 056f 033d
000000e0: cb07 833c a8b2 053d 64e3 0b3d f4d7 e4bc
000000f0: c848 09ba a906 033e c6f0 d4ba 1480 143d
00000100: e1c3 163d 2657 37bc 850a 31bc b821 fc3c
00000110: 6e23 eabc d0a6 c33c 21f3 07bd a951 253c
00000120: da6c 39bd 21bd 15bd 1634 debc 515b adbd
00000130: 6395 d4bd 9728 d03d 071e 91bd 1c84 abbc
00000140: 5fa9 1b3d 9a23 3fbd 2358 a83d 2ceb 93bc
00000150: 62d0 693c 46a9 f6bd ec04 16bc b4a5 363d
00000160: 7c35 81bd fecf a83d 9b05 843b 42a0 88bd
00000170: 8172 943d d758 19bd fb1f 06bc a6ce 5b3d
00000180: ad49 0dbd e4c6 0eba 8082 02be 0244 4a3e
00000190: a25f d73c 440c 02bd 8c45 a53d b22b 00bd
000001a0: ad0c 1b3d c285 903c 9258 e7bc 6566 263c
000001b0: 328c a3bd ea34 1fbd 49d5 babc 7467 0b3d
000001c0: 2239 c3bc 757f b63a 4508 103c 2e8b b63c
000001d0: 30a5 c1bd 66fd 41bb 88c0 a73d 3ee7 bb3b
000001e0: 66da 75bc a746 d1bd 36a1 c7bc 9606 fdbc
000001f0: 4fb1 033d 8413 f33d 5d00 82bc 355b b43c
00000200: 11d4 74bd 96af 383c a8d5 ffbc 6a36 91bc
00000210: 9a30 48bd 3ca0 f53b 60d5 933d 0a1b debc
00000220: e8f2 8ebd 1d95 94bc 62f0 97bc 48a1 723c
00000230: 974d 283e 8b1e 2fbd 6813 133d fc2b 0dbd
00000240: bc66 563a b076 3ab7 725d 6a3d b9f2 6a3c
00000250: 593c 67bd 7b3c b83d 3005 33bd 7898 bd3d
00000260: c0a2 de3b a0ab 1fbc b6e0 593d 6ccf 623d
00000270: 466b c9bc bc4d eebd ca38 583d 302a 0c3d
00000280: ebc4 83bd 6dda 82bb d310 7b3d dd5d 5e3d
00000290: 8405 683d b2ec 9eb9 ae4a dcbc 5ad9 a53c
000002a0: a6d8 0e3d 8bf8 89bc b62f 43bb 30e8 f2b7
000002b0: 025a 6a3d fe1f 1dbd fa25 d2bc b247 14bc
000002c0: 2238 86bd 03eb 17bb e4d8 bdbc 206f 3dbc
000002d0: 0475 7eba d394 c43d 90d0 ffbb c15f dfbc
000002e0: 0acc fa3b 11b1 bbbb e73b 1a3c 768e 6a3d
000002f0: c4d2 90bd 280f a73c ec6b ca3b 7707 943d
00000300: e996 993d 1060 9eba 6210 95ba c2f4 b63c
00000310: ae53 973c ab27 a43c 44ff 3a3d ed30 bfbb
00000320: 9bc0 453a fde2 91bc cbbb 89bc a69b 21ba
00000330: 9bbc a13b f88f 0dbd 5b46 8cbc ec6d ebbc
00000340: 26a3 833d 10e4 9b3c 1079 173b 74cb 4a3d
00000350: 60d7 e53d c809 96bd b2d5 62bc 0de8 7b3a
00000360: 94e6 f2bc f7b5 e1bd cd66 1ebd 5696 5b3c
00000370: 9fa0 93bc c046 693c 1845 583b 4967 eb3a
00000380: db00 9a3c 07a4 103d 8b74 bd3b 2673 273c
00000390: 169d 6dbd c30a 1e3c df45 2bbd 805c 28bd
000003a0: 80ae 9537 f69a 843d 80d9 0abd 9ad6 113d
000003b0: cd05 c9bc 4515 bc3c 0eee 37bc f98b 0fbc
000003c0: de9f 2c3c a254 363c 8649 a43c 852f 52bd
000003d0: 568d 3f3d d95f 283c ffb7 ac3a 90ac e53c
000003e0: 7ea5 59bc c1b8 1dbd 1dce c73d a64f a1bc
000003f0: c750 91bc fa2f 8c3c 8f96 653d 70ad a1bc
0.014205333 0.0032873997 0.10265273 0.0047669206 0.060625866 -0.0024185937 0.064684585 0.019311892
0.010976192 0.021502841 -0.005076628 0.021022521 0.012323019 -0.0007139791 0.011020383 -0.009655629
0.03505813 -0.008646806 0.05596722 0.044010796 -0.0003449835 0.054106664 -0.004980449 -0.048360515
-0.0010222553 0.101882435 0.02318094 -0.035501607 0.011245703 0.013916367 -0.03960525 -0.00010501023
-0.05531579 0.0020979415 -0.024580915 -0.010677488 0.0044680475 -0.034125254 0.025652077 -0.0029129777
-0.006246718 0.0053542564 -0.0018815014 0.0045237564 0.0459296 -0.07410292 -0.010232857 -0.06556487
-0.034516048 -0.023146437 -0.037323907 0.094071016 -0.04730713 -0.00024715395 0.007302654 0.0320883
0.015994927 0.032641083 0.034152403 -0.027935006 -0.00052369805 0.1279551 -0.0016246072 0.036254957
0.0368079 -0.011190211 -0.010805731 0.030777797 -0.028581347 0.023883253 -0.03319085 0.01009027
-0.045269825 -0.03655732 -0.027124446 -0.08464683 -0.10380056 0.10163992 -0.070858054 -0.020937018
0.03800332 -0.04666481 0.08219936 -0.018056475 0.014270874 -0.12044005 -0.009156447 0.04459162
-0.063090295 0.08242796 0.0040289885 -0.06671192 0.072484024 -0.03743824 -0.008186336 0.053663872
-0.03449409 -0.0005446507 -0.12745094 0.19752505 0.026290718 -0.03174998 0.08069906 -0.03129167
0.037853885 0.017641906 -0.028240476 0.010156249 -0.079857245 -0.038868822 -0.02280678 0.034034207
-0.023830954 0.0013923483 0.008791034 0.022283163 -0.09455335 -0.00296005 0.08191019 0.0057343533
-0.0150056835 -0.10218554 -0.024368864 -0.03088693 0.032151517 0.11868957 -0.015869314 0.022016147
-0.059772555 0.011272332 -0.031229809 -0.017726142 -0.048874475 0.007495908 0.072184324 -0.027112503
-0.069799244 -0.018137509 -0.01854724 0.01480896 0.16435848 -0.042753737 0.03590718 -0.034465775
0.0008178761 -1.1114098e-05 0.057218023 0.014340096 -0.056454036 0.08995911 -0.04370612 0.09257597
0.0067943037 -0.009745508 0.053192817 0.055373594 -0.024587285 -0.116359204 0.052788533 0.03421992
-0.064340435 -0.0039933235 0.06129534 0.054288734 0.056645885 -0.0003031246 -0.026891079 0.020245243
0.03487458 -0.016842147 -0.0029783077 -2.8956769e-05 0.057214744 -0.03836059 -0.025652874 -0.009050297
-0.06553675 -0.002318085 -0.02317471 -0.011562139 -0.0009706768 0.095986985 -0.007806845 -0.027267339
0.007653718 -0.005727895 0.009413696 0.057264768 -0.0707145 0.02039297 0.006177416 0.07227986
0.07499487 -0.0012083072 -0.001137268 0.022333506 0.018472519 0.020038446 0.045653597 -0.00583469
0.0007543654 -0.017808432 -0.01681318 -0.0006164856 0.0049358136 -0.034561127 -0.017123392 -0.028738938
0.064276025 0.019029647 0.002311293 0.049510434 0.1122272 -0.073260844 -0.013844894 0.00096094684
-0.029650964 -0.11021035 -0.038672257 0.013402542 -0.018020926 0.0142380595 0.0033000167 0.0017959859
0.018799236 0.03531268 0.0057817153 0.010220325 -0.058011137 0.0096461205 -0.04181468 -0.04110384
1.7843442e-05 0.06474869 -0.03389883 0.03560505 -0.024538899 0.02295936 -0.01122619 -0.008761399
0.010536162 0.0111285765 0.02005459 -0.05131485 0.046765648 0.010276758 0.0013177394 0.028036386
-0.013284085 -0.038506273 0.0975611 -0.0196913 -0.017738713 0.01711272 0.056051787 -0.019736022

gat_net.1.scoring_fn_target f4 [1, 1, 7]
00000000: 0be2 3bbd feb7 a0bc af79 f4bd be80 70be
00000010: d728 89be fe87 25be da86 903e
-0.04586987 -0.019618984 -0.11937272 -0.23486611 -0.2678897 -0.16165158 0.28227884

gat_net.1.scoring_fn_source f4 [1, 1, 7]
00000000: 1c76 253e 55a6 5f3f e860 e8bd 381c d2be
00000010: 0f8b e7be 3d27 8a3e 6ae7 c03e
0.16158336 0.8736318 -0.113466084 -0.41037154 -0.4522328 0.2698306 0.37676555

gat_net.1.bias f4 [7]
00000000: 4adc 983d 0d2f 48be a7c2 8d3d 8ea1 ec3d
00000010: a8e9 333d d54a 4a3d 7235 463c
0.07463892 -0.19549198 0.069218926 0.115542516 0.043924004 0.04938777 0.012097703

gat_net.1.linear_proj.weight f4 [7, 64]
00000000: 2b27 2a3d b717 983e f690 a0be 6217 89bd
00000010: ecc6 05bf 4a2e 88be a359 9ebe 16ad f1be
00000020: 862d d0be c381 a6be c3f4 44be 5310 173e
00000030: 140e bbbe 7c48 e13e 3d58 a5be 71e7 a13d
00000040: d6fe 733d 93df 953e f179 dc3e 2364 44be
00000050: 1bbc be3e 7b44 8a3e c41f ccbe 5253 84be
00000060: 44af ea3e 1d33 76be a054 233e a28c e03e
00000070: c7e0 9dbd 742c 00be c25a f73d 1d49 efbe
00000080: d491 15be 7128 053f 4b58 bbbd 74df b5be
00000090: beb2 613e bd5c da3e e4ea 1abe 7d8b b4be
000000a0: 3084 953e f634 fbbd f723 c5be fd60 b63e
000000b0: 9a0c 8abe 3007 58bd 03c1 a13e 3621 873e
000000c0: 0172 ae3e e094 a1bd 1e2e 9b3d 41d2 56be
000000d0: 9559 203e 64fd d0be 93a2 b3be 5d12 46bd
000000e0: 8760 8fbe 5be6 eabe 406d d8be 414f 293e
000000f0: 7819 2bbe 379d 1cbe 6911 c83e b894 bd3d
00000100: 7584 003e c2e7 403d 1bfc e8bd 3b12 d3be
00000110: 23dd bbbe 9adc b9be 3b48 b73e 5b62 383e
00000120: ab11 49be 464c a1bd 97b2 593e ea59 a2be
00000130: 6dba c7be 025d 47be 08b1 b83e 2b28 f7be
00000140: 9428 7cbe 9c07 333e 73e6 90be dc92 59bd
00000150: 9257 853e a6cf 13bf 7eee 003f 8e33 c8be
00000160: d771 cabe 748f 4d3e 3ac0 a83e 4eb0 f3be
00000170: b906 90be 74f3 81be 6d07 b1bc 7c6e e83d
00000180: 3b92 8ebe 1b58 b2be 5079 d5be add7 803e
00000190: 08e2 78be bdf9 36be 080e e7be 3557 2c3e
000001a0: 4eb6 eebe d4a4 f7be bbbc 86be 89e3 e43e
000001b0: b0b2 dcbe 3a33 d93e 593e 91be 386f 7b3e
000001c0: 908c 27be f6de cfbc 48ea d63e 56c9 783e
000001d0: c40f a33e d8b0 9d3e a8d2 92be bf13 aebe
000001e0: 7be3 aa3e 91ab be3e af72 b33e 521b e9be
000001f0: 64df 5c3e e561 293e 6389 e4bd 09f6 953e
00000200: 48b9 ab3e c9c0 093f ff16 073f ffdb 97be
00000210: 7e59 0a3d 29d0 873e 9992 b43d 4422 02bc
00000220: 9f48 56be f8b6 e63d 53fa 003f 779b a6be
00000230: 7b7f 013f 536f f5be ebff 313e 1c11 f43e
00000240: cc05 ed3e 4c83 ddbe 421a 3ebe 744d aebe
00000250: f622 d1be fff9 8ebe 41c0 33be bd73 ff3e
00000260: 431c 0d3d cfe6 e53e d492 b1be 930e 82be
00000270: a637 a53e 24d5 c1bd 81e4 ba3d d2f9 133f
00000280: 4574 07bf e81e 33be c1ae c8be 0844 7a3e
00000290: 14ec fcbe 6878 c0be bcc9 7a3e a518 583e
000002a0: b50d 0cbf 5fbf 54be 5da6 383b a58c 17bf
000002b0: 22c6 e1be ead1 7bbe 75b9 7cbe 4a40 fc3e
000002c0: fe38 90bc 14f3 3fbe ee1e b7be 7d4a 89be
000002d0: b04a 91be 5f6b cbbe fda5 9f3e a78c e33e
000002e0: de11 e1bd 206e 99be 0e4b 9e3e dc63 4cbe
000002f0: e957 b7be b36d 31be 2941 8bbe 325a c23e
00000300: ee8b 89be ed5a 553e 622e a33e 53b7 2a3e
00000310: 0171 973e 0e5c b2be d550 8a3e c0ca 48bb
00000320: be34 2c3e 14aa 60bd 667d 8cbe f1f6 90be
00000330: 62e2 c13e 8f0c 723e 53d1 d7be a080 ccbd
00000340: b78b 0a3d f61c 183d e15c 2b3c 436e d83e
00000350: 255d ffbe eada 2d3e 1c28 82be d9ae 97bc
00000360: 16c1 4bbe a996 d2be ebed a83b ed1c bf3e
00000370: bd02 67be b82f bf3e c628 d23e b732 823c
00000380: 83dd 4cbd 9c20 5cbe 671e 8bbe 2f5a 683e
00000390: 7d36 b5be ae03 2ebe adbf 473c eb0f b6be
000003a0: b141 cdbd 4a91 223e 3d29 e63e 3596 393e
000003b0: c640 91be 547b c0be 00ad 983e b816 d3be
000003c0: 5806 07bf 3de0 ab3e a5a3 213e ac02 9abe
000003d0: 2bdc c4be 6ca9 2c3e 6a61 ce3e 42c6 e03e
000003e0: bdee f73e 1163 a23e 4fe1 38be b2b3 5a3e
000003f0: d048 babe cf91 8bbe 97f2 a13e 07e0 443e
0.04154126 0.29705593 -0.31360596 -0.06693913 -0.52256656 -0.26597816 -0.30927762 -0.47202367
-0.40659732 -0.32520875 -0.19233994 0.14752321 -0.36534178 0.44000614 -0.32293883 0.07905472
0.059569202 0.29272136 0.43061784 -0.19178824 0.37252888 0.2700537 -0.39867985 -0.25844818
0.45836842 -0.24042936 0.1595025 0.43857294 -0.077088885 -0.12516958 0.120778576 -0.46735469
-0.1460641 0.52014834 -0.091477 -0.35522044 0.22040841 0.4264888 -0.15128666 -0.3526267
0.29202414 -0.12265961 -0.38504001 0.3562087 -0.2696274 -0.05274123 0.3159257 0.26392525
0.34071353 -0.07889724 0.075771555 -0.20978643 0.15659173 -0.40818322 -0.35084972 -0.048357356
-0.28003332 -0.45878872 -0.4227085 0.16534139 -0.16708934 -0.15294348 0.39075783 0.092568815
0.12550528 0.04709602 -0.1137621 -0.41224846 -0.3669215 -0.36301118 0.35797295 0.1800627
-0.19635646 -0.07875876 0.21259533 -0.31709224 -0.3900942 -0.19469073 0.36072564 -0.48272833
-0.24624854 0.17483371 -0.2830082 -0.05311857 0.26043373 -0.5773872 0.5036391 -0.39101833
-0.39539978 0.20074254 0.32959157 -0.47595447 -0.2813013 -0.25381052 -0.021609986 0.11349198
-0.2784594 -0.34832844 -0.41694117 0.25164548 -0.24304974 -0.17868705 -0.45127892 0.16830142
-0.46623462 -0.4836794 -0.26315865 0.44704846 -0.43105078 0.42421895 -0.2836788 0.24554145
-0.16362214 -0.02537487 0.41975617 0.24295554 0.31847966 0.30798984 -0.28676343 -0.3399944
0.3337668 0.3724027 0.35048434 -0.45528656 0.21569592 0.1654125 -0.11159017 0.29289272
0.33539796 0.5380979 0.52769464 -0.2966003 0.033776753 0.26526 0.08817024 -0.00794274
-0.2092614 0.11265367 0.50381964 -0.32540485 0.50585145 -0.47936496 0.17382781 0.47669303
0.46293485 -0.43264234 -0.18564704 -0.34043467 -0.40846986 -0.27925107 -0.17553808 0.4989299
0.03445078 0.44902655 -0.34682333 -0.25401744 0.3226902 -0.094644815 0.09125615 0.5780307
-0.5291179 -0.17492259 -0.39195827 0.24440014 -0.49398863 -0.37591863 0.24491018 0.21103151
-0.54708415 -0.20776127 0.0028175332 -0.5919898 -0.44096476 -0.24591795 -0.24680121 0.492678
-0.017605301 -0.1874507 -0.35765785 -0.26814643 -0.28377295 -0.39730355 0.31181327 0.44443247
-0.10989736 -0.2996683 0.30916637 -0.19959968 -0.35809258 -0.17327003 -0.2719815 0.3795944
-0.2686457 0.20835467 0.31871325 0.16671495 0.29578403 -0.34835857 0.27014795 -0.0030638427
0.16816995 -0.0548497 -0.2743942 -0.283134 0.3786803 0.23637603 -0.4215189 -0.09985471
0.03382465 0.037136994 0.010459156 0.42271623 -0.4987575 0.1697804 -0.25421226 -0.018515991
-0.19897875 -0.4113057 0.005155315 0.37326756 -0.22559638 0.37341094 0.41046733 0.015893323
-0.050015938 -0.21496814 -0.27171633 0.22690652 -0.35393134 -0.16993591 0.012191695 -0.3555902
-0.10022295 0.15875736 0.44953337 0.18123706 -0.2836973 -0.37594092 0.2981949 -0.4122827
-0.52744055 0.33569518 0.15785082 -0.30080163 -0.38449225 0.16861504 0.40308696 0.4390126
0.4842433 0.31716207 -0.18054698 0.21357611 -0.36383677 -0.2725968 0.31630394 0.19226085
