python/binarypath/binaries/gat_000021.pth (torch, 372431 bytes, 8 tensors)

gat_net.0.scoring_fn_target f4 [1, 8, 8]
00000000: 9185 37bc 1bc3 cbbc 6bdb 533d 2acc ed3a
00000010: 1a86 c83c 167a f03c 4620 8c3c 39d3 593d
00000020: 19f4 15bd 6f87 db3c bf2d 35bd 7c00 2a3b
00000030: 6141 153d 1e18 2b3d 2ca8 bebb b475 623c
00000040: 454c bebc c063 df3a 1c5d 453d 68b0 cbbc
00000050: 1c88 273c 7e5f 623c c246 053c 7ccd 39bb
00000060: be1d 74bd 6f02 e33d 962e a53c 738b 6dbd
00000070: abca 95bd 4952 aa3d 31ef 063d bf55 56bd
00000080: 9dcd 34bd 0077 28bc 0c52 9e3c 66b5 023c
00000090: 60e6 deb8 a2c3 93bd 89c7 463c 5c1a 053d
000000a0: 6329 273d 292b 113c dc3a d4bc 2a9a 1bbd
000000b0: d86e eabb 6307 1dbd f5d7 59bc 9094 923c
000000c0: 0ceb cebc c2bf cdbc 8826 553c 2dcb a4bc
000000d0: acb2 373d f1e4 db3c 02ab d8ba b07e 3abd
000000e0: 95ac 52bd 3916 883d d108 86bc 1e6d ea3c
000000f0: 3d75 b33c 1a82 1b3d 1da8 823d 40eb 9bbb
-0.011201278 -0.024873307 0.051722925 0.0018142511 0.024478007 0.02935509 0.017105233 0.053179953
-0.036609743 0.026797978 -0.04423308 0.002594023 0.036439303 0.041771047 -0.0058183875 0.013822008
-0.023229728 0.0017043278 0.0481845 -0.02486439 0.010225322 0.013816712 0.008134546 -0.0028351238
-0.059598677 0.110844485 0.020163815 -0.057994317 -0.073140465 0.08316476 0.032942954 -0.052327868
-0.0441414 -0.010282278 0.019326232 0.007977819 -0.000106286956 -0.072150484 0.012132534 0.03249584
0.040810954 0.008860388 -0.025906973 -0.03798882 -0.007154327 -0.038337123 -0.013296117 0.017893106
-0.025258563 -0.025115851 0.013009675 -0.020116413 0.04484813 0.026842566 -0.0016530456 -0.045530975
-0.05143412 0.06644864 -0.016361626 0.028616484 0.02190649 0.03796587 0.06379721 -0.0047582686

gat_net.0.scoring_fn_source f4 [1, 8, 8]
00000000: 804f 45be 40f4 48bd e239 343e 65c2 8a3d
00000010: 0f3e 4f3d c86c 263e 5910 0bbe 171a 853e
00000020: bfac 54be d20f 0f3e 320d fabd da08 51be
00000030: 4e7b ea3d 17b7 933c b5a2 eb3d beb8 e13c
00000040: 0b51 d0bd e2fc d7bc 0741 8b3e b8a4 25bc
00000050: f28e a33d 468b c63b 7a3e 8d3d d7a4 d4bd
00000060: 47ab 33be a6de 983e 9d1b 1c3d 34c6 89be
00000070: 3545 21be 54f7 7f3e a087 113e 23f3 00be
00000080: 7abf 0ebe 103f 2abc da21 033e 18a1 463e
00000090: 2ec5 4b3c 6e49 61be c556 1c3e 54d1 2c3d
000000a0: 4691 823e 1aa5 873e 1b83 01be 3113 2fbe
000000b0: a0c9 53bd 12fe 0fbe 3e5c 8ebd aa35 95bd
000000c0: 8a8f 783d 72fd 09be 9f76 51bd 6051 12be
000000d0: 1e17 5d3d 43e4 50bd f965 bcbe 9bfe 70be
000000e0: 7462 90be d280 823e aa35 77be ca68 9b3d
000000f0: b6cd 873e 4bf2 c03d b3d3 ef3d b68e 963d
-0.19268608 -0.04906106 0.17600206 0.06775359 0.050596293 0.16252434 -0.13580455 0.25996467
-0.20769022 0.13970879 -0.12209548 -0.20413533 0.114493 0.01803164 0.11505643 0.027553912
-0.10171708 -0.026365701 0.2719805 -0.010110073 0.07986249 0.006059083 0.06896682 -0.10383003
-0.17545806 0.29857367 0.03811227 -0.2690903 -0.15749057 0.24996692 0.14211893 -0.1259275
-0.1394023 -0.010391012 0.12805882 0.1939739 0.012437148 -0.22000667 0.15267475 0.04219182
0.2550146 0.2649315 -0.12647669 -0.17097165 -0.051705956 -0.14061764 -0.069511876 -0.07285626
0.060683765 -0.13475588 -0.051138517 -0.14288855 0.053977124 -0.050998937 -0.3679655 -0.23534624
-0.28200114 0.25488907 -0.24141565 0.07588346 0.26524132 0.09421214 0.117103 0.07351439

gat_net.0.bias f4 [64]
00000000: 65e1 603c ee0c 8a3c daea 47bb 209e 6f3c
00000010: 1603 b2bc c2b3 473d 2819 3a3c c677 b1bc
00000020: c9f9 573c 73c4 39bc 8a96 813d 719e 91bc
00000030: 3c7c 34bb 3631 533d efc7 adbc 2512 f03c
00000040: 8332 82bc 5e84 aabc c265 c53c 6a10 00bd
00000050: 603d d23c ea83 d13c 4154 523d f66d 93bc
00000060: 5d41 8bbc afc6 583c 5fee 083d 778b a13c
00000070: 2add 263b 979f 833c a411 e53b 326d 053d
00000080: cf96 843c e742 253d 78dd a23c 5610 dc3c
00000090: a84b 6bb9 c199 ac3c e228 60bc 32ef 143d
000000a0: 02c4 283d a9f9 c0bc 76d9 bc3a f75e 1ebc
000000b0: d2ea ac3b b464 bd3a d9c4 a43c 663b b03c
000000c0: 2cc9 d2ba bb70 cb3c 2015 28bc 1b22 913c
000000d0: 05b6 133d 6659 14bc 9e57 a23c 5e7f 243c
000000e0: 5205 b4ba 8e69 31bb f5b6 3e3c 079b 773d
000000f0: 6ed1 5cbc 4d1b 28bc 6ee8 bb3b a027 053a
0.013725613 0.016851868 -0.0030504973 0.014625102 -0.021729987 0.048755415 0.011358537 -0.021663558
0.013182112 -0.011338341 0.06327541 -0.017775746 -0.002753987 0.051560603 -0.0212135 0.029305527
-0.015893226 -0.02081507 0.024096373 -0.031265654 0.025664032 0.025575597 0.051349882 -0.01799677
-0.016998941 0.013230964 0.033430453 0.019719822 0.0025461414 0.01606731 0.0069906283 0.03257484
0.016185192 0.040347006 0.019880995 0.026863258 -0.0002243953 0.02106941 -0.013681622 0.036360927
0.041202553 -0.023556547 0.001440807 -0.009666196 0.005277016 0.0014449568 0.020113396 0.021512698
-0.0016081682 0.024834028 -0.010258943 0.017716458 0.03606226 -0.009054517 0.01981717 0.010040132
-0.0013734496 -0.0027070972 0.0116403 0.06045058 -0.013477666 -0.010260415 0.005734495 0.0005079452

gat_net.0.linear_proj.weight f4 [64, 1433]
00000000: 5a0f 00bd 63a8 7fbd 454b af3c aac1 e2bd
00000010: 430b 2d3e c04d 04bc 354e cc3d 58e3 55bd
00000020: c2a5 b5bb aff8 f2bb dedb ed3b 74d5 46bb
00000030: dfbd 893d e742 54bd 930e 0fbc 88f9 f93d
00000040: 3c0f 2abc ae2e be3c 0f8e d13d a3de 503e
00000050: beb6 9bb8 592e 8dbc c651 8bba 2d97 5b3d
00000060: b43f e8bc b193 6c3d f187 ff3b c6de 91bd
00000070: 3124 003d 4772 13bc 49fd babd e55b 153c
00000080: cbd7 d6bc 3cd9 3dbc 9fe5 b6bd 4ae3 63bc
00000090: dae5 a3bc 1daf 59bc b992 d5bd 1f5e 81bd
000000a0: 1c71 bc3d 2c1c d63d 8ea5 403d 3f10 243d
000000b0: d41c 9d3d 14c4 c0bd 4715 6c3c 9f97 bebd
000000c0: 5d16 183c 2fb5 bc39 8cfc b6bd 58bd 953d
000000d0: 165e 21bc 4d3e e23b 55dc 3ebd 0205 6a3d
000000e0: 2a98 e6bc 9f1c f33c e769 883c 978d 43bc
000000f0: 66bf 5639 9233 a53d 6b59 393d 2800 6cbc
00000100: 84e8 6a3d e2f7 29be 2bc5 37bc e0ec f0bc
00000110: 54db f33c ba13 2cbd 07a2 a2bd 301d 833c
00000120: 9537 c83c 1fc9 c03c d318 e0bc a4cc 863c
00000130: 4be4 1cbe c469 ec3d da71 d83b 017f 31ba
00000140: 8eeb b43c 0ff4 0cbe b6f7 39bd b632 06bd
00000150: e459 d2bb b534 af3d 9a35 233c 9a61 e73c
00000160: 8184 b53c 8413 3bbc 671c 37bc c183 adbd
00000170: 9c3d 4dbd ec19 b3bd d415 423d a30d e43d
00000180: a000 ad3c ac95 93bc 9edd b1bd 6a2d b33d
00000190: a619 303d 5da8 733c 2153 733d 3f70 6a3d
000001a0: c433 273d 2708 283d 184a 44bd f634 9cbc
000001b0: d8f2 80bd 8ab9 84bb 3a74 033c 412a cebc
000001c0: 1132 233c e3a3 3d3c 4856 1d3a 2ca1 73bc
000001d0: 9cef abbd c208 edbc 812d d23d 673b 13bd
000001e0: 2da2 d33c 66f7 a03d 958a 5fbd 65ec 233d
000001f0: 9cfa a2bc be90 013e ba00 f5bb f015 a0bc
00000200: 6d16 3c3e e1aa b73b 8835 103d 985a 113c
00000210: 3843 8abc 61ed 82bd 8379 033d 84cf 283e
00000220: ed6b 0ebc 1d94 c9ba 4e7b 1b3c 7610 f8bd
00000230: ad85 ad3d 0fa8 283c 5dcc 42bd 4378 fe3c
00000240: d274 29bc 57a8 2739 942d 993d a77c cabd
00000250: 7e4e cbbd 0a48 91bd b831 a83d aa58 3fba
00000260: be45 65bd 342d d43d 4dab de3b 0c04 703d
00000270: 2238 26bd bf49 99bc fa73 4f3d 1547 d23c
00000280: 3d87 5a3d 5060 f2bb 672c c53d 6028 c43c
00000290: d05d 493d ee8d 7abc dbab 273d 00c9 c93c
000002a0: 1cbb c3bd 7c7b 503d 76bc 693c ceef c2bb
000002b0: 5a53 a23d e4a8 f7bd 7913 bf3a 8830 a63b
000002c0: 75bf d53d 0e93 5839 bd58 983b 979a 463c
000002d0: c9dc ebbc 5dac dfbb 48e2 9abb 3a6e a2bc
000002e0: acd8 263d d0af 48bb 91e6 c5bc 29b8 dfbd
000002f0: 7bab d2bd 5347 d63c cd86 cc3b 9fd2 6dbd
00000300: a85c dd3d c64c babc 05fa 8fbd f4e0 8dbd
00000310: cad2 bebc 4ce6 533b aa48 9cbd 3cc8 59bd
00000320: c0ea 1dbd 0bf5 ec3c 44c0 f53b 05aa c03b
00000330: 4bfc 223c 7169 d6bc 686b 233c ee78 74bd
00000340: 5f85 a7bd 2584 38bb 2b4e 913d 180a 8abd
00000350: 1ad4 3d3b 4bc4 1b3c 11c6 a23c 8059 12bd
00000360: 0193 993c a5d2 783d fc48 923d 7018 7abb
00000370: 78c1 23bd 1209 93ba 9b04 043d bfa1 dc3c
00000380: d9ff eb3c a00d a43c cd57 973c 9495 c2bc
00000390: 2c4f 7cbd 88e2 52bc 3f62 d13d 10b2 363c
000003a0: 44a2 433d 3504 f1bc 51ca 55bc 862f 6abc
000003b0: 7897 0d3d 6bb1 5fbd 9300 883c 3614 28bd
000003c0: bdca bc3c b630 3f3c e809 033d 9c60 bbbb
000003d0: 1d79 ec3d 76aa 4abd b94d 7f3c 7b54 793d
000003e0: 59b7 75bc bd13 9bbd 2931 8fbd 2d85 75bd
000003f0: 45b8 063d 4963 373c 58e1 6abd 887e 82bc
-0.03126464 -0.062416445 0.021398196 -0.11072095 0.16898827 -0.008075178 0.09975854 -0.052218765
-0.0055434415 -0.0074148993 0.007258876 -0.003033963 0.06725668 -0.051821616 -0.008731502 0.122057974
-0.010379609 0.023215618 0.10232174 0.20397429 -7.425014e-05 -0.017234014 -0.0010629229 0.05361097
-0.028350689 0.057758037 0.007798188 -0.07122569 0.031284515 -0.008999414 -0.091303416 0.009116148
-0.026225945 -0.011587437 -0.089305155 -0.01390917 -0.020007063 -0.013286379 -0.10428376 -0.0631678
0.092012614 0.10454592 0.047032885 0.040054556 0.07671514 -0.09412399 0.01440937 -0.09306263
0.009282676 0.00035993147 -0.08934888 0.07311505 -0.009849092 0.0069043995 -0.046596844 0.057133682
-0.02814873 0.029676734 0.01665206 -0.011935613 0.00020479932 0.08066477 0.04525129 -0.014404334
0.05735065 -0.16598466 -0.011216442 -0.029409826 0.02976767 -0.042011 -0.079410605 0.016005129
0.024440566 0.023533402 -0.027355587 0.016455002 -0.15321462 0.11543611 0.006605369 -0.0006770939
0.022084977 -0.13764976 -0.04540225 -0.032763205 -0.006419407 0.08554975 0.00996151 0.028244782
0.02215791 -0.011418227 -0.011176205 -0.08472396 -0.050107583 -0.087451786 0.0473841 0.111354135
0.021118462 -0.018015705 -0.08684848 0.087488964 0.04299321 0.014871684 0.05940545 0.057235952
0.040820852 0.0410234 -0.047922224 -0.019068222 -0.06296319 -0.0040504383 0.008023316 -0.025166633
0.009960667 0.011574718 0.00060019316 -0.014869969 -0.08395311 -0.02893484 0.102625854 -0.035945322
0.025834167 0.078596875 -0.05457552 0.040020365 -0.01989489 0.12652871 -0.0074768933 -0.01954171
0.1836793 0.005605087 0.0352073 0.008871697 -0.016877756 -0.06392933 0.032098304 0.16485411
-0.008692724 -0.0015379224 0.009489847 -0.12112515 0.08472762 0.010293975 -0.047558177 0.031063205
-0.010342794 0.00015989073 0.074793965 -0.09887057 -0.099270806 -0.070938185 0.08212608 -0.0007299284
-0.055974714 0.10360184 0.006795323 0.05859761 -0.040580876 -0.018711923 0.050647713 0.02566866
0.05335163 -0.0073967353 0.0962761 0.023945034 0.049161732 -0.015292628 0.04093538 0.024631977
-0.09557173 0.050899014 0.014266124 -0.005948997 0.07926054 -0.1209276 0.0014577947 0.0050717033
0.10436908 0.00020654147 0.0046492503 0.012121818 -0.028791802 -0.006825967 -0.004726682 -0.01982795
0.04073398 -0.003062237 -0.024157794 -0.10923798 -0.102866136 0.026157057 0.0062416554 -0.058062192
0.108086884 -0.022741687 -0.07030109 -0.06927672 -0.023293871 0.0032333313 -0.07631047 -0.053169474
-0.038553953 0.02892544 0.0074997265 0.005879643 0.009947847 -0.026173325 0.009974338 -0.05968564
-0.081797354 -0.0028154936 0.070949875 -0.067402065 0.0028965534 0.009507249 0.019869836 -0.035729885
0.018746855 0.06074776 0.07142827 -0.0038161539 -0.039979428 -0.0011217913 0.032230955 0.026932595
0.028808521 0.020026028 0.018474484 -0.023752965 -0.06159894 -0.012871392 0.10223817 0.011150852
0.04776217 -0.029420951 -0.013048724 -0.014293557 0.03456828 -0.05461256 0.016601836 -0.0410349
0.023045892 0.011669328 0.03199187 -0.005718304 0.11546538 -0.04947897 0.015582495 0.060871582
-0.014997327 -0.07572124 -0.069917984 -0.05994146 0.032890577 0.011193105 -0.05734381 -0.015929475

gat_net.1.scoring_fn_target f4 [1, 1, 7]
00000000: fab1 3b3d 1114 45be d077 093e 4678 0bbd
00000010: 53e8 a73e 2c17 90bb 4bf5 c6bd
0.04582403 -0.19245936 0.13424611 -0.03405025 0.32794437 -0.0043972936 -0.09714755

gat_net.1.scoring_fn_source f4 [1, 1, 7]
00000000: 64c2 e33d ff20 aebe 1b6d 2c3f c61c c5bd
00000010: b205 3e3f 4ab1 25be a364 233d
0.111210614 -0.3400955 0.6735398 -0.09624629 0.7422744 -0.16180912 0.039890897

gat_net.1.bias f4 [7]
00000000: a96f 843d f652 f43d 377a 12be 6c11 753d
00000010: 25c9 14be 0024 e23d 2931 393d
0.0646661 0.11929886 -0.14304434 0.059831068 -0.14529856 0.11042023 0.0452129

gat_net.1.linear_proj.weight f4 [7, 64]
00000000: 0e5a 85be de92 98be 6135 c6be 1eba 13bf
00000010: 189f b83e b5ab 30be 1deb 773e e698 f6be
00000020: aa75 a7be 81a5 6b3e a25f 87be 00e6 df3e
00000030: 117e c03d 2112 863e e39c ab3d 8233 923e
00000040: f8e9 b0be 2c16 c73e 6435 7e3e b267 3e3e
00000050: 8aef adbe f22c ab3e b289 853c 1932 2abe
00000060: e9e7 c33e 8d6e 62be 89ca 99be 9be5 df3e
00000070: acaf 29be bc35 88be bb98 ccbe ba2c 4f3e
00000080: 6722 f13e 1d6d 513d cef3 c33e 0ffe 1bbd
00000090: f065 03be 6ff0 86be 0607 5abe 1385 75be
000000a0: 1ab8 6a3e cd48 27be 650d 3c3c 136b 06bf
000000b0: 9475 eb3e 863e 723d 2525 8fbe bb1b 013f
000000c0: 6af5 75be 975e 903e 8c08 7e3d 7646 61be
000000d0: 0d62 8f3d e38b 643e f62d dd3e 4ef8 a83d
000000e0: 1217 1e3f 7e2f 843d 5614 83bd e501 c8bc
000000f0: dd24 73be e390 fcbe e311 0f3e 797b 073e
00000100: 81c1 cdbe 4760 0dbe ca06 6ebe b142 85be
00000110: 08f0 a03e 80d3 eb3e c0c9 02bf c655 a33e
00000120: 4fb4 70be 530b 80be 90e2 b63b 8075 733e
00000130: 8d0f afbe 9b0f fe3c 9658 383e 66d2 c63e
00000140: 15fc e23e 5fca cdbe f938 28be 6164 0b3f
00000150: 3312 dbbd 3cb9 d8be a987 a3be bd52 c7be
00000160: bea0 243e d67c edbe 5e6e 16be 8683 8e3e
00000170: 6b6b d83e a510 57be e17d 88be 7396 b03e
00000180: 28d8 d6be a866 42be 6f5f fc3e 3873 4fbe
00000190: 0be2 433e 76ac b0be 4a34 ea3e a309 1abe
000001a0: 07ba f5be ef3b aa3e 86d0 cebe aabc 603e
000001b0: d057 b4be 48a7 f7be 2834 af3e 9475 2dbe
000001c0: f5c8 143f 75dc 15bf b9cc fdbe 4055 d5be
000001d0: 5974 d8bd a69f c5bc 4461 e4bd 165b a4be
000001e0: 5d44 673e f35b d13e 151b c3be 6fc4 db3e
000001f0: e4b2 df3e 5866 d53e 260f f53e efc1 6e3e
00000200: 23c1 853e 77fd d73e cc19 8b3e 7990 2c3e
00000210: 88b2 eb3e a6ba ab3c a858 923e b856 b43e
00000220: 8d05 c4be 8067 d43e 26b4 febe 998a cebe
00000230: f294 f63e 2496 d93e 5950 21bd 3278 b7be
00000240: 653e f8be bb26 10bf 2b73 1a3f cfcf 133c
00000250: 86ff d9be 8b0c 953e 0990 2fbe 6a76 853e
00000260: cda2 bdbe e903 a83e 70f3 813e 1a13 c0be
00000270: b284 57be 3132 d23e b3a8 fe3e c7af 01bf
00000280: ae3d 14bf 5a4b 03bf 7b9f 813e 50f6 e13e
00000290: 207d 10be 488c 12be b943 e5be 31ed 493e
000002a0: 76c2 943e 1781 023f 84ba bebd 74ca 10bf
000002b0: 9801 e83d 9274 52be 231e 0abf 4a7d fd3d
000002c0: a150 dabe af17 9bbe 7490 8c3e 8934 e73e
000002d0: 3b99 253e 3c76 023f 2fe0 f4bd 020c a2be
000002e0: bf66 f9be 225f 7d3e 8746 743e f34d 9d3e
000002f0: 4d69 e73d ea9a c53e 21d8 95be acbd 09bf
00000300: 6e67 083f f2cf 683e 67ad b23e f988 c5bd
00000310: d9b0 b9bd a2e8 a0be 94c6 ee3e d37b 113e
00000320: 45a8 e03e 37d3 433e d81f 50be f2b9 963c
00000330: db3c d73e 46a0 82be ee3b 503e 6d95 db3e
00000340: d4a0 873d ba55 cb3e 121b 8bbe 934a 42be
00000350: 673e f43e e15a 9b3e 3671 db3d bb3a 743e
00000360: 5f10 be3e 6647 6c3e 200b bbbd 6e9c 823e
00000370: 19ec 32be f968 6d3e 13b6 633e 4fb4 31be
00000380: 85ec 72be a847 953e c904 39be 8152 2fbf
00000390: 8dd9 b7bc 7889 9c3e 3c12 1c3c 37bc 90be
000003a0: 8b3f b53e 0a80 a93d a609 453e d138 05be
000003b0: cd72 abbd 0da6 083f fb1f d53e 8906 0a3f
000003c0: ae4b a2be cee9 ad3d 56ef 17be 4c40 f83e
000003d0: 71e2 503e 6955 833e 784a 7d3e 9b20 f33e
000003e0: 7a2a 993e e8a3 b8be 84bb 9c3e 35f9 553e
000003f0: 5da2 913e 083a f7be b095 9b3d d4de 463e
-0.2604527 -0.2979955 -0.387126 -0.5770587 0.3605888 -0.17253001 0.24210782 -0.48163527
-0.32706958 0.23012353 -0.2644015 0.43730164 0.09399045 0.26185706 0.08379533 0.28554922
-0.34553504 0.38884103 0.24825054 0.18594244 -0.33971816 0.33432728 0.01630101 -0.16620673
0.3826287 -0.22112484 -0.30037335 0.43729863 -0.1657092 -0.26603496 -0.39960274 0.20231906
0.4709656 0.05112945 0.38271946 -0.038084086 -0.12831855 -0.2635531 -0.21291742 -0.23976545
0.22921792 -0.16336365 0.011477803 -0.5250713 0.45988142 0.05914166 -0.27958027 0.5043294
-0.240194 0.28197166 0.06201987 -0.21999535 0.070011236 0.22318988 0.43199128 0.08250485
0.6175395 0.06454371 -0.06400363 -0.024414966 -0.23744531 -0.4932929 0.13971667 0.13230695
-0.40186694 -0.13806258 -0.23244777 -0.26027444 0.3143313 0.460598 -0.51089096 0.31901377
-0.23506282 -0.2500864 0.0055812076 0.23775291 -0.34191552 0.0310133 0.18002543 0.38832396
0.44332948 -0.4019346 -0.16427983 0.5445004 -0.106968306 -0.42328823 -0.31939438 -0.38930312
0.16076943 -0.46384305 -0.14690539 0.2783472 0.42269453 -0.21002443 -0.26658538 0.34489784
-0.4196179 -0.18984473 0.4929156 -0.20258796 0.19129197 -0.34506577 0.45743018 -0.15042739
-0.4799349 0.3324885 -0.40393466 0.2194697 -0.35223246 -0.48369813 0.3421948 -0.16939384
0.58119136 -0.58539516 -0.49570253 -0.41666603 -0.105690666 -0.024123978 -0.111513644 -0.32100743
0.22584672 0.40890464 -0.381066 0.42923304 0.4369117 0.41679645 0.4786312 0.23316167
0.26123914 0.42185566 0.2716812 0.16851987 0.46034646 0.020963024 0.28583264 0.3522241
-0.38285485 0.41485214 -0.49746817 -0.40340117 0.4816051 0.4249736 -0.039383266 -0.3583389
-0.48485103 -0.563091 0.6033198 0.009021713 -0.4257776 0.29111132 -0.17144789 0.26066905
-0.3703827 0.32815483 0.2538104 -0.37514573 -0.21046713 0.41053918 0.49738082 -0.5065884
-0.57906616 -0.5128685 0.25316986 0.44133234 -0.14110231 -0.14311326 -0.4477823 0.19719388
0.29054612 0.50978225 -0.09312919 -0.5655892 0.11328429 -0.2055228 -0.53952235 0.123774126
-0.4263964 -0.30291507 0.2745396 0.4515727 0.16171734 0.5096166 -0.11956822 -0.31649786
-0.48711202 0.24743322 0.23855029 0.30723533 0.112993814 0.38594753 -0.29266456 -0.5380504
0.5328282 0.22735575 0.3489792 -0.09645266 -0.09066934 -0.31427485 0.46635878 0.14207391
0.4387838 0.19123541 -0.20324647 0.018399213 0.42038617 -0.25512904 0.20335361 0.4288744
0.066224724 0.39713842 -0.2716909 -0.1897376 0.4770386 0.30342773 0.10714953 0.23850529
0.37121865 0.23074111 -0.09132981 0.2550997 -0.17472877 0.23184575 0.22237425 -0.17353939
-0.23723038 0.29156232 -0.18068232 -0.68485266 -0.022442603 0.3057363 0.009525832 -0.28268597
0.35400042 0.08276375 0.19241962 -0.13009955 -0.08371506 0.53378373 0.41625962 0.5391622
-0.31698364 0.0849186 -0.14837393 0.48486555 0.2039888 0.256511 0.24735439 0.47485813
0.2991522 -0.3606255 0.30611813 0.20895846 0.28444186 -0.48286462 0.0759691 0.1942094
