python/binarypath/binaries/gat_000024.pth (torch, 372431 bytes, 8 tensors)

gat_net.0.scoring_fn_target f4 [1, 8, 8]
00000000: 1d9e 0b3c 206b f0b9 893a d3bc 23eb 613c
00000010: cce6 32ba 69a4 a63c e41d 04bc 320b e0bc
00000020: 64b6 743d 0ee9 30bc 9b0a 8dbb a9fd caba
00000030: 9542 bfbc 91f9 673c 9039 eabc 0706 0e3d
00000040: c11f b73c 096e 0d3d 22ed 6fbc 3464 453a
00000050: 225c 81bc 07a3 ac3c e15a 233d 960f c13c
00000060: 4261 9fbc 41b4 793b fa96 f53c de7b 953d
00000070: 06ce 17bc 3ba2 5f3d 2055 5bb8 d64d 043c
00000080: 5e37 9e3c 4752 72bb 8336 53bc b7e3 27bc
00000090: 5af7 c33c 95e9 b2bb ce87 3bbd f9d7 2b3c
000000a0: d231 4fbd 362e 0fbb 5ce3 5bbc 833c 29bc
000000b0: 590b 88bc b7e3 2bbb 4851 99bc 55e2 ffbc
000000c0: 7fb9 8e3d 7d52 da3c fec3 0cbc 4082 2b3d
000000d0: 1425 223a 3eef bfbc bed1 89bc 13f5 37bc
000000e0: 7a53 13bb b45b 603c a64d 05bd 2f81 af3c
000000f0: 950e 323c 701d fabc 30dc 2f3c e253 a5bb
0.008521584 -0.00045856182 -0.025784748 0.013788971 -0.00068245525 0.020342069 -0.008063767 -0.027349088
0.059744254 -0.010797752 -0.004304243 -0.0015486974 -0.023347178 0.014158622 -0.028591901 0.034673717
0.022354009 0.034528766 -0.014643939 0.0007529885 -0.015791003 0.021073831 0.03988159 0.023567002
-0.019455556 0.0038101824 0.029979218 0.072990164 -0.009265428 0.054598074 -5.2292948e-05 0.008075198
0.01931351 -0.003697531 -0.012891415 -0.010247163 0.023921657 -0.005459974 -0.04578381 0.010488504
-0.05058462 -0.0021847612 -0.013420906 -0.0103293685 -0.016606973 -0.0026228258 -0.018715516 -0.031235853
0.06968974 0.026650662 -0.00859165 0.041872263 0.00061853346 -0.02342951 -0.016823646 -0.011227864
-0.0022480176 0.013693739 -0.032544754 0.021423904 0.010867734 -0.030531615 0.010733649 -0.0050454

gat_net.0.scoring_fn_source f4 [1, 8, 8]
00000000: 0c53 883d 79b6 8abd fb66 f2bd 85ed 143d
00000010: d329 2cbd 4076 d43d 42f4 3c3e 657b b9bc
00000020: b51f 2b3d 73ef 8a3c 5b87 ef3c eb11 9d3d
00000030: 812a cfbd 2bdf 05bd 7aaa 10bd e19c 12bd
00000040: d308 a53c f116 673d cf27 97bd dbae 9fbc
00000050: 5bdf d6bd c19b e6bc cc9b 813d 1e36 87bc
00000060: 392a d83b a9d6 113d 1c62 8f3d d905 e43d
00000070: f882 013d 3ebb f93d 69ed 6f3b 5dfd be3c
00000080: 2a4f f23c 30e0 bcbd c62f 233c d69f 72bd
00000090: 353a 393e 78fc e23c 41a7 bdbd 9666 f33d
000000a0: 55a6 153d 5a8a 77bd c3fc d1bd ecff d1bd
000000b0: 6404 b63a fb3a 21be 3aa0 8dbd ebcd ab3d
000000c0: fa0f 1d3d 9bca e83d f019 5e3d 01d6 ee3d
000000d0: e173 1f3c 6f44 21bd 884d 16bd b470 10be
000000e0: a726 80bd 08bc c33d db89 f3bb 8aa5 85bb
000000f0: b756 d1bd c4b4 21bd 8c2f 913d b9eb ca3d
0.06656465 -0.06773085 -0.11836048 0.03635933 -0.042032074 0.10374117 0.18452552 -0.022641847
0.041778285 0.016959881 0.029239347 0.07669433 -0.10115529 -0.032683533 -0.03531883 -0.035794143
0.02014581 0.056418363 -0.0738064 -0.019492557 -0.104918204 -0.028150441 0.06328544 -0.016505297
0.00659683 0.035605107 0.07001135 0.11133928 0.031619042 0.12193917 0.0036610013 0.023314172
0.029578764 -0.09222448 0.009960121 -0.059234463 0.1808861 0.027708277 -0.09260417 0.11884801
0.03653558 -0.060434677 -0.102532886 -0.10253891 0.0013886807 -0.15745156 -0.069153264 0.08388885
0.038345315 0.11366769 0.054223955 0.11661912 0.0097322175 -0.039371904 -0.036695033 -0.14105493
-0.06257372 0.095573485 -0.007432205 -0.0040785717 -0.10221618 -0.039479032 0.07089147 0.09908242

gat_net.0.bias f4 [64]
00000000: 73e6 1fbc a5f6 c13c af37 48bc f0d2 1e3c
00000010: 6ed3 803c 1688 693d 666b 96bc 846f c23b
00000020: 8c01 00bd a2ef a5bb bdb1 123d feb8 48bc
00000030: 711c 873b bb65 513c 53d6 d83b 8422 8f3c
00000040: 6fab 783c 59e5 063d e094 03bc c66b 72bb
00000050: 9320 04bb 7238 cb3a bcd6 013d 3f7b 7e3c
00000060: 8c50 0abd 21ab 953c 4ed9 a3bc 1f29 643c
00000070: e83f cdbb 73a8 863c 97ae 463c d72b 2d3c
00000080: c714 6ebb e817 06bc bade 6bbb 89ce 5b3c
00000090: 220d 6e3c 417f deba 9fd0 083c 33d3 01bc
000000a0: 734d de3c e14f cabc 2c3d b8bb dc37 ee3b
000000b0: a69f 46bc 3f28 4d3d d7b3 f7bc e8f3 25bc
000000c0: 1062 e1bb a65a b0ba 05f9 f93c 4464 e2bc
000000d0: 6155 8abc 9dae 533d ff3c 263d de73 d03c
000000e0: e04a b8bb 12c6 a43c a049 073d 4e80 463c
000000f0: c033 9fb7 b641 3bbc ebf0 5fbb c98c fe3a
-0.009759533 0.02367718 -0.012220307 0.009693846 0.015725818 0.057014547 -0.018361758 0.005933704
-0.031251475 -0.005063967 0.035814036 -0.012251137 0.0041232635 0.012780602 0.0066173463 0.017472513
0.015177592 0.032933567 -0.0080311 -0.0036990508 -0.0020161017 0.0015504493 0.031698927 0.015532314
-0.03376822 0.018270077 -0.02000108 0.01392582 -0.0062637217 0.016437745 0.012126586 0.010569534
-0.0036328302 -0.008184411 -0.003599091 0.013415941 0.014529498 -0.001697518 0.00835052 -0.007923889
0.02713654 -0.024696292 -0.0056225266 0.0072698426 -0.012123024 0.05008721 -0.030237122 -0.010128953
-0.006878145 -0.001345475 0.03051425 -0.027635701 -0.016886415 0.051680196 0.040585514 0.025445875
-0.00562416 0.020113979 0.0330292 0.012115551 -1.8978375e-05 -0.011429241 -0.0034170698 0.0019420619

gat_net.0.linear_proj.weight f4 [64, 1433]
00000000: 9598 1c3d f93c c9bc 1a29 15bd c0e6 893d
00000010: 0c88 98bd 97f4 b7bc bf6a 793d f6b5 b2bc
00000020: c9d9 593c 8600 f93c b0b6 8c3c 8e02 d03c
00000030: 90b0 133c 11c2 fe3b 48f6 1e3b 600c 82bd
00000040: a377 823d e6cb cabb 77f1 863c 83b4 f73d
00000050: 6884 94ba 4844 1b3d 4139 28bd ab4b 503d
00000060: c979 e2ba 5885 1b3d d9ac 26bd b6b0 f9bb
00000070: d3c0 3dbd 4838 0b3c 9c25 6fbd 3a0c a53b
00000080: 2b5b e43a 2f3c 9dbb f4a7 64bc b62a 90bd
00000090: 7d3c 233d ae2e 593c 3388 c63b 5462 8dbb
000000a0: f0e9 afbd bda6 833d 6335 f23b d49f bcba
000000b0: 604a d63a f17f 4dbc e738 15bb 9127 afbd
000000c0: e37c 15bd 3e63 093c 67e5 7dbd f180 8f3b
000000d0: e4b4 8cbd 89b9 e73b 7325 a5bd df57 f0bc
000000e0: 1def 243d 1c21 c6bc ea87 023c 649b d43c
000000f0: bbb6 c0ba f6f8 b13d ad2d e0bb 4d43 4e3d
00000100: f51f 923c 4f43 61bc 7fd1 58bd ec46 7d3b
00000110: 2e85 dcbc a8a9 0d3d 2d5d 23bc 1ff3 b33c
00000120: 06bb fcbb 5360 b13c 3c21 65bd 9416 b83c
00000130: 7876 e0bd ecd1 4a3d 308c 94bd 40e4 173d
00000140: 9121 ef3c 1dae 9fbd 8005 33bc 0851 0abd
00000150: 73ff bfbc 8132 1d3d 0af7 fa3b d404 6b3a
00000160: de8b 7a3d 9e92 833d a258 19bc 076c 1cbd
00000170: c779 9ebc 9615 93bc 1658 94bb 0e55 073c
00000180: b2f5 90bc 2f21 5b3c 04c1 e5bc 581e 863d
00000190: 08ed 243b 981e cd3b d295 963b db99 393c
000001a0: c371 143d a640 253c ffc8 48bd f964 e4bc
000001b0: 2676 61bd 57a1 e0bc 9e3e b8bc 8cec e33c
000001c0: ab5a 25bc 73a4 6dbb a9f7 d5bb b5b4 cc3c
000001d0: c7e8 c2bc c9df c5ba 1de7 8cbd 7041 34bc
000001e0: f00f e3bc bbf0 91bd 8dec e2bc 77bf 16bd
000001f0: 7e24 ebbb 2293 323d 049c bf3c cc09 d8bb
00000200: 6931 2abd 343a 103d 3446 793d 6ec2 ad3d
00000210: 9be5 543d a2c4 e1bb 10e2 8a3b eb5f 953d
00000220: db27 4e3d eb51 ef3b f676 273c 5072 ec3a
00000230: d05f 043e 8349 2abd a9d0 8a3c ccdf 643c
00000240: 4762 543c c2e7 863a 6d40 4c3d 7369 2a3c
00000250: 99a5 84bb feb2 fd3b 3ebe 2fbd 394f 15bd
00000260: 18fe 543d 16b1 01bd ed23 feba bb9d aa3c
00000270: 5cd0 9e3c 8a8e 6dbc 473b d9bb 977d ae3c
00000280: c45c da3b a497 07bc 805a ed3b 191a 00bd
00000290: 6806 01bc 4ead 7c3c e706 083d 16ec e73b
000002a0: 7796 a43d df43 f1bb 607a e3bc 8a1f 9e3a
000002b0: 1689 0e3c 6da0 063c 716d a6bd 46d4 e5bc
000002c0: b3a2 aebc 2dc0 9e3c 81d3 123b 62d6 363c
000002d0: be8d a8bc e857 333d bfc1 d5bc 88b4 f1bc
000002e0: 7edf 693b 8366 1dbb 191a 87bc 3fd3 ab3c
000002f0: 3a6b f5bc cbf0 fcbc d5df 38bc bcac 033c
00000300: 1f0a 913a 6447 c4bb 8b43 7f3d 1c4f ba3c
00000310: 9355 80bc 7683 e8bc 6ff5 e93c dc6d b83a
00000320: b105 8cbd e13d 66bc 299b 4dbd eca0 ab3d
00000330: c274 3bbd 4dcf 053d b29e 06bc 1fc0 91bc
00000340: ccf0 263d 5f00 523c bc81 0a3a 86ee b03c
00000350: 0318 833d 47b0 7c3d ec64 8c3c 5de4 d4bb
00000360: 65af bc3b 517f 383c bd5e 323d daa9 903b
00000370: b583 a13a 71b7 fdbc 640d 0ebd a0e3 a3bc
00000380: 844d b1bd 8dfe aabc 6c08 a4bd 2191 9b3c
00000390: b905 fcbb 012b 023d 63ec d23c 8c1f 63bc
000003a0: 290e 34bd 390f 603d 7b8e 82bd 2dc7 d1bc
000003b0: 9dd5 08bd 045b 6c3d 15bb 88bc 9c0b 803c
000003c0: 56dc 5b3d 320b 683c 1d9e 253d 81d7 aabc
000003d0: e351 b0bc 55f2 d2bc 42a4 633c 03b0 3b3d
000003e0: cf3f 9bbb 58c5 a0bc 8d4c 643c 0683 413d
000003f0: a69b c8bc 29de 42bb 02be f23c fc21 203c
0.03823145 -0.024565207 -0.03641615 0.06733465 -0.07447824 -0.022455497 0.060892817 -0.021815281
0.013296553 0.030395757 0.017176956 0.025391843 0.009014264 0.0077745994 0.0024255682 -0.063500166
0.06370475 -0.0061888574 0.016472561 0.12094977 -0.0011330964 0.037906915 -0.041070227 0.050853413
-0.0017278726 0.037968963 -0.040692184 -0.0076199425 -0.04632647 0.008497305 -0.058385476 0.005036858
0.001742219 -0.004798434 -0.013956059 -0.070393965 0.039852608 0.013255758 0.0060587167 -0.0043147
-0.08589542 0.06428287 0.007391618 -0.0014390894 0.001634907 -0.012542711 -0.0022769512 -0.085524686
-0.036496054 0.008385478 -0.061986353 0.0043793847 -0.0687044 0.007071678 -0.080637835 -0.029338775
0.0402671 -0.02418571 0.007966975 0.025953002 -0.0014702895 0.08690064 -0.0068413825 0.05035715
0.017837504 -0.013748958 -0.052934166 0.003864701 -0.026918974 0.034585625 -0.009970945 0.021966515
-0.0077127246 0.021652376 -0.055939898 0.022471704 -0.10960096 0.049516603 -0.07253301 0.03708291
0.02919081 -0.07796881 -0.010926604 -0.033768684 -0.023437237 0.038378242 0.007658844 0.0008965258
0.061168544 0.064244494 -0.009359511 -0.03818896 -0.019345177 -0.017954629 -0.004527102 0.008260025
-0.017695282 0.013374611 -0.028046139 0.06548756 0.0025165696 0.0062597506 0.0045954967 0.011328186
0.036241304 0.010086214 -0.04901981 -0.027880179 -0.055044316 -0.027420683 -0.022490796 0.027822755
-0.010092418 -0.003626135 -0.0065297675 0.024988512 -0.023792638 -0.00150966 -0.06880019 -0.01100193
-0.02771756 -0.07125994 -0.027700687 -0.03680369 -0.007175981 0.043597348 0.023389824 -0.0065929648
-0.041551027 0.035211757 0.060857967 0.0848435 0.05197678 -0.0068898955 0.0042383745 0.072936855
0.050330978 0.0073034666 0.010221234 0.0018039439 0.12927175 -0.041574012 0.0169452 0.013969373
0.012962884 0.0010292458 0.04986613 0.010401118 -0.004048061 0.007742285 -0.04290604 -0.036452506
0.052000135 -0.031663023 -0.0019389369 0.020827165 0.019386463 -0.014499316 -0.006629381 0.02130012
0.0066638906 -0.0082759 0.0072434545 -0.03127489 -0.0078750625 0.015422178 0.033209708 0.007077704
0.080365114 -0.007362827 -0.027768314 0.0012063843 0.008699676 0.008216959 -0.08126343 -0.028055321
-0.021317815 0.019378746 0.0022403898 0.011159511 -0.0205754 0.043785006 -0.026093362 -0.02950503
0.003568619 -0.00240174 -0.016491937 0.020974753 -0.029958356 -0.030876538 -0.011283834 0.008036789
0.0011065638 -0.0059899557 0.062320273 0.0227428 -0.015665805 -0.028382998 0.028559415 0.0014070827
-0.06837023 -0.014052839 -0.0501968 0.08380303 -0.045765646 0.0326684 -0.008216547 -0.017791806
0.040756986 0.012817471 0.0005283614 0.021598112 0.06401064 0.06169155 0.017137967 -0.0064969496
0.0057582133 0.011260823 0.04354738 0.004414779 0.0012322577 -0.03097126 -0.03468074 -0.020006001
-0.08657363 -0.020873332 -0.08009419 0.018990101 -0.007691112 0.031779293 0.025747484 -0.013862502
-0.043958817 0.054702017 -0.06374832 -0.02560767 -0.033406842 0.057703987 -0.01669077 0.015630536
0.053676926 0.014162825 0.04043399 -0.020854713 -0.021523422 -0.025750319 0.013894143 0.045822155
-0.004737831 -0.01962535 0.013934267 0.047244094 -0.024488281 -0.0029734469 0.029631618 0.0097737275

gat_net.1.scoring_fn_target f4 [1, 1, 7]
00000000: 6472 7c3e df69 893d b6a9 87be c093 303e
00000010: 792e babd 080b 31bd d4a8 643e
0.24653012 0.067096464 -0.26496667 0.17243862 -0.09090895 -0.04322341 0.22330028

gat_net.1.scoring_fn_source f4 [1, 1, 7]
00000000: 56ef db3e afa9 0b3f 804a f6bd fc6f 05bb
00000010: 1bd1 4bbd a437 e23e 6fb3 2f3f
0.42956036 0.5455579 -0.120259285 -0.0020360937 -0.049759965 0.44183075 0.6863317

gat_net.1.bias f4 [7]
00000000: 1adc 043c 7042 03be f2ae a23d 410b 653d
00000010: ef84 883d 15ef 913d 7355 68bd
0.008109117 -0.12818313 0.079435244 0.055918936 0.0666598 0.071256794 -0.056722116

gat_net.1.linear_proj.weight f4 [7, 64]
00000000: eb02 d33d b652 80be 699c 01bd 5d47 0cbe
00000010: 280c 3fbc 7435 dcbd 1e28 783e cf46 ebbc
00000020: f547 9dbe 1edc 02bd 5ce0 1e3e b1bf 3d3e
00000030: b40f 513d 2888 46be 5780 9ebe 3e5b 543e
00000040: b6a9 aebd a561 4a3d be06 193e 4539 0c3e
00000050: ed42 9e3e c03f 533e e37a 0fbe 1ae4 56be
00000060: 7eba 803e 216a b33e 0d1e 82be 2565 82be
00000070: 6da1 88be 4c0b 89be d162 803e 278d 073e
00000080: b7c1 903e 8dd6 5ebe 4bf2 863e 460e 8d3e
00000090: 00c1 673e 0a81 ffbd 87c5 c6be fda1 03be
000000a0: d697 f9bd c2b5 7e3e 0614 a0be 633a 68bd
000000b0: 490e 95be 8061 6b3e 363f 353e fb4c 813e
000000c0: 3248 2d3e a5fc 9c3d b632 2a3e f1f9 d73d
000000d0: f778 a8be 3794 d13d 4694 b73e 9911 67be
000000e0: 7351 763e a392 393e e953 4d3e 8625 09be
000000f0: ea02 883e f042 a53e 8c2d 96be 0cf2 0dbe
00000100: 7110 b43e ca9c 9dbe 96da 57be 5b0a 333e
00000110: 25d4 46bd 7dbb 983e 0a95 973e 25ed b2be
00000120: b165 333e d4a1 b9be f6b0 4f3e c5a1 09be
00000130: 0fcf b43e 95cd 9c3d cf5e a13e 6911 8dbe
00000140: a185 fb3d eebf a33e 9bd1 2ebe 0519 90be
00000150: 65e5 833e f0b6 73bd e943 28be 99e3 d33d
00000160: 10e4 ab3d 05e2 2bbe 230a c4be 2982 c6be
00000170: cceb 8e3e 13c9 dd3d dd77 8cbe 9661 5dbe
00000180: eb92 b53e 49df 4c3d 3563 e3be f726 df3e
00000190: 4f60 e93e ff88 a4be b4b6 813e 3373 963e
000001a0: 8f88 6c3e 27be 91be 8352 8bbe 4c2f f2bd
000001b0: 9a55 a83e b9a7 063e 9829 973d b1a4 b1be
000001c0: 6ebc 5a3e 47fe 033e 34da 8c3e bd3a a3be
000001d0: 3052 d6be a300 5b3e add5 c8bd 8ae5 cabe
000001e0: cfce ecbd 7ed7 a83e bdc3 b7be 0ee7 ccbe
000001f0: 5970 513e a443 3cbe 82f5 303e 0b61 2e3e
00000200: 0967 c63e 3b79 9a3e ed5c 2bbe f8f5 313e
00000210: 74e4 95be 7cd0 883d 05ea c13e d2f5 063d
00000220: bd30 7e3e b45e cfbd a156 a63e 8ea3 833e
00000230: 0703 83be 1536 f5bd 286d 60be 9b4f b8bd
00000240: bca0 72be 57d9 6d3e f6d5 ab3e 947c 3ebd
00000250: 0379 c53e 1095 8b3e 2e50 2d3e 4158 013e
00000260: 2431 2d3d 03d0 d0be 4e00 fd3d 154c ce3e
00000270: 38b0 48be 760a 44be 4314 2f3e b1f1 023e
00000280: d4b8 d8bd f8d1 93be 9862 f53d 3c6c 6c3e
00000290: a008 b1bd 8016 86be d9bc a4bc 80bf 96be
000002a0: 392c b13e 4ff7 9cbe 836a 10be b49d cebd
000002b0: 7c74 773e 171e 6ebe 6af5 b3be 5b65 bdbe
000002c0: d5fd cbbd 1602 f2be f03f 6cbe 05c1 4dbe
000002d0: 3e7b 383e ef7a acbe 4566 3d3e 8059 49be
000002e0: a5a1 a53e a156 d3be da3b a63e d674 7dbd
000002f0: 9a47 aebd 86a8 bc3e c265 94be 8e5f 4c3e
00000300: 6345 5c3e 23d7 b53e eca2 133e 560f f83d
00000310: bd49 2f3e 76d0 cebe 28ed ea3d f5bc a1be
00000320: 1859 543e 6097 a93c 8c0f 65bd 1428 ee3d
00000330: 8d4d 5e3e 433a 2cbe 3dc8 78bd fdb6 4dbe
00000340: 30bc 2cbd 5113 093e 9060 ae3e 5b1a 82be
00000350: b163 5fbe 291e 013e f653 72be 9aa7 5d3e
00000360: 7a9a 3abe 650a 283e 348a 56be ae18 803e
00000370: 27dc 7fbe bfb9 51be 0b0c 633e 8c32 14be
00000380: 2e74 26be 25d6 973e b277 4ebe df9b 6ebe
00000390: 1d9a 71bd afd0 9ebe 32f1 913e a4fc d6be
000003a0: bd8c 8ebe a9f4 91be bbaa a5be 126a 553e
000003b0: 01e4 4abd 3880 cf3e 05eb b43e ee7e 4f3e
000003c0: 6a3e 21bc b2a0 4c3e 842c 313e aa6e 9dbc
000003d0: 6302 033e 61e9 cfbc d5e5 c63a 3259 bd3d
000003e0: 1927 72be 0488 f93d cbf4 24be c66c ec3d
000003f0: b5a4 763e b0ae 053e 496a 533e a00e db3c
0.10303291 -0.25063103 -0.031643305 -0.13699098 -0.011660613 -0.10752383 0.24234053 -0.028720288
-0.3071896 -0.0319482 0.15515274 0.18530156 0.051040366 -0.19387877 -0.3095729 0.20737931
-0.085284635 0.049409527 0.14943978 0.13693722 0.30910435 0.20629787 -0.14011721 -0.20985451
0.25142282 0.35041907 -0.25413552 -0.25467792 -0.26685658 -0.2676643 0.2507539 0.13237439
0.28272793 -0.21761532 0.2635673 0.27549952 0.22632217 -0.12475784 -0.38822576 -0.12854762
-0.121871635 0.24874023 -0.31265277 -0.056696307 -0.2911246 0.22986412 0.17699894 0.25254044
0.16922072 0.076653756 0.16620907 0.105457194 -0.3290479 0.10233348 0.3585531 -0.22565307
0.24054508 0.18122344 0.2005154 -0.1339322 0.26564723 0.32277632 -0.29331625 -0.13861865
0.35168794 -0.30783683 -0.21079478 0.17484419 -0.04854216 0.29830542 0.29605895 -0.34946552
0.17519261 -0.36256278 0.20282349 -0.13440616 0.35314223 0.07656399 0.31517646 -0.27552345
0.12281347 0.31982368 -0.17072146 -0.28144088 0.25760952 -0.059500635 -0.16432156 0.10346145
0.08393109 -0.16785438 -0.38288984 -0.3877118 0.27914274 0.108293675 -0.27435198 -0.21619257
0.35463652 0.05001763 -0.44411626 0.43584415 0.4558129 -0.3213577 0.25334704 0.29384765
0.23098968 -0.28465387 -0.2721139 -0.118254274 0.3287781 0.13149919 0.0738098 -0.34695962
0.21360943 0.12889968 0.27510226 -0.3188075 -0.4185958 0.21386962 -0.098063804 -0.3962825
-0.11562883 0.32976907 -0.35891524 -0.4002003 0.20453013 -0.18385178 0.17281154 0.17029206
0.38750485 0.30170617 -0.16734667 0.17378986 -0.29275858 0.0668039 0.37873855 0.032949276
0.2482328 -0.10125485 0.32487968 0.2571072 -0.25588247 -0.11973206 -0.2191664 -0.089995585
-0.23694128 0.2322744 0.33561677 -0.046505526 0.38568887 0.27262163 0.16925117 0.12631322
0.042283192 -0.407837 0.12353574 0.4029242 -0.19598472 -0.19144616 0.17097573 0.1278751
-0.10582128 -0.2887113 0.11981696 0.23088163 -0.08644223 -0.2618904 -0.02010958 -0.29442978
0.34604052 -0.3065743 -0.14103131 -0.10088673 0.24165529 -0.23253666 -0.35148174 -0.3699139
-0.09960524 -0.47267216 -0.23071265 -0.20093162 0.18015763 -0.3368754 0.18496044 -0.19663048
0.32349887 -0.4127703 0.32467538 -0.061879 -0.08509751 0.36847323 -0.28983885 0.19958326
0.21510844 0.355157 0.14417619 0.121123 0.17117973 -0.40393418 0.11471015 -0.31589475
0.20737112 0.020702064 -0.05592303 0.11628738 0.21709271 -0.168191 -0.060737837 -0.20089336
-0.042171657 0.13386275 0.34058046 -0.25410733 -0.21815373 0.12609161 -0.23664841 0.21645966
-0.1822299 0.16410215 -0.20951158 0.2501883 -0.24986325 -0.20481013 0.22172563 -0.14472407
-0.16255257 0.29655567 -0.20162848 -0.23301648 -0.058984865 -0.31018588 0.2850433 -0.41989625
-0.2784175 -0.28506973 -0.3235682 0.20841244 -0.049533848 0.4052751 0.35335556 0.20263264
-0.009841541 0.19983175 0.17302138 -0.019217808 0.12793879 -0.025379838 0.0015174696 0.09245528
-0.23647727 0.12184146 -0.16109006 0.115441844 0.24086268 0.13054919 0.20646013 0.026740372
