python/binarypath/binaries/gat_000015.pth (torch, 372431 bytes, 8 tensors)

gat_net.0.scoring_fn_target f4 [1, 8, 8]
000000 e2 ed e9 bd 27 85 dd 3b 6a 4b 6b 3d 29 40 45 bd
       -0.11422326 0.0067602578 0.057444967 -0.04815689
000010 1c 2c 77 bd 4e e5 4e bc dc 51 58 bd 43 2b 95 bd
       -0.0603448 -0.012627913 -0.052812442 -0.07283642
000020 11 d6 12 be 13 dc d1 bd e5 9d a8 bd 9b 6f 96 bd
       -0.14339472 -0.10247054 -0.08233241 -0.07345506
000030 2a e7 e7 3c d5 51 d3 bd 92 71 3b 3d 25 94 f8 bb
       0.02830847 -0.103183426 0.045762606 -0.0075860196
000040 e4 66 bb b9 c5 62 90 bb 62 79 1f be 79 a1 ef bb
       -0.0003574408 -0.0044063055 -0.15573648 -0.00731295
000050 12 d7 59 bc ff 44 c6 bc f4 75 e0 bc d6 3d fb bd
       -0.013295906 -0.024202822 -0.027399994 -0.12267654
000060 f2 45 c6 bd cd a8 58 bd 17 4c d8 bc 29 a0 06 bd
       -0.0968131 -0.052895356 -0.02640347 -0.032867584
000070 df 01 06 bc bc 68 03 bb 41 f1 e4 bc e7 d2 1f bd
       -0.008179157 -0.002005144 -0.02794707 -0.03901949
000080 71 4d 20 3b ee 8d 01 3d 37 1c 38 bc d6 6e 8b 3d
       0.0024460221 0.031629495 -0.011237196 0.0680825
000090 30 b0 ba bc ac 6b b0 3d 8f b0 6a 3d bd c9 9e bd
       -0.02278909 0.08614287 0.057297286 -0.07753322
0000a0 b3 28 ef bd f9 5e 0b bd 8c 95 a9 3b 58 b5 d6 bd
       -0.11677685 -0.03402612 0.005175298 -0.10483807
0000b0 e5 47 5e 3b b9 2f c9 bd 04 13 0c 3e aa 40 df 3c
       0.0033917364 -0.098235555 0.13679129 0.027252514
0000c0 57 79 ba bc bb 13 95 3d b1 4b a5 3d 67 ab e7 3d
       -0.022762937 0.07279154 0.080710776 0.11311989
0000d0 2f c5 ec 3d 1a 02 bc bd 78 45 28 3d 2a fe 28 bc
       0.11561047 -0.09180088 0.041081876 -0.010314504
0000e0 47 4c 2c bc 97 55 97 bd 7a 87 d9 bd 0d 9d 8c 3c
       -0.010516233 -0.07389372 -0.10621543 0.017164731
0000f0 ad cd 3c 3d f2 09 ea bd 18 bb 57 bd 50 bc b8 3c
       0.046094585 -0.11427678 -0.05266866 0.022550732

gat_net.0.scoring_fn_source f4 [1, 8, 8]
000000 f6 22 3a be 68 00 b6 3e 65 fa 02 3e 74 cf b4 3d
       -0.18177399 0.35547185 0.1279083 0.08828631
000010 43 9e a6 be e8 43 be 3c 80 09 32 3e e6 77 81 3d
       -0.3254262 0.02322574 0.17386436 0.06321697
000020 8b 06 67 be b8 e1 e4 3c 74 9d 96 be f8 42 60 be
       -0.2256109 0.027939662 -0.29417002 -0.21900547
000030 8b c1 7e be d0 39 74 be c1 2c b0 3c 1d f0 9b 3d
       -0.24878518 -0.23850179 0.021505715 0.07614157
000040 17 89 d7 bd fe 66 71 3c 98 93 96 be 9c 55 67 3e
       -0.10524195 0.014734028 -0.2940948 0.22591251
000050 d4 2a e9 bb 82 da cc bd 8a 84 ae bd e6 60 f8 bc
       -0.007115701 -0.100026146 -0.085213736 -0.030319642
000060 ae 59 57 be f9 a4 76 be 0a a6 d2 bb 4e 68 bf bd
       -0.21030304 -0.2408637 -0.006428485 -0.093460664
000070 0d b7 8c 3b 51 d4 5d 3e 87 17 d5 bd 1a f6 36 bd
       0.0042942823 0.21663024 -0.10404878 -0.044668294
000080 30 3a c9 3a 5a 49 01 3e 34 c3 8e 3b 90 31 36 3e
       0.0015352424 0.12625638 0.004356766 0.17792344
000090 47 43 04 3e c1 84 b5 3e 20 cd e0 bc d3 f8 c4 be
       0.1291629 0.35452846 -0.027441561 -0.38471088
0000a0 66 81 c8 be 2c cd a2 3e 86 fa 18 be d0 64 d7 be
       -0.39161223 0.3179716 -0.14939317 -0.420691
0000b0 70 44 33 bd 3a 78 cb bd 84 55 d4 3e 0d 4e 2c 3e
       -0.04376644 -0.09935041 0.41471493 0.16826649
0000c0 9b f5 d0 bd ea d7 f8 3d 8a 39 b1 bd 79 b4 e7 3d
       -0.102030955 0.12150557 -0.08653553 0.11313719
0000d0 fe c2 bd 3e 0b 77 35 be 34 0d ca bd 25 b6 b6 3e
       0.3706283 -0.17721193 -0.098657995 0.3568584
0000e0 43 eb be bd 2c 9b c4 be 5a c3 a0 be fc 72 c7 3d
       -0.09322216 -0.38399637 -0.3139904 0.097387284
0000f0 10 f4 10 bc c0 9a 8f be ef ce 0c 3e e9 de 8c 3d
       -0.008847252 -0.28047752 0.13750814 0.06878454

gat_net.0.bias f4 [64]
000000 7b da eb 3b 72 5f e0 bb ed 95 f1 3b e0 bf ad bc
       0.0071976758 -0.0068473155 0.007372609 -0.021209657
000010 01 bf 8d 3c 69 11 07 3c 2c 7c 11 3d e1 f7 c7 3c
       0.017302992 0.008243897 0.03551881 0.02441019
000020 2d c4 bb 39 96 d2 e8 bc eb 7f 72 bc 89 e5 ce bb
       0.00035813582 -0.028420728 -0.014801006 -0.006313984
000030 be 71 96 3b 27 c0 8f bc 76 4e 58 bb 08 d1 6b 3b
       0.004591196 -0.01754768 -0.003300575 0.0035982747
000040 4b 01 06 bc 40 ad 35 bc cf 82 eb bb da 86 f5 3b
       -0.008179019 -0.011088669 -0.0071872245 0.007492882
000050 73 eb 00 3d 88 cb a3 bc 03 5c d7 3c 98 a6 d0 bc
       0.031474542 -0.019994512 0.026288992 -0.025470063
000060 94 c2 5f 3c d2 65 a2 3c 47 1a ea 3c b4 ea 19 bc
       0.013657231 0.019823942 0.028576983 -0.0093943365
000070 51 7a a1 39 7e dd b0 3b d6 ae 87 39 1a 61 d2 bb
       0.00030799446 0.0053974977 0.0002587947 -0.006420267
000080 06 d5 3e 3c 11 88 f0 3c 71 2b f0 bb 62 ee c1 ba
       0.011647468 0.029361757 -0.0073293974 -0.0014795775
000090 6c a4 4e bb 3e 6e e3 ba 14 76 2c bb 4c 76 b5 3c
       -0.0031531109 -0.001735158 -0.0026315497 0.022151135
0000a0 bc 5f 12 3c ff 80 42 3c f6 eb 82 bc 0a 79 7c 3c
       0.008933958 0.011871575 -0.015981656 0.015409717
0000b0 ba 31 7c bc fe c6 20 3c b2 ad 10 3c d2 3e 20 bc
       -0.015392715 0.009813068 0.008830475 -0.0097806025
0000c0 74 25 10 3d 71 2d 94 bc c5 d9 0e bc da 67 54 3c
       0.035191968 -0.018088074 -0.0087189125 0.012964213
0000d0 48 35 8e bc 14 ca ff 3b 0b 54 0e 3c 6c 36 5a bb
       -0.01735939 0.007806072 0.00868703 -0.0033296598
0000e0 39 3d d5 bc 1c b8 a8 3c 9c aa 00 bc c0 27 65 3b
       -0.02603017 0.020595603 -0.007853176 0.003496632
0000f0 fc 0b fc 3c 14 a8 28 bd 91 0c 27 3d 70 34 b5 3c
       0.030767433 -0.041175917 0.04078347 0.02211973

gat_net.0.linear_proj.weight f4 [64, 1433]
000000 4a b8 88 3b ad a7 50 3c ee 29 02 3e 98 c3 bf 3d
       0.0041723596 0.0127352895 0.12711307 0.093634784
000010 31 11 46 be 35 84 00 3d 1b 13 87 bd 47 15 b0 3d
       -0.19342496 0.031376082 -0.06595441 0.08597808
000020 a4 71 75 bd ce c9 22 3c cd d8 bc bc 8b 24 3c bd
       -0.05992283 0.009935809 -0.023052597 -0.045933288
000030 f5 da 89 bd e7 f3 ce 3d 35 e5 42 3d f1 8c 44 3b
       -0.06731216 0.101051144 0.04758187 0.0029991234
000040 61 6e a5 bd 7c 6a 26 bd 3f ba ab bd 86 f8 ea 3d
       -0.08077694 -0.040628895 -0.08385133 0.11473183
000050 1a 9a 10 33 4e 27 d8 3d 8e ae 3b bc 55 bf 1c bd
       3.3667767e-08 0.10554372 -0.011455191 -0.038268406
000060 d3 aa 16 3c 9a 55 19 bc b1 df 6c 3c 65 8c c8 bd
       0.009196001 -0.009358788 0.014457629 -0.09792403
000070 85 be ae bb 22 cf 89 3d 91 84 be bd 8b 82 b7 3c
       -0.0053327703 0.067289606 -0.09302629 0.022401115
000080 cd 03 05 3d 4e a4 ca 3b 3c b1 0c 3d 67 fd e7 bd
       0.032474328 0.0061841374 0.03434871 -0.113276295
000090 43 b8 96 bd 24 34 11 3d a7 d0 fc 3d 44 8d 22 3c
       -0.07359364 0.035450116 0.12344485 0.009921376
0000a0 f3 c7 98 bd 63 b0 1a 3d 0b 2d 33 3d 93 9f c8 bc
       -0.07460012 0.03776587 0.04374413 -0.024490153
0000b0 64 10 e9 bc 52 9a 68 3c a5 d2 fa 3b 46 39 8a bd
       -0.028450198 0.014196949 0.0076545053 -0.06749205
0000c0 ec a4 fa 3c 4c 57 a7 3c 3d 96 b0 bc 2d d3 66 be
       0.030596219 0.020427369 -0.021556014 -0.22541495
0000d0 d1 16 84 3e a9 55 7c 3c d4 fa 84 be cb 75 84 bd
       0.25798658 0.015401282 -0.25972617 -0.0646778
0000e0 05 5c 06 3d f8 ee 46 bb e3 2f 6e 3d 30 18 53 3d
       0.0328026 -0.0030354839 0.058151137 0.05153674
0000f0 33 6f bb 33 a5 f8 68 be 7a 82 c0 bd fb 64 5e 3d
       8.728093e-08 -0.227511 -0.093998864 0.05429552
000100 28 7a 3d 3d ce 79 4e 3d 1b 54 01 bd bf 46 fe bc
       0.046259075 0.05040913 -0.03157435 -0.031039594
000110 b7 9e 9c bc 43 0e 12 3d 40 79 a6 bd 98 45 a6 3d
       -0.01911865 0.035658132 -0.08128595 0.08118743
000120 fe 3b 77 bc c2 97 3b 3d e8 f4 82 bd 09 c2 a5 3d
       -0.015089987 0.045799024 -0.063943684 0.0809365
000130 40 8c 9e bd 08 4b c6 bd 76 b6 19 be 44 fe 55 bb
       -0.07741594 -0.0968228 -0.1501101 -0.0032652775
000140 cd 2f d5 3d 45 1f 77 3c 3e 9a 83 bd cc 5c d7 bd
       0.10409508 0.015083139 -0.06425904 -0.105157465
000150 7a 6f 59 bc 55 a5 1d 3e e8 46 b0 3c 8a 81 19 bd
       -0.013271207 0.153951 0.021518186 -0.037477054
000160 92 71 48 bd 96 a6 0f 3c ea 81 23 3d a0 6d a6 bd
       -0.048936434 0.0087677445 0.039918818 -0.08126378
000170 0d 05 39 be 77 d7 1d be dd fc d6 3d 0e 47 ed bd
       -0.18068333 -0.15414225 0.104974486 -0.11585818
000180 2e 0b 44 3d ed 43 76 3b 5f a1 a4 3c 99 fb b2 bd
       0.047862224 0.0037577108 0.020096479 -0.08739395
000190 f8 fb 87 bd d0 ef 0e 3d 9b 47 b7 bd ba fa 94 3d
       -0.06639856 0.03489667 -0.089492045 0.07274385
0001a0 9e b6 19 3d a7 e6 b8 bc ed 61 cd 3c c0 0d 03 b9
       0.037527673 -0.022570921 0.025071109 -0.00012498256
0001b0 c4 88 a2 bc dc d1 09 3e 12 47 5d bd 4e 58 52 3c
       -0.019840606 0.13458961 -0.054022856 0.012838436
0001c0 54 3e 92 bd b2 e2 45 bb 2a c5 c6 bc 2a f8 de 3b
       -0.071407944 -0.0030194935 -0.024263937 0.006804486
0001d0 23 05 96 bd db 24 18 3c 34 55 e6 bd 6e e9 1b 3d
       -0.073251985 0.009286131 -0.1124672 0.038064413
0001e0 ea 35 dc ba 72 df 1d 3d bd cc a5 bc e5 ab ca bc
       -0.0016800736 0.038543172 -0.020239228 -0.024740169
0001f0 98 bf 80 3c 6d 2a 12 bd 2a 3f 43 bd 80 be 09 3d
       0.015716359 -0.03568499 -0.04766766 0.03362894
000200 a1 3d f0 3c 0f 58 2e 3c ab 91 85 3d 75 3a 3b 3d
       0.029326262 0.010641112 0.065219246 0.045710046
000210 24 29 bd 3d d8 6d bf 3d 31 32 b2 bc b8 ed f9 3d
       0.092363626 0.09347123 -0.021752449 0.122035444
000220 8c 24 3a 3e 26 4d 33 3c 65 65 90 bc 28 b0 06 bb
       0.18178004 0.010943687 -0.017626474 -0.0020551775
000230 ef ce aa be be ec 7f bc 41 09 8f bd ce de 92 3c
       -0.33361003 -0.015620409 -0.06984187 0.017928507
000240 a3 03 b7 3b 17 56 09 35 f1 a1 1d 3c ee 06 09 bd
       0.0055851503 5.1161754e-07 0.009621129 -0.033453874
000250 89 dd e6 3c 0e 68 fa 3c 1d 27 10 3c c2 5c 18 3d
       0.028181808 0.030567195 0.008798388 0.037197836
000260 68 35 52 3c d1 fc 22 3b 4e 04 25 bc f1 ff 94 3d
       0.012830116 0.0024869929 -0.010071827 0.072753794
000270 57 24 54 bd 43 d2 c3 bb 40 42 68 3d e6 74 da bc
       -0.05179247 -0.005975993 0.056703806 -0.02666707
000280 bb fd c0 3c 6a b7 06 3d 62 7e b1 3c 77 e6 87 bd
       0.023558488 0.03288976 0.02166671 -0.066357546
000290 7d de ef bc 48 4a 0b 3d f1 62 a7 3a d0 93 a5 bd
       -0.029280895 0.034006387 0.0012770576 -0.080848336
0002a0 49 65 00 3e c9 47 9c bc 71 cf a2 bd 22 41 dd b9
       0.12538637 -0.019077199 -0.079497226 -0.00042200933
0002b0 6b 30 14 bc 97 88 06 3e f5 e3 c1 3b d4 b9 77 3d
       -0.009044747 0.13138042 0.005917067 0.060479954
0002c0 81 a1 8d 3d 87 47 d3 bd a1 b9 86 3b 74 80 2e bd
       0.0691557 -0.10316377 0.004111484 -0.04260297
0002d0 ba 30 82 3b 70 15 72 bd e1 7b fd 3c 66 bf 84 bd
       0.003973094 -0.059102476 0.03094286 -0.06481819
0002e0 b1 ae 37 3c 92 12 20 3a c4 4e 76 3d 7d 13 37 3d
       0.011211083 0.0006106283 0.06013371 0.04469632
0002f0 22 71 f0 bd b7 89 ce bb a6 53 d1 bc 12 e3 17 be
       -0.11740328 -0.006303038 -0.025552582 -0.14832714
000300 6a ad 0a 3d 1a e6 52 3b ff d2 0d bd 3a 03 38 bc
       0.033856787 0.0032180608 -0.03462505 -0.011231238
000310 62 c5 ee 3d 90 66 49 3d ad 23 d9 3c 1f f7 af 3d
       0.116587415 0.049170077 0.02650627 0.085920565
000320 5d 9a c1 3c 00 99 dd ba 0a e0 07 bd 49 7c 81 3d
       0.023633176 -0.001690656 -0.033172645 0.06322534
000330 a5 c0 31 39 d0 4d 01 be d0 bc 2b bd b0 16 9d 3d
       0.00016951801 -0.1262734 -0.041928113 0.07670343
000340 91 8d 0b 3e ac 0e 09 bc 9c 0c f7 bb 11 84 30 3d
       0.13628222 -0.008365314 -0.007539345 0.0430947
000350 2c ee e6 3d 9f fd 06 be 5e eb 7a 3d be 46 5a 3b
       0.112758964 -0.13182686 0.06125962 0.0033306326
000360 34 9c a4 3b 7b 93 2c 3d bd eb ac bc 35 61 f9 bb
       0.0050235037 0.042132836 -0.021108503 -0.007610465
000370 c9 5c 28 3c 07 42 b0 3c 70 f0 96 3c 70 25 60 ba
       0.010276028 0.02151586 0.018425196 -0.00085505005
000380 8f 55 c6 bd 30 41 85 3d 67 2e 87 bc c7 16 ad bc
       -0.09684288 0.06506574 -0.016501619 -0.021129025
000390 14 99 2a 3d d4 6f 8a 3b 15 b0 5a bc 17 cf 2d 3d
       0.041649893 0.0042247567 -0.013347645 0.042433824
0003a0 5f e6 a0 bd 42 6f bd bb d3 b7 17 be 9c 09 57 3d
       -0.0785644 -0.005781085 -0.14816217 0.0524994
0003b0 6e 92 8d bd e6 84 50 3e 2a fa 17 bc 59 54 c5 bb
       -0.06912695 0.20363197 -0.009275952 -0.006022018
0003c0 7f fa 35 3c 2f 4b a1 bb 35 c7 2d bd 11 6c 57 3a
       0.011107086 -0.0049222927 -0.042426307 0.0008217702
0003d0 ef eb 88 bd 4c 79 0d 3d 44 30 24 bd fb 51 15 bd
       -0.06685626 0.034539506 -0.040085092 -0.036455136
0003e0 f5 84 75 bd 62 73 30 3d b9 9f 88 bc 92 e8 5e 3d
       -0.05994125 0.043078788 -0.016677724 0.054421015
0003f0 8a a2 32 3d 6f 29 6d 3d 89 80 a1 3c 79 e3 ad bc
       0.04361204 0.057900842 0.01971461 -0.021226631

gat_net.1.scoring_fn_target f4 [1, 1, 7]
000000 a2 3b 39 3d 1b 73 93 be 69 e5 4c be c9 1e 3c be
       0.045222886 -0.28798756 -0.20009388 -0.18371119
000010 06 12 25 bc f1 23 a5 3d 0b 68 d6 3d
       -0.010075098 0.08063496 0.10469063

gat_net.1.scoring_fn_source f4 [1, 1, 7]
000000 fc 81 cb 3e 21 3f 4c 3e 7d b4 5e 3e 8f 7a 3b 3e
       0.39747608 0.19945957 0.21748538 0.18308471
000010 75 4c b2 3e a3 d4 8d 3e 9e f0 d6 3e
       0.34823957 0.2770129 0.4198045

gat_net.1.bias f4 [7]
000000 ce c0 bf bc 33 ba e2 bc 34 d7 91 3d 4b 92 4d 3d
       -0.023407366 -0.027676677 0.07121125 0.050188344
000010 b7 ff a3 bd 42 fb d4 3c a6 c0 b5 bb
       -0.08007758 0.025998715 -0.005546647

gat_net.1.linear_proj.weight f4 [7, 64]
000000 a4 ba e1 3e ca 17 9c be dc 97 02 bf 42 8a 8a 3e
       0.44087708 -0.304869 -0.5101297 0.27058607
000010 90 9d 1e bf 35 b5 8b be 32 c9 3b be b5 f1 44 3e
       -0.6195917 -0.27286687 -0.18338469 0.19232829
000020 48 62 4c bd 30 ac d1 3e fa 03 62 3e f9 c8 44 3f
       -0.049898416 0.4095168 0.2207183 0.7686916
000030 ac c9 10 3f 08 87 15 3f b2 c7 dd be df 1b 09 bf
       0.56557727 0.58409166 -0.43316418 -0.5355815
000040 b6 32 d3 3e 36 c2 e7 3e 2b f6 42 3f 60 41 ed be
       0.41249627 0.4526536 0.7615687 -0.4633894
000050 8c e7 47 be 69 71 68 be 11 27 08 bf 48 fb 8a bd
       -0.19521922 -0.22699513 -0.5318461 -0.06786209
000060 91 bc bc be b0 ec c4 3e 26 4a 25 bf 73 39 28 3e
       -0.36862615 0.38461828 -0.64566267 0.16428165
000070 e7 02 90 3e f6 7a a6 be 7a ef 9e be 20 a5 17 bf
       0.28127214 -0.32515687 -0.3104208 -0.59236336
000080 a8 6e c3 3e 87 9e 80 3d 77 80 be bd 2a e8 c9 bd
       0.38170362 0.06280237 -0.093018465 -0.09858735
000090 f4 0e 24 bf dd 63 bb be 2d 96 20 bf 41 b1 6d 3e
       -0.64085317 -0.36599627 -0.6272915 0.23212148
0000a0 fb c1 70 3d b6 48 b6 be 08 c8 08 bf ee bf 22 3f
       0.058778744 -0.3560235 -0.53430223 0.6357411
0000b0 d4 c1 06 3f c6 1a aa 3e 7f 1e 2a be d8 37 ca 3e
       0.5263951 0.33223552 -0.16613196 0.3949573
0000c0 a6 f8 ec 3e 41 a8 6f be 5e b8 c0 3e 1c 10 0e bf
       0.46283454 -0.23404028 0.3764066 -0.5549333
0000d0 ea 09 a1 3e ee b7 e6 bc e0 60 0f 3f 87 e1 aa be
       0.31452876 -0.028163876 0.56007195 -0.3337519
0000e0 77 86 15 bf ed 49 05 bf 31 ac ff bd 4e 8d e5 be
       -0.584083 -0.52065927 -0.12484015 -0.4483437
0000f0 c0 ab db be 48 10 69 3e 15 1c 90 3e 50 21 93 3e
       -0.42904472 0.22760117 0.28146425 0.28736353
000100 fb e0 14 3f 06 4a 24 3f 6f 92 b2 3e a4 db e4 3e
       0.5815579 0.6417545 0.34877345 0.44698822
000110 f1 80 89 3e 01 0f 01 3f fd 9c ed 3e 1e e0 64 bf
       0.26856187 0.5041352 0.46408835 -0.89404476
000120 dd 42 c8 3e ba 45 6e be de 62 2f 3f b6 82 dc be
       0.39113513 -0.23268786 0.68510234 -0.43068475
000130 79 74 0a bf 3b 93 4e 3f b5 27 d2 3e bb a8 ed be
       -0.54083973 0.80693406 0.4104592 -0.46417794
000140 a3 c6 5b bf 1a f0 c2 3e 85 34 c5 3e 4d eb 0c 3f
       -0.8584997 0.38073808 0.38516632 0.5504654
000150 ec 5d 37 bf 85 b5 2f 3f 2b b6 08 be 8b 31 0f 3f
       -0.7162769 0.6863635 -0.13350742 0.5593497
000160 f8 da 49 3f 1e 71 0a bf 39 0b ed bd b4 d7 03 3f
       0.78849745 -0.54078853 -0.11574406 0.5150101
000170 48 52 a4 3e b5 16 30 be eb a7 4e 3f 98 ab bf 3e
       0.32094026 -0.17196162 0.8072497 0.37435603
000180 ee fe 33 3f 6a 1a d9 be a6 17 25 3f da 24 d5 3e
       0.70310867 -0.42402965 0.6448921 0.41629678
000190 3e cf e3 3d 98 70 4d 3f dd 01 f7 3e b9 1b 13 bf
       0.11123513 0.8024993 0.4824361 -0.57464176
0001a0 78 7a 02 bf 9b 8e c6 3e b7 04 4b bf dc fa 2d bf
       -0.5096812 0.38780674 -0.7930407 -0.67960906
0001b0 ea 43 a3 3e 6c a9 11 bf 85 f2 3f 3f 2e 8f a6 be
       0.31887752 -0.5689914 0.7497943 -0.32531112
0001c0 14 4c 1d bf 48 55 24 be 12 c2 68 3f 6a 05 fe be
       -0.6144421 -0.16048157 0.9092113 -0.49613506
0001d0 66 93 cb 3e 87 21 30 3e d0 23 21 bf 54 86 17 3f
       0.39760894 0.1720029 -0.6294527 0.59189343
0001e0 d5 d2 1b 3f 51 9f 30 3f 2b 94 4d 3f ff 07 61 be
       0.6086858 0.689931 0.8030421 -0.21975707
0001f0 4d 38 8b be 82 ea 2c 3f f0 d7 15 bf 49 4c 9e be
       -0.27191392 0.6754533 -0.5853262 -0.30917576
000200 c7 53 25 bf 93 74 45 3d 03 eb 10 3f 8e 3f e6 3e
       -0.6458096 0.048206877 0.566086 0.44970363
000210 02 7d 32 bf 94 4e 2f bf 33 fd f2 bd 3e d6 7c be
       -0.69721997 -0.68479276 -0.118647 -0.24691102
000220 e9 ff 4d bf 2d 85 14 bf ab c8 15 bf 3e 82 12 bf
       -0.8046861 -0.5801571 -0.5850932 -0.57229984
000230 56 24 22 bf 90 e4 b2 be 08 2a f9 3e 4c a3 3a 3f
       -0.63336694 -0.34940004 0.4866488 0.7290542
000240 61 18 28 bf 24 ef ab 3e ca 51 02 bf a6 a9 28 3f
       -0.656622 0.33580887 -0.5090605 0.6588386
000250 ca cc 1a bf 06 68 e4 3e 56 4f 2c bf 28 42 3a bf
       -0.60468733 0.44610614 -0.6730856 -0.72757196
000260 ab 54 ec be 08 74 c4 be 0c 49 d1 be f1 07 be be
       -0.46158347 -0.38369775 -0.40876043 -0.37115434
000270 1a e9 3a bf 9a 39 01 3f 4f 3f c1 bc 9e b3 0b 3f
       -0.73011935 0.5047852 -0.023589758 0.5457095
000280 24 85 01 bf d6 6b 34 3f 4e 56 09 bf 43 7f 91 bd
       -0.5059378 0.70477045 -0.53647316 -0.07104351
000290 69 d9 33 3f eb 19 34 3f 36 de fe be 71 0c fc be
       0.70253617 0.7035205 -0.49778908 -0.49228242
0002a0 88 bd 13 bf 79 5f c2 be ea c3 f2 3e 31 24 26 bf
       -0.57711077 -0.37963465 0.47415096 -0.64898974
0002b0 02 e2 db be da 20 75 be fa 6e 14 3f 58 3b 4b 3f
       -0.42945868 -0.23938313 0.57981837 0.79387426
0002c0 f4 0f a7 be 2a 70 27 3f f6 73 1b bf 3c 8b 24 3f
       -0.3262936 0.65405524 -0.6072382 0.64274955
0002d0 71 87 b6 3e 50 1b 5e bf 99 59 b7 be 9c 44 d6 3e
       0.3565021 -0.86760426 -0.35810545 0.4184922
0002e0 6a 2c d0 3e a2 e8 34 bf b3 14 7e be 8f 5d 4a 3f
       0.40658885 -0.7066747 -0.24812584 0.7904901
0002f0 d3 d3 de 3e 41 f4 ea be cc e5 1e 3e 75 c2 cd be
       0.43520984 -0.45889476 0.15517348 -0.4018742
000300 32 7b 15 3f b1 5b 91 be 8b b8 3d bd fe e6 1d bd
       0.58391106 -0.28390267 -0.046318572 -0.03855037
000310 a7 35 36 3f 1d 77 6f 3d e3 09 a1 3e 36 7f 34 bf
       0.71175617 0.058463205 0.31452855 -0.7050661
000320 d0 89 6c 3c ea 73 23 bf e5 23 77 3e 6a 04 ae 3c
       0.014437154 -0.63848746 0.24134786 0.02124234
000330 78 60 83 3e 1f c0 2d bf 8a 5a a1 3e ce 1f 32 bf
       0.25659537 -0.6787128 0.31514388 -0.6957978
000340 81 30 3f 3e b1 c8 43 3e 80 dd ee be 02 ec e7 3e
       0.18670847 0.19119526 -0.46653366 0.45297247
000350 7c 67 11 3e 95 ca 2b bf b8 2d b9 3e c6 78 8e 3e
       0.14199632 -0.6710599 0.36167693 0.27826518
000360 0c ff 8b 3e e6 3c 7b 3f d8 6e 62 3f 4b c8 05 bf
       0.27343023 0.981398 0.88450384 -0.5225875
000370 20 2b 0b bf 02 0d dc 3d 7b 4d 18 bf b3 66 10 be
       -0.5436268 0.107446685 -0.59493226 -0.14101677
000380 3b a8 bf be 86 5d 96 3e 30 f1 1f 3f a9 02 37 bf
       -0.37433037 0.29368228 0.624774 -0.71488434
000390 75 79 d9 3e 64 c6 cc be 22 4a 0a bf 58 9d 45 3f
       0.42475477 -0.3999511 -0.5401937 0.7719321
0003a0 9d a5 31 be aa d1 2c bf 12 05 bb 3e bd f1 26 bf
       -0.17348333 -0.6750742 0.36527306 -0.65212613
0003b0 53 2f b1 be c4 45 86 be df c0 f0 be 3d a5 13 3e
       -0.34606418 -0.26225102 -0.4702215 0.14418502
0003c0 11 6d db 3d 88 2b c6 be 9a 4b 71 be 29 5c 3d bf
       0.10714162 -0.38705087 -0.23563996 -0.7396875
0003d0 8a c8 d4 be e8 3e cc be 09 93 b6 be 88 9e 33 bf
       -0.4155925 -0.39891744 -0.35659054 -0.70163774
0003e0 db fb 09 3f 06 51 12 3f fd c6 bc be ff d3 1b bf
       0.53899926 0.5715488 -0.36870566 -0.60870355
0003f0 90 63 1f 3f 79 c9 99 be 16 d2 0c bf 58 20 16 be
       0.62261295 -0.30036524 -0.55008066 -0.14660776
