python/binarypath/binaries/gat_000010.pth (torch, 372431 bytes, 8 tensors)

gat_net.0.scoring_fn_target f4 [1, 8, 8]
-0.0039880117 0.024645237 -0.08159047 0.055479456 -0.0070630894 -0.007105785 0.050051827 -0.04819186
0.036104362 0.09917528 0.004611854 0.074501514 -0.050897136 0.026826095 -0.005866433 0.06279245
-0.07058991 -0.10473202 -0.11389182 -0.0427927 -0.0561015 0.02287147 -0.059971057 -0.01389617
-0.090491705 0.0054613254 0.093415394 0.014922856 0.020034714 -0.029209878 -0.07129074 -0.0059068436
0.06722982 0.021023557 0.020628028 0.004886341 -0.06775185 -0.021642921 0.09686432 0.00012077275
0.07474596 -0.054439813 0.0050500715 -0.00039075885 -0.06977116 0.14609915 0.058462135 -0.040411532
0.08027807 -0.030241476 -0.05074748 0.04614308 -0.14831473 -0.019441433 -0.043275636 0.07601899
-0.027383544 -0.0034158747 -0.123098545 -0.027587226 -0.012533631 0.07347551 -0.09824932 -0.027579194
00000000: dead 82bb cfe4 c93c e818 a7bd 6d3e 633d
00000010: 7d71 e7bb a5d7 e8bb 2503 4d3d d464 45bd
00000020: 2be2 133d 691c cb3d 091f 973b 4094 983d
00000030: 8479 50bd 66c2 db3c 353b c0bb 5499 803d
00000040: 7191 90bd be7d d6bd 1d40 e9bd 6647 2fbd
00000050: b0ca 65bd f35c bb3c 36a4 75bd c3ac 63bc
00000060: b753 b9bd ebf4 b23b 9250 bf3d ff7e 743c
00000070: d71f a43c 8e49 efbc e100 92bd 328e c1bb
00000080: caaf 893d 9839 ac3c 1cfc a83c 991d a03b
00000090: 7bc1 8abd 7f4c b1bc cd60 c63d 6047 fd38
000000a0: 6914 993d 48fc 5ebd 127b a53b c4de ccb9
000000b0: 2fe4 8ebd 049b 153e fe75 6f3d 9086 25bd
000000c0: d468 a43d f9bc f7bc 97dc 4fbd 8700 3d3d
000000d0: d1df 17be a443 9fbc cb41 31bd d8af 9b3d
000000e0: 7453 e0bc dedc 5fbb 171b fcbd 9bfe e1bc
000000f0: dc59 4dbc 547a 963d f136 c9bd c3ed e1bc

gat_net.0.scoring_fn_source f4 [1, 8, 8]
0.26708665 0.17205761 -0.16882336 0.2982066 0.23132373 -0.13089414 0.31493035 -0.4014492
0.3401636 0.37523714 -0.10928789 0.5494588 -0.27756462 0.10307218 0.013770561 0.06176817
0.07360657 -0.30891958 -0.0077378 0.006001152 -0.1539428 0.17675212 -0.37591654 0.14216076
-0.19319968 0.12302572 0.008512894 -0.08047158 0.01619892 -0.15763019 -0.20608287 -0.018778123
0.46766207 -0.11317263 -0.016227875 -0.138668 -0.09906938 0.19205673 0.20359425 0.20762362
0.45974916 -0.21671101 0.13635309 0.092794366 0.17267409 0.12548573 0.3223302 -0.18304838
0.28566673 -0.1273885 -0.0033530253 0.23213363 -0.3124603 0.15299089 0.03571401 0.2562204
-0.1887975 0.29176795 -0.15228076 0.05320216 0.2962769 0.19087407 -0.2604532 -0.019651622
00000000: 95bf 883e df2f 303e 08e0 2cbe 89ae 983e
00000010: 21e0 6c3e 1d09 06be 8d3e a13e c08a cdbe
00000020: ec29 ae3e 151f c03e 54d2 dfbd 55a9 0c3f
00000030: f31c 8ebe 8217 d33d eb9d 613c 9f00 7d3d
00000040: 0bbf 963d b52a 9ebe 5f8d fdbb 50a5 c43b
00000050: 2ea3 1dbe 82fe 343e 2278 c0be 9792 113e
00000060: 23d6 45be e9f4 fb3d aa79 0b3c 49ce a4bd
00000070: 99b3 843c cf69 21be 6307 53be 94d4 99bc
00000080: 6771 ef3e 0dc7 e7bd 52f0 84bc fcfe 0dbe
00000090: e3e4 cabd 85aa 443e 037b 503e 499b 543e
000000a0: 3e64 eb3e 7ee9 5dbe 25a0 0b3e f90a be3d
000000b0: 7ad1 303e 557f 003e 7708 a53e 0971 3bbe
000000c0: e942 923e 2272 02be 6ebe 5bbb 70b4 6d3e
000000d0: ccfa 9fbe a5a9 1c3e db48 123d 522f 833e
000000e0: 2254 41be 9c62 953e 7def 1bbe 82ea 593d
000000f0: 9bb1 973e 7e74 433e 1f5a 85be 70fc a0bc

gat_net.0.bias f4 [64]
0.041948587 0.03940261 0.023161335 0.0123839695 0.0592633 0.029497862 -0.01635645 -0.0022229904
0.057225052 0.0038393969 0.017799273 0.046809506 -0.005889708 0.028472843 0.012958864 0.020130029
0.049665798 -0.021536801 0.021220665 0.03789598 -0.0033395053 0.014239352 -0.021149334 -0.011619823
0.008185225 0.012782233 -0.0103812665 -0.025098395 -0.009257511 0.018432042 -0.020635486 0.026961355
0.04188364 0.02321707 0.028422859 0.020932289 0.04546844 0.069529995 -0.0076206042 0.00044581387
0.029392246 0.014883411 0.023531819 -0.006605844 0.058125716 0.0033298028 0.0038671177 0.024522576
0.030322598 0.024840044 0.018842293 0.011739108 0.045010522 0.02451831 0.017007096 0.0012825704
0.014223478 0.027239464 0.018139299 0.025605598 0.026682515 0.0130304955 0.027146427 0.032526117
00000000: 48d2 2b3d a264 213d d7bc bd3c 22e6 4a3c
00000010: 13be 723d 80a5 f13c f6fd 85bc 97af 11bb
00000020: d164 6a3d 649e 7b3b c8cf 913c 53bb 3f3d
00000030: 74fe c0bb e13f e93c 6a51 543c bbe7 a43c
00000040: 5d6e 4b3d f26d b0bc f6d6 ad3c d138 1b3d
00000050: 9adb 5abb 2c4c 693c 5e41 adbc 1261 3ebc
00000060: 521b 063c 926c 513c 3016 2abc 269b cdbc
00000070: d1ac 17bc cbfe 963c c00b a9bc 0fde dc3c
00000080: 2e8e 2b3d ba31 be3c 0ed7 e83c 317a ab3c
00000090: 1d3d 3a3d be65 8e3d 43b6 f9bb 20bc e939
000000a0: 02c8 f03c 8dd9 733c cdc5 c03c d675 d8bb
000000b0: 3b15 6e3d d238 5a3b 786f 7d3b 92e3 c83c
000000c0: 1967 f83c 597d cb3c 275b 9a3c 6355 403c
000000d0: f45c 383d 9fda c83c 7752 8b3c ec1b a83a
000000e0: 9709 693c 4c25 df3c de98 943c d5c2 d13c
000000f0: 4a95 da3c dc7d 553c 2f62 de3c 1b3a 053d

gat_net.0.linear_proj.weight f4 [64, 1433]
-0.086615846 -0.02690138 0.013687937 0.004856896 -0.15040171 -0.011545726 0.094757415 0.12810667
-0.053516265 0.07893359 -0.02301052 -0.0043921066 -0.045421124 0.06192003 -0.067079276 -0.11823649
0.017068869 0.05249089 -0.0090581225 0.26003873 4.298252e-30 -0.0459745 0.02625167 0.07970457
-0.0049058422 -0.13127393 -0.1541329 -0.012444466 -0.039510913 -0.092496604 -0.11132585 -0.0021079087
-0.05093462 -0.0047886125 0.04721239 -0.03538851 -0.055451743 0.09127847 -0.022275513 0.007087005
-0.17815757 -0.08934004 0.08973361 -0.0014186847 -0.10741366 -0.006360348 0.015975088 -0.13757545
-0.0849762 -0.01915848 0.024253232 -0.080382034 -0.074396625 -0.001466736 0.031435844 0.05938153
-0.18866481 0.12395397 0.06426259 -0.026248263 2.4979895e-29 0.08606246 0.034323875 -0.075616516
-0.16619752 -0.048567325 -0.029495072 0.12329469 -0.053181704 -0.013593159 0.013449707 -0.049257442
0.011812921 0.012452257 0.023954764 0.038715944 0.06973857 -0.0023771669 -0.121075965 -0.042636223
-0.077493936 0.015780026 -0.053401507 -0.013147505 -0.041015323 0.18056013 0.07243824 -0.075440384
0.087952964 -0.09035403 0.0068492843 -0.013794605 -0.1499606 0.055197984 -0.03523833 0.00059886
-0.01840187 0.14230092 -0.14754222 0.1133092 0.007302049 0.06597924 -0.0011403891 0.021081602
0.026528003 0.034827787 -0.02979261 0.046215475 0.063010514 0.0369711 0.019356677 0.031035999
0.004812228 -0.0025575652 0.06280307 0.035105444 0.0043547237 -0.005919712 0.14788273 -0.07248772
0.16634876 -0.04634446 -0.20390779 0.056463636 0.060047362 0.09031367 0.064280175 -0.03652038
0.043945227 -0.094912305 0.07354348 -0.039613724 0.012083748 -0.11323054 0.08736636 0.04842077
0.08895309 -0.045861807 -0.016879603 0.05169411 0.518192 -0.0013678889 -0.0032105576 0.052695107
0.010809975 -1.4530743e-28 -0.0024358649 0.08477951 0.039654724 0.13268524 -0.09618287 -0.10647721
0.028112954 -0.12022776 -0.07514461 0.029197752 0.012629886 0.04448273 -0.017221237 -0.03242093
0.069519006 -0.09658617 -0.030597417 0.03309746 0.042565268 0.00052749855 0.049196884 0.05512054
0.20670968 -0.016507668 -0.042838514 3.4215274e-05 -0.035186708 0.124013774 -0.068913594 -0.03827129
-0.094331846 0.043312337 0.010161645 0.08813743 0.0031421457 0.020501403 -0.059500743 -0.00011916162
0.017020369 0.00028700623 0.054346766 0.20978644 0.02020349 -0.029491877 -0.0061908457 0.11138117
0.09447787 -0.09344844 0.04977928 -0.017454881 0.14651388 -0.03576453 0.00014877862 0.041181203
-0.049059696 -0.0036962768 -0.041848253 0.0039283363 0.0054648696 -0.22350492 -0.003485419 0.043886255
0.13962653 0.013658846 0.010252485 -0.14816608 0.16349362 0.035132766 -0.03839467 -0.07383383
0.03827092 0.12391196 0.0767137 -0.005408368 -0.06268819 -0.07689868 -0.039461073 0.03206581
-0.0744242 0.092497855 0.050566047 0.046433 -0.07225538 0.013634252 0.090677276 0.03511835
-0.06759151 -0.13552578 -0.075560324 -0.0012154526 -0.036936197 -0.106649846 -0.03412559 -0.00069592166
0.07721258 -0.00013337645 0.027308179 -0.10296394 -0.12815744 -0.056819055 0.001553096 0.025448672
0.024594883 0.037055112 0.05530972 0.013864663 -0.029253347 -0.07206896 0.11225397 -0.027012425
00000000: a663 b1bd 4860 dcbc 5e43 603c 9926 9f3b
00000010: e802 1abe 492a 3dbc 2d10 c23d 652e 033e
00000020: df33 5bbd efa7 a13d 8f80 bcbc a9eb 8fbb
00000030: 800b 3abd db9f 7d3d dc60 89bd f925 f2bd
00000040: 03d4 8b3c b000 573d 8568 14bc cc23 853e
00000050: 9a5b ae0e c24f 3cbd be0d d73c 263c a33d
00000060: 30c1 a0bb ac6c 06be 04d5 1dbe e0e3 4bbc
00000070: 32d6 21bd dc6e bdbd cffe e3bd d724 0abb
00000080: d2a0 50bd cbe9 9cbb c761 413d 8bf3 10bd
00000090: 5e21 63bd 35f0 ba3d 237b b6bc 1b3a e83b
000000a0: f06e 36be e9f7 b6bd 41c6 b73d 29f3 b9ba
000000b0: b1fb dbbd 776a d0bb 30de 823c 94e0 0cbe
000000c0: 0008 aebd 3ff2 9cbc b7ae c63c 569f a4bd
000000d0: 425d 98bd 7e3f c0ba dfc2 003d 0c3a 733d
000000e0: 5931 41be 94db fd3d 1b9c 833d 9906 d7bc
000000f0: 8453 fd0f 8441 b03d 3197 0c3d d5dc 9abd
00000100: af2f 2abe 88ee 46bd a69f f1bc ed81 fc3d
00000110: 0fd5 59bd d7b5 5ebc 295c 5c3c 2cc2 49bd
00000120: fb8a 413c 8d04 4c3c c83c c43c 9c94 1e3d
00000130: 18d3 8e3d 3eca 1bbb adf6 f7bd 52a3 2ebd
00000140: 24b5 9ebd 1d45 813c 8abb 5abd a268 57bc
00000150: afff 27bd c1e4 383e 805a 943d 7d80 9abd
00000160: af20 b43d 890b b9bd f66f e03b c402 62bc
00000170: 468f 19be 4817 623d 1156 10bd d0fc 1c3a
00000180: 85bf 96bc 55b7 113e 4f15 17be a70e e83d
00000190: 0746 ef3b 2020 873d 1c79 95ba 53b3 ac3c
000001a0: 4151 d93c 95a7 0e3d a20f f4bc 704c 3d3d
000001b0: a80b 813d 026f 173d e591 9e3c 353f fe3c
000001c0: e5af 9d3b d39c 27bb e59e 803d baca 0f3d
000001d0: 12b2 8e3b 25fa c1bb 926e 173e 7174 94bd
000001e0: 5457 2a3e b0d3 3dbd 34cd 50be 6a46 673d
000001f0: 39f4 753d 60f6 b83d 53a5 833d 6596 15bd
00000200: e9ff 333d 6261 c2bd f79d 963d 0042 22bd
00000210: eafa 453c 6ae5 e7bd 22ed b23d db54 463d
00000220: 0a2d b63d 97d9 3bbd 1847 8abc 34bd 533d
00000230: 3ba8 043f bc4a b3ba 3868 52bb d3d6 573d
00000240: 521c 313c f532 3891 08a3 1fbb e1a0 ad3d
00000250: fe6c 223d a4de 073e 86fb c4bd b910 dabd
00000260: 234d e63c f939 f6bd 6be5 99bd 2030 ef3c
00000270: 95ed 4e3c 8633 363d 8d13 8dbc cfcb 04bd
00000280: fb5f 8e3d f8ce c5bd 6fa7 fabc 3491 073d
00000290: eb58 2e3d d447 0a3a ac82 493d 13c6 613d
000002a0: b4ab 533e 173b 87bc 7077 2fbd 5f82 0f38
000002b0: f01f 10bd effa fd3d 9222 8dbd 5bc2 1cbd
000002c0: 0e31 c1bd 4768 313d 077d 263c 6681 b43d
000002d0: 75ec 4d3b 8ff2 a73c 0db7 73bd 68e6 f9b8
000002e0: 4d6e 8b3c 5379 9639 b79a 5e3d 42d2 563e
000002f0: ca81 a53c f398 f1bc 94dc cabb d01b e43d
00000300: 9d7d c13d e561 bfbd 5ce5 4b3d 8afd 8ebc
00000310: bc07 163e d47d 12bd 7501 1c39 9fad 283d
00000320: d2f2 48bd 3c3d 72bb 1369 2bbd 46b9 803b
00000330: a612 b33b 79de 64be a16b 64bb 13c2 333d
00000340: 42fa 0e3e 5ac9 5f3c 0afa 273c d9b8 17be
00000350: df6a 273e 60e7 0f3d bb43 1dbd 3136 97bd
00000360: f8c1 1c3d 8ec5 fd3d 131c 9d3d ae38 b1bb
00000370: aa62 80bd 0e7d 9dbd efa1 21bd 7057 033d
00000380: b76b 98bd 846f bd3d 581e 4f3d 8830 3e3d
00000390: a1fa 93bd 3362 5f3c 02b5 b93d 42d8 0f3d
000003a0: 6b6d 8abd 45c7 0abe 5fbf 9abd d24f 9fba
000003b0: 694a 17bd 3c6b dabd 46c7 0bbd 836e 36ba
000003c0: a121 9e3d f8da 0bb9 67b5 df3c c2de d2bd
000003d0: b43b 03be 19bb 68bd 4191 cb3a bc79 d03c
000003e0: 357b c93c 1ac7 173d 728c 623d 9d28 633c
000003f0: b7a4 efbc e498 93bd 69e5 e53d 2949 ddbc

gat_net.1.scoring_fn_target f4 [1, 1, 7]
0.036415398 -0.06766506 -0.04216733 -0.020556768 0.043637082 -0.03036306 0.051463116
00000000: 5028 153d fb93 8abd a6b7 2cbd ab66 a8bc
00000010: ccbc 323d f4bb f8bc fdca 523d

gat_net.1.scoring_fn_source f4 [1, 1, 7]
0.08107068 0.06105409 0.021270856 0.027748507 0.103995375 0.043977372 0.0690631
00000000: 6208 a63d da13 7a3d 3840 ae3c d650 e33c
00000010: 87fb d43d 9e21 343d f470 8d3d

gat_net.1.bias f4 [7]
-0.016634852 -0.07253379 -0.011279412 0.025687354 -0.08255896 0.048536923 0.0393211
00000000: d045 88bc 988c 94bd 48cd 38bc 496e d23c
00000010: ac14 a9bd a7ce 463d 290f 213d

gat_net.1.linear_proj.weight f4 [7, 64]
-1.1412804 0.3473662 0.30873773 -0.18504843 -0.36357757 -0.60751647 -0.56969726 -0.72151166
-0.8456957 0.118710354 -0.62509453 0.36039805 0.5546157 -1.061098 -0.6215755 -0.96676797
0.08656617 1.0347046 0.61038023 0.40977374 0.3737083 0.12202156 0.9377135 -0.78725904
0.91003525 0.12846057 -1.0542605 0.5894492 -0.71380395 -0.9405694 1.0152917 -0.82676256
-0.8809262 -0.51679754 -0.5084042 -0.5023459 0.40806007 -0.0878519 -0.520417 -0.7001725
-1.1668931 0.41881123 -0.6949905 -0.4659118 0.107789144 0.45324698 -1.0714897 0.341772
0.5401663 -0.8354251 -1.2805548 -0.6213515 -0.7683831 -0.2611385 0.85757935 0.7097898
-0.0055608223 0.19216788 0.60641605 -0.9436468 0.25379857 -0.77339697 0.25133848 0.16862357
0.3941871 -1.2099698 0.5936531 0.29042235 -1.0230792 -0.84760886 0.53329587 0.6781958
0.5267656 0.6932675 -0.66163117 0.4591054 -1.1229435 -0.8919101 0.69660974 0.939472
0.0074095163 0.8070194 -0.8554269 -0.44157973 -1.0565878 0.85827255 -0.6836127 0.2793373
-0.3116006 0.74841166 -0.8240549 -0.56949794 -0.24161965 -1.3844501 -0.769766 0.77967525
0.7695799 -0.8419378 -1.0972452 -1.3690069 -0.9795082 -0.109316394 0.6965725 0.4854275
-1.3306065 0.16814047 -0.5178588 0.5608505 -1.5175278 -0.87798357 -0.575276 0.6763365
0.5052334 -0.72981966 0.98407173 0.6188147 -0.95387405 -0.8518814 -1.0532266 -0.80789936
-0.9214529 0.5419594 -1.3429307 0.7599223 0.7263757 -0.55910534 -1.078334 -0.987964
0.56810945 -1.3645841 -0.92422825 -1.172181 0.48549917 -0.88042206 -0.38382366 -1.0638026
-0.6397916 0.6391046 -0.93948996 -0.32353598 0.36310497 0.6842901 -1.0295589 0.4262639
-1.458459 -1.0475209 -0.8493558 0.15560636 0.53184116 -0.657879 -0.8862554 0.69786894
-0.52444965 0.7046585 0.45925105 0.77086675 1.0499326 -0.97561425 0.40562847 -0.88149035
0.5060918 0.25109056 0.46752685 0.01808031 -0.9909661 0.18951157 1.257359 -0.8499413
0.3674517 -1.2031951 0.8568353 -1.1671557 -1.0110083 0.8470429 0.52097696 -1.3529233
-1.2944142 0.5406207 0.39193574 -1.2063934 0.17979413 0.9046497 -0.61425805 0.40835446
-1.1383578 0.3324537 0.38960385 -0.6952803 0.39681554 1.1645688 -0.95120764 0.7797068
0.26389137 -0.7216851 0.5133071 -1.8404871 -0.08415472 0.76745135 -1.3856612 0.6147602
0.40110406 -0.6930149 0.46527803 -1.214757 0.7626938 -0.93874544 0.38886598 0.56228125
-0.18700446 0.786609 -0.79021937 -0.9020866 -0.7683093 -0.21099468 0.72978103 -1.227551
-0.47751856 -1.2093737 0.18184243 0.054331142 0.84249747 0.40851378 -0.4904119 -0.3295458
-0.94473684 0.6570064 0.5023485 0.34175998 0.4635601 -0.5228742 -0.9527556 -0.8964404
-0.8401526 -0.013137805 0.28604856 -0.4639336 0.02916391 0.9423059 0.8112051 0.3669293
-1.131917 -0.8765996 -0.48896542 0.9530426 0.3110291 -0.51521784 -0.8340264 -1.1320568
-0.34362954 -1.4974529 -0.9295072 0.55835354 -0.28902134 -0.6811788 0.67197305 0.8539706
00000000: 7a15 92bf fcd9 b13e df12 9e3e 567d 3dbe
00000010: d726 babe 3386 1bbf aed7 11bf fdb4 38bf
00000020: 837f 58bf 6a1e f33d 3206 20bf 1886 b83e
00000030: 4bfb 0d3f 0fd2 87bf 921f 1fbf 1b7e 77bf
00000040: 9b49 b13d 3371 843f e141 1c3f ddcd d13e
00000050: b256 bf3e 71e6 f93d fe0d 703f cf89 49bf
00000060: 12f8 683f 2b8b 033e 02f2 86bf 25e6 163f
00000070: dbbb 36bf 28c9 70bf 14f5 813f b6a6 53bf
00000080: 6184 61bf d84c 04bf c726 02bf be99 00bf
00000090: 40ed d03e b2eb b3bd 0c3a 05bf 813e 33bf
000000a0: c15c 95bf 6d6e d63e e6ea 31bf fe8b eebe
000000b0: 8ec0 dc3d fd0f e83e 9326 89bf bdfc ae3e
000000c0: 5748 0a3f 6bde 55bf 38e9 a3bf e410 1fbf
000000d0: c1b4 44bf f2b3 85be 528a 5b3f c9b4 353f
000000e0: 8f37 b6bb a8c7 443e 153e 1b3f d692 71bf
000000f0: e3f1 813e 58fd 45bf 70af 803e a8ab 2c3e
00000100: e4d2 c93e 4ae0 9abf a6f9 173f 3db2 943e
00000110: 42f4 82bf e5fc 58bf 1486 083f 3d9e 2d3f
00000120: 1cda 063f fb79 313f a960 29bf dd0f eb3e
00000130: 9dbc 8fbf 3854 64bf 0455 323f 3d81 703f
00000140: 87cb f23b d398 4e3f 42fd 5abf bd16 e2be
00000150: 453e 87bf c0b7 5b3f 3e01 2fbf 4c05 8f3e
00000160: 1d8a 9fbe e897 3f3f 43f5 52bf 9eca 11bf
00000170: 246b 77be a935 b1bf 620f 45bf cc98 473f
00000180: 3003 453f 3c89 57bf 8872 8cbf 9e3b afbf
00000190: 0dc1 7abf 46e1 dfbd 9352 323f f489 f83e
000001a0: 5051 aabf 042d 2c3e 6592 04bf e693 0f3f
000001b0: 5a3e c2bf 88c3 60bf 4a45 13bf 6424 2d3f
000001c0: fa56 013f 76d5 3abf 20ec 7b3f a46a 1e3f
000001d0: 1731 74bf e614 5abf 21d0 86bf 7ed2 4ebf
000001e0: 56e4 6bbf dabd 0a3f 27e5 abbf 458a 423f
000001f0: c2f3 393f 8721 0fbf d906 8abf 35eb 7cbf
00000200: 9f6f 113f b1aa aebf 399a 6cbf 070a 96bf
00000210: 5993 f83e 5763 61bf 8984 c4be af2a 88bf
00000220: 62c9 23bf 5c9c 233f 6a82 70bf 82a6 a5be
00000230: e5e8 b93e a32d 2f3f 96c8 83bf 433f da3e
00000240: c9ae babf 2a15 86bf 626f 59bf 4657 1f3e
00000250: be26 083f c26a 28bf a2e1 62bf 8aa7 323f
00000260: 5542 06bf 8064 343f f422 eb3e 8657 453f
00000270: 3164 863f dbc1 79bf 89ae cf3e 5aa9 61bf
00000280: 3b8f 013f f18e 803e ae5f ef3e 291d 943c
00000290: f4af 7dbf 520f 423e 24f1 a03f c195 59bf
000002a0: a122 bc3e 4c02 9abf 8f59 5b3f 5c65 95bf
000002b0: b868 81bf ced7 583f bf5e 053f 972c adbf
000002c0: 5daf a5bf 1e66 0a3f cdab c83e 196b 9abf
000002d0: f41b 383e 1f97 673f 0440 1dbf d613 d13e
000002e0: b5b5 91bf 5f37 aa3e 287a c73e e4fd 31bf
000002f0: 682b cb3e 9710 953f 5882 73bf dd9a 473f
00000300: c51c 873e 5bc0 38bf 1868 033f 1595 ebbf
00000310: 4f59 acbd b177 443f 595d b1bf ed60 1d3f
00000320: 835d cd3e 6d69 31bf ec38 ee3e 287d 9bbf
00000330: e73f 433f 9f51 70bf 7119 c73e aaf1 0f3f
00000340: 197e 3fbe 355f 493f d14b 4abf 26ef 66bf
00000350: ebaf 44bf fd0e 58be eed2 3a3f 6420 9dbf
00000360: 507d f4be c2cc 9abf e734 3a3e 558a 5e3d
00000370: eaad 573f b828 d13e 4517 fbbe 3aba a8be
00000380: 46da 71bf 9231 283f e999 003f 2afb ae3e
00000390: c057 ed3e 15db 05bf cae7 73bf 1e7d 65bf
000003a0: 3e14 57bf f33f 57bc f574 923e b488 edbe
000003b0: 27e9 ee3c f63a 713f 23ab 4f3f 28de bb3e
000003c0: a8e2 90bf d568 60bf ad59 fabe 9afa 733f
000003d0: 353f 9f3e 51e5 03bf c182 55bf 3de7 90bf
000003e0: 36f0 afbe 89ac bfbf 2ff4 6dbf 42f0 0e3f
000003f0: 9bfa 93be bc61 2ebf 6d06 2c3f d19d 5a3f
