python/binarypath/binaries/gat_000017.pth (torch, 372431 bytes, 8 tensors)

gat_net.0.scoring_fn_target f4 [1, 8, 8]
000000 97 1f a4 bc 90 4c 05 3c f6 07 22 3d 82 c8 70 bd
       -0.020034594 0.00813593 0.039558373 -0.05878497
000010 4c 02 80 3d c3 64 94 3c d2 db d9 3b ab 0c 68 bd
       0.06250438 0.018114453 0.006648519 -0.056652706
000020 66 da 0a 3d d6 ad e9 bc 10 e9 11 3d 46 e1 23 3e
       0.033899687 -0.028525274 0.035622656 0.16003904
000030 15 cc 06 be 43 21 c4 bd da 0a 57 bd 31 3e 5d bc
       -0.13163789 -0.09576657 -0.052500583 -0.013503597
000040 20 02 d1 3b 59 21 07 bb 56 67 39 3d f0 75 08 3c
       0.006378427 -0.0020619242 0.045264564 0.0083289
000050 2a 32 79 3d 01 22 ef 3c dd 0c 8c bc 4e ad 46 3d
       0.060838856 0.029191019 -0.017095977 0.04850512
000060 cc 9d 9d bd 63 17 7d 3d 99 19 94 bd 3d a2 0b 3d
       -0.07696113 0.06178988 -0.07231445 0.03409027
000070 4e 55 3a 3d dc 40 65 bd b2 2c 36 bd df b8 8c bd
       0.04549151 -0.055970058 -0.04447622 -0.06871199
000080 0c 1e 9e ba 3d c1 d2 3d 22 d5 be 3d b3 de f6 3c
       -0.0012063398 0.102907635 0.093179956 0.030135488
000090 f6 2d 71 3d 66 76 00 3d 25 2e de bd b6 a1 4b bd
       0.058881722 0.031362914 -0.10848645 -0.049714766
0000a0 3b 63 e8 bc 2e f3 30 bd 68 99 73 bd 4e 04 b3 3c
       -0.02836763 -0.043200664 -0.05947247 0.021852639
0000b0 94 b2 af 3d 43 d9 ab 3d 17 74 81 3d 1a 02 02 3e
       0.08578983 0.08391049 0.063209705 0.12696114
0000c0 a5 0b 60 3d 17 64 95 bb 4f b0 25 bd e1 64 16 bd
       0.054698605 -0.004559051 -0.040451344 -0.0367173
0000d0 be 1f ba bd 6d 83 78 bc a3 70 2d bc de 9a ae bd
       -0.090880856 -0.015168053 -0.010585937 -0.08525632
0000e0 ba 74 9e 3b 0e e0 15 be 4f c6 59 3b e1 40 d6 3c
       0.0048356922 -0.14636251 0.0033229773 0.026153984
0000f0 4f 5c c7 3d eb c8 65 3d f4 70 8e bc 4e 22 12 bd
       0.09734403 0.056099813 -0.017387845 -0.035677247

gat_net.0.scoring_fn_source f4 [1, 8, 8]
000000 0c c2 1d 3e 93 b3 d0 3d 38 3b 80 3d 8c eb 1c be
       0.15406054 0.10190501 0.06261295 -0.15324229
000010 55 39 55 3e b0 94 ba bd 44 58 8b be 55 64 33 bc
       0.20822652 -0.09110391 -0.2721578 -0.010949214
000020 c4 86 8f bd 3d 33 f3 bd 1a 3b 5f 3e bc 43 ea 3e
       -0.070081264 -0.11875007 0.21799889 0.45754802
000030 55 ea b2 be 97 cb 80 be 18 48 18 be 9e 4a 49 3e
       -0.34944406 -0.25155327 -0.14871252 0.1965737
000040 43 34 24 3d 64 e3 45 bd 2d 73 bf 3c 75 da ce 3c
       0.040088903 -0.04831256 0.02337035 0.025250653
000050 90 b7 0f 3e fd 12 fe 3b ec ed 13 be dc 19 66 3d
       0.14034867 0.0077537284 -0.14446229 0.056177005
000060 03 02 e0 bd 1b 73 8b 3e af 70 60 be 57 dd 18 be
       -0.10937884 0.27236256 -0.21917985 -0.14928184
000070 48 32 9d 3d 29 e0 e2 3d a8 fc bf 3c b5 f7 6f be
       0.07675606 0.110779114 0.023435906 -0.23434336
000080 0c 0a 3e be 66 05 a0 3e bb 56 d9 3e bc c2 b2 be
       -0.1855852 0.3125412 0.42448983 -0.34914196
000090 3c 2f df bd fa 83 22 3e e0 0a a0 be 71 10 84 be
       -0.10897681 0.15870658 -0.31258297 -0.25793794
0000a0 fa e1 73 3e de d1 14 3d 20 38 85 be 78 1c 21 be
       0.23816672 0.036332957 -0.26019382 -0.15733516
0000b0 25 83 94 3e c9 24 c5 3d 52 90 99 3e 7b ba 54 3e
       0.29006305 0.09626157 0.2999292 0.20774262
0000c0 7e 12 0a 3e a9 e0 7e 3d 47 d9 0a be ae 63 33 be
       0.13483617 0.06222597 -0.13559447 -0.17518494
0000d0 e5 e2 a8 bd 6f 98 b7 bd 92 e6 14 be 52 86 fc bd
       -0.08246402 -0.08964621 -0.1454108 -0.12330307
0000e0 da 0a 74 be 65 8f 42 be 3a 35 56 3d ef f3 03 3e
       -0.23832265 -0.19000013 0.052296855 0.12886022
0000f0 74 90 49 3e 1f 74 7a 3d 76 62 a8 3c 0c f7 af bd
       0.1968401 0.061145898 0.020554762 -0.08592042

gat_net.0.bias f4 [64]
000000 47 1f 80 bc a7 25 c9 ba 53 d0 b9 3c 5a d3 8e 3c
       -0.015639914 -0.0015346304 0.022682345 0.017434765
000010 5c 31 4a 3b 47 67 e8 3c 83 5c 8d bc 38 b6 19 3b
       0.0030852174 0.028369559 -0.017256027 0.0023454558
000020 7f dd 07 3d 23 b7 c6 3c 26 18 1a bc b4 ff 47 3c
       0.03317022 0.024257248 -0.0094051715 0.0122069605
000030 f4 56 1f 3d 5e fd 53 3b 87 86 9e bc e6 fc cd 3b
       0.038901284 0.0032347064 -0.019351257 0.0062862514
000040 04 d9 83 3a 03 bd 20 3c 39 f9 35 bc 7a 00 64 3c
       0.0010059183 0.009810689 -0.011106783 0.013916129
000050 58 0d c7 bb ff bd d1 3b 04 89 76 bc 39 31 e4 3a
       -0.0060745887 0.006400823 -0.0150473155 0.0017409689
000060 c5 9f 80 bb 58 66 85 3b b9 26 46 bc d8 56 08 bd
       -0.003925296 0.004071038 -0.012094193 -0.033285946
000070 a6 1f ce 3b 5a 00 8c bb 11 d9 36 3c 0a cb fa 3c
       0.006290394 -0.004272503 0.011160151 0.030614395
000080 47 3b b3 3c 7b 96 b9 bc de e8 40 bc 8a a8 a4 3c
       0.021878852 -0.022654762 -0.01177427 0.020099897
000090 6e b2 35 3b df 05 30 bc a1 3b aa bc 20 85 de 3c
       0.002772476 -0.010743587 -0.020780386 0.027163088
0000a0 1e 6a 19 bc 83 b6 8e bc a8 1b d9 3c b1 0f e3 bc
       -0.009363679 -0.017421013 0.026502445 -0.027717443
0000b0 82 78 54 ba b9 d2 ae 3c 27 3b e6 bc 3f fb 12 bc
       -0.0008105115 0.021340715 -0.028104378 -0.008971035
0000c0 6d 12 ce 3b fb d4 94 3c 2c 7e d2 bc 70 29 ad bc
       0.0062888176 0.018167963 -0.025694929 -0.021137923
0000d0 40 39 fb 3b 98 d0 96 3c 76 e0 87 bc d6 1c 0f 3b
       0.007666737 0.018410012 -0.016586524 0.0021837256
0000e0 19 00 8d 3b 2d b5 81 3c 9f fd 5c 3c 66 4e e0 3c
       0.00430299 0.015833462 0.013488202 0.027381133
0000f0 05 1f 83 3a ba 28 12 bd 00 98 a7 ba 6a 1b 5e ba
       0.0010003751 -0.03568337 -0.0012786388 -0.0008472713

gat_net.0.linear_proj.weight f4 [64, 1433]
000000 b5 a4 66 3d a6 0e ec 3d f3 75 1f 3d 31 4d 08 3a
       0.05630942 0.115262315 0.038930845 0.00051994907
000010 76 82 0e 3e fc 33 a3 bd 78 72 7f 3d a8 c0 62 3d
       0.13916954 -0.079688996 0.062365025 0.055359513
000020 31 22 18 3d 71 23 9f 3c 7c 68 60 3a c8 36 5e 3b
       0.037141982 0.01942608 0.0008560491 0.0033907164
000030 15 e2 f3 3d 6a 90 32 3c c4 52 e1 3c 6d 29 18 3d
       0.11908356 0.010898689 0.027505286 0.03714888
000040 65 51 9f bd 70 f6 0c 3c ab 4d 25 be 0e c8 d4 3c
       -0.07779197 0.008603677 -0.16142909 0.0259743
000050 bb c9 8b 34 f5 da af 3c 2a 14 ec bb 5d f3 21 bb
       2.6037546e-07 0.021466712 -0.007204552 -0.0024711706
000060 9a 43 9f 3c 84 8b 0a 3d 2b db e9 3d 44 22 29 bd
       0.019441415 0.03382446 0.11418756 -0.041292444
000070 c0 ef 42 3d e4 2a 2b 3d f1 1d 0b be 65 b1 89 3d
       0.047591925 0.04178895 -0.1358564 0.067232884
000080 b0 5b fb 3a 6f 3d 58 ba 6f 19 14 bd 5c 64 9e bc
       0.0019177105 -0.00082489004 -0.036157068 -0.019334964
000090 30 4b 18 bb 29 2d 32 bd a3 43 07 3e c9 cc e7 bc
       -0.0023238175 -0.0435001 0.13209395 -0.028295891
0000a0 c3 15 4c 3e 36 ee 17 bd 35 fb 26 3d 37 28 08 bd
       0.19930176 -0.03709241 0.040766913 -0.033241477
0000b0 44 a2 9b bd 86 d8 5b bd 76 02 9c 3a 29 a0 da bd
       -0.07599309 -0.05367329 0.0011902589 -0.106750794
0000c0 73 3f 57 bd cc d0 4f 3c f7 fb 6d bd 0a 8b 6d bd
       -0.052550744 0.012684058 -0.05810162 -0.057993926
0000d0 bd 1e 3a 3e 57 55 8d ba 88 03 2d be a1 a5 00 bd
       0.18175788 -0.001078288 -0.16895878 -0.031407956
0000e0 66 6d 14 3e 6b b3 a3 3c 0d 61 5d bc 03 45 b5 3c
       0.14494857 0.019983014 -0.013511908 0.022127634
0000f0 52 d1 48 35 f5 4a 21 be a0 c0 0d 3d 67 40 ef 3d
       7.4810407e-07 -0.1575125 0.03460753 0.11682206
000100 95 bb 27 3d 0e 3a 9d bd ae 0f 1f bd bd 56 7b 3d
       0.040950377 -0.07677089 -0.038833313 0.061362017
000110 55 1d 8a bc 48 8d 61 bb a2 14 19 bc 42 ee b6 3c
       -0.01685969 -0.0034416486 -0.009343298 0.022330407
000120 18 94 08 3d ac 94 98 3d 27 7d f2 bd 4e 2b 4c bb
       0.03334436 0.07450232 -0.11840277 -0.0031153741
000130 df 6d 0c be 0b eb 6f bd 6b 68 b2 3d ae 70 11 3d
       -0.13713787 -0.058573764 0.087113224 0.03550785
000140 be 41 b2 3d c6 b5 78 3d d1 8e 7d bc 52 c8 1f 3d
       0.087039456 0.060720228 -0.015475945 0.0390094
000150 f6 ea 92 3d 6b ec a3 3d d3 47 ae bd d7 c7 44 bd
       0.071737215 0.080040775 -0.08509793 -0.048042145
000160 90 1e 41 be ad ea 9d 3c d6 56 39 bc 11 3f 36 bd
       -0.18859315 0.019276941 -0.011312207 -0.04449374
000170 a4 10 8b bd a8 23 e4 3b 1e d1 4c 3c c3 07 38 be
       -0.06790283 0.0069622584 0.012501029 -0.17971711
000180 21 45 00 3d 0a 8c 7f 3d a6 7d 88 3b 69 96 2c bc
       0.031315926 0.06238941 0.004165369 -0.010533907
000190 aa b6 1b bc 8a 9d d4 bc 80 fa 80 bd d2 5c be 3c
       -0.009504 -0.025954027 -0.06297779 0.02323762
0001a0 84 21 aa bd 69 f3 20 3c c6 04 e0 bd 57 d8 b1 bc
       -0.08307174 0.0098236585 -0.109384105 -0.021709604
0001b0 7f cb 30 3d 7b 34 7f 3c 22 aa fb 39 ac 2d 2c 3b
       0.04316282 0.015576477 0.0004800121 0.002627234
0001c0 94 92 10 bd 68 55 9f ba a3 41 06 3d 32 a0 b5 3c
       -0.035296038 -0.001215619 0.03277744 0.022171114
0001d0 e9 a2 04 bd 3b 41 85 bd 28 69 e0 ba 14 05 83 3c
       -0.032381926 -0.06506582 -0.0017121183 0.015993632
0001e0 2e c2 6a 3d f2 fa 12 3d f2 2e 3d bb 7f 76 8a 3c
       0.05731409 0.03588385 -0.0028867093 0.016902206
0001f0 8d 57 48 3d 62 c8 76 bd fa 26 fe bd b4 01 2a bc
       0.04891162 -0.060249694 -0.12409778 -0.010376383
000200 ef c1 54 3d 19 d0 1a bd 5f 7d 90 3c 99 44 41 be
       0.051942762 -0.037796114 0.017637907 -0.18873824
000210 66 0a f8 3d 2e 62 41 3d 9f 2c dd 3c be 94 85 bc
       0.12111358 0.047212772 0.026998816 -0.016306277
000220 bc 20 13 bd 56 3b 8a bc f5 ac 30 bd 0a b9 9e bd
       -0.03591989 -0.016873997 -0.043133695 -0.07750137
000230 23 29 1e bd 87 4c ea bd 06 b4 1b bc 2e 59 20 3e
       -0.03861345 -0.11440378 -0.00950337 0.1565902
000240 a5 25 ed 3a f6 36 b2 34 22 25 41 3d e5 f4 93 bd
       0.0018092884 3.3195073e-07 0.047154553 -0.07224444
000250 99 69 8d bd af d8 a7 bd d9 ee d9 3c e1 b7 d5 bd
       -0.06904907 -0.08195626 0.02660315 -0.10435463
000260 d0 fb 8b 3d b2 ab 0d be d9 06 23 3d c5 77 46 bd
       0.06835139 -0.13835028 0.039801452 -0.048454065
000270 45 16 fd bd a4 cb 32 be ae 3e 90 3c cc f8 ca 3d
       -0.12357763 -0.17460495 0.017608013 0.099107355
000280 72 a0 8c 3c 1b ea 7f bc b8 0e 63 bd 17 a9 95 bc
       0.01716635 -0.01561978 -0.05543396 -0.018269105
000290 e4 cd 39 3d 81 9f e8 3c c3 f4 2e bc 1b 93 85 3c
       0.04536237 0.02839637 -0.010678473 0.016305497
0002a0 64 67 41 3e 0a b2 db 3c dc c7 63 3d d3 6b 2e 37
       0.18887097 0.026818294 0.055610523 1.0396313e-05
0002b0 f7 16 ee bc 4b 74 56 3d 78 4b 6f bd 23 37 28 3d
       -0.029063685 0.052357 -0.058421582 0.041068207
0002c0 99 4e 4d bd cd 8a c9 bd 01 af 41 bd 23 94 5a 3d
       -0.050123785 -0.09840927 -0.047286037 0.05336393
0002d0 16 bb a9 b9 a7 62 a7 bd ca 06 3d bd 60 81 67 bd
       -0.00032373582 -0.08173113 -0.046149053 -0.056519866
0002e0 01 bf a8 3c d0 ae 01 b9 76 98 48 bd 34 9d 0c 3e
       0.02059889 -0.00012367521 -0.048973523 0.13731843
0002f0 27 d0 36 bd 11 f9 84 bc f9 c9 7d bb 00 8c 03 bc
       -0.044632103 -0.016232045 -0.0038725121 -0.008028984
000300 da cc e5 3d 63 9b 2c 3c b4 0c 21 3d c4 5f ae 3a
       0.11220713 0.010535094 0.039318755 0.0013303687
000310 2f e0 00 3e 81 64 58 3d 1a a8 84 bd ec e4 53 bb
       0.12585519 0.052830223 -0.06477375 -0.0032332493
000320 50 a7 b6 39 b3 a7 01 3d ee 64 cd bd 36 dd 5f bd
       0.00034838403 0.03165407 -0.100290164 -0.054654323
000330 ca 1f b9 bc 5c 0d 12 3d 43 ee 03 3d 80 ca 96 3c
       -0.022598166 0.03565727 0.032209646 0.018407106
000340 07 a3 52 3d 38 f6 95 bb e2 45 cf 3a b1 f8 2e 3e
       0.051425006 -0.0045764707 0.0015813673 0.17087056
000350 ad 4d 5a 3d 3d b6 61 bd 1b 71 74 3d ea 30 02 3d
       0.053296734 -0.055105437 0.05967818 0.03178493
000360 5a 4a 18 bc 1a 32 2e 3d 51 f4 56 3d 2d c8 ec 3c
       -0.009295071 0.04252825 0.052479092 0.028904045
000370 a6 24 94 3c a1 bb d7 3c 94 20 5e 3d a9 99 e7 3c
       0.018083882 0.026334586 0.054230288 0.028271513
000380 1e 46 04 3c 58 23 fe bd 15 98 ab 3d 1b 77 23 3d
       0.008073358 -0.12409085 0.08378617 0.03990851
000390 b0 48 26 bd d2 98 18 bd 83 c4 89 bd 0f 3b 8d 3d
       -0.040596664 -0.037255116 -0.06726935 0.0689603
0003a0 66 8a 86 bc d2 13 86 bd 68 91 94 3d 88 b8 8e 3d
       -0.016423415 -0.06546749 0.072542965 0.0696879
0003b0 40 45 08 3d 9a 28 1d 3e 95 41 e5 bd 50 55 43 3c
       0.033269167 0.1534752 -0.111941494 0.011922196
0003c0 ef 9b 16 3d 25 f4 55 3d 9c 1b c8 bb 37 36 9f bc
       0.036769804 0.052234787 -0.006106807 -0.019435031
0003d0 60 e0 ab bd ef af 2d 3d 4e ea a1 bb 58 9a ad 3d
       -0.083924055 0.04240411 -0.0049412614 0.08476704
0003e0 a4 79 bd bd bf 28 51 3c d0 ce 2c 3d ff 6a 12 bc
       -0.09251717 0.012766062 0.04218942 -0.008936643
0003f0 44 93 f7 bc ab 49 94 3c 8d 92 37 3d a8 0c 08 3d
       -0.030221589 0.018101534 0.044817496 0.033215195

gat_net.1.scoring_fn_target f4 [1, 1, 7]
000000 15 37 06 3e 3e 3a 96 3c af 9b 6d be 0f 02 66 3e
       0.1310695 0.018338319 -0.2320392 0.22461723
000010 80 3f 6f 3d 93 bc 4e be 41 d8 9a 3d
       0.058410168 -0.20189123 0.075607784

gat_net.1.scoring_fn_source f4 [1, 1, 7]
000000 d1 e2 b0 3e f4 cc cc 3e f0 af e4 3d a6 9b a4 3e
       0.34548047 0.40000117 0.1116637 0.3215
000010 76 f1 dc 3e 00 a1 2f 3e 3a 8e e3 3e
       0.4315297 0.1715126 0.44444448

gat_net.1.bias f4 [7]
000000 6d 29 8c 3d 3c ca 01 be 60 f8 b9 3d 85 29 c7 bc
       0.06843839 -0.12674803 0.09080577 -0.02431179
000010 58 45 d4 bd 65 75 e8 3d 61 89 c7 3c
       -0.10364789 0.11350516 0.0243575

gat_net.1.linear_proj.weight f4 [7, 64]
000000 b1 b5 a8 3e de 95 2c bf c6 5f 85 3e 0f b2 76 be
       0.3295112 -0.6741618 0.26049632 -0.24091361
000010 a9 4c f7 be fc 96 06 bf 5d 84 e0 3e 83 84 bd be
       -0.48300675 -0.52574134 0.43850985 -0.3701516
000020 ac 03 aa be cc e4 28 bf 15 78 3f be ae e6 2c bf
       -0.33205926 -0.65974116 -0.18698151 -0.6753949
000030 f6 a7 25 3f 39 d4 b4 be c1 86 07 3f 4e 6b 13 3e
       0.64709413 -0.35318163 0.52939993 0.14396402
000040 6e 0e 11 3f a9 71 0b bf 3c dc 2c 3f 02 d7 95 3d
       0.5666264 -0.54470307 0.6752355 0.073164
000050 ff 5a e2 3e 7c 18 a5 3e 38 9c 00 bf 31 80 b3 be
       0.4421005 0.32245243 -0.5023837 -0.3505874
000060 a2 53 c8 3e 3d bd 17 bf 0f 7f 06 bf 66 95 3d 3e
       0.39126307 -0.5927313 -0.52537626 0.18514022
000070 ef 1b db 3e 47 84 1c 3f e6 c7 98 3d 25 3e 4b 3f
       0.4279475 0.6113934 0.074600026 0.793917
000080 42 ea 98 3e 85 8d a5 3e 90 85 4f bf 8c f1 0e 3e
       0.29866225 0.32334533 -0.81063175 0.1395933
000090 c0 71 96 3d 61 28 1f 3f 8a 8d 00 be 61 00 ef 3e
       0.07345915 0.6217099 -0.12553993 0.46679977
0000a0 eb a0 10 3f e0 33 06 bf 61 96 10 3f f5 57 9d 3e
       0.5649554 -0.52422905 0.5647946 0.30731168
0000b0 7a 43 20 bf 80 1f 94 be 84 70 99 be 98 b8 16 3f
       -0.6260296 -0.28930283 -0.29968655 0.5887542
0000c0 88 55 80 3c d5 22 d4 3e 85 5e 37 bf f8 70 a5 be
       0.015665784 0.41432825 -0.716286 -0.3231275
0000d0 6c 6e 52 bf 71 f8 18 3e ca 99 0e 3d 38 ed 94 3b
       -0.8219974 0.14938523 0.034814633 0.0045448802
0000e0 f4 7a 65 3e 8b 40 0c bf 57 bb aa bd 84 ae 2a bf
       0.22410184 -0.54785985 -0.083365135 -0.6667254
0000f0 0c 42 ef be d1 96 e4 3d 95 d6 c5 be f7 83 0c 3f
       -0.46730077 0.111615784 -0.38640276 0.5488886
000100 07 c6 85 3e 77 cc 0a be e5 2e f7 3e 70 b0 25 bf
       0.26127645 -0.1355456 0.48277965 -0.6472235
000110 7a 24 1b 3f e3 78 10 3f ed 48 40 bf ff 6e e8 be
       0.60602534 0.5643446 -0.75111276 -0.45397183
000120 5d fa 02 bf 7a e3 0c bf 5c 3d 4c 3e d5 fd bb be
       -0.51163274 -0.550346 0.19945282 -0.36717096
000130 50 1b cd be 7f a1 c0 be d5 ac 7f 3e e8 66 2a bf
       -0.400599 -0.37623212 0.24968274 -0.6656327
000140 c3 30 9f 3e ef ae e8 3e 82 0e b7 3e 6b 5e 54 bf
       0.3109189 0.45445964 0.35753256 -0.8295657
000150 49 b1 0c bf ff 40 1b bd 6b 05 ec be 7c 15 76 3d
       -0.54958016 -0.037903782 -0.46097884 0.060079083
000160 c4 2c 2e bf 39 3c 33 3f 35 c9 9b 3e 47 6f 5e 3e
       -0.68037057 0.7001377 0.30426946 0.21722136
000170 08 36 ae 3e cf 17 aa 3e 00 eb 15 3f 2b 90 0a bf
       0.34025598 0.3322129 0.58561707 -0.5412623
000180 a1 9b 44 bf 0d 52 f6 be 98 8f 79 bd e9 45 95 be
       -0.7679997 -0.48109475 -0.060927957 -0.291549
000190 57 67 09 bf 7f 27 06 bf 68 b9 ab bc 6d b2 10 3e
       -0.5367331 -0.52404016 -0.020962432 0.14130564
0001a0 7b 05 d2 3e a8 f0 d6 be 85 fa df 3e f4 69 7c 3e
       0.41019806 -0.4198048 0.4374582 0.24649793
0001b0 98 02 aa 3c cb b2 0e bf 46 79 04 be b9 71 8c be
       0.02075319 -0.55741566 -0.12936887 -0.27430514
0001c0 73 13 27 bf 9f 10 27 be ee 54 46 3f a3 42 1b bf
       -0.6526405 -0.16314934 0.7747334 -0.60648555
0001d0 13 dc cd 3e 07 c7 c2 3e 1c 83 2a be 19 41 40 3f
       0.40206966 0.3804247 -0.16651577 0.7509933
0001e0 8e 0a d1 3e 9b 77 84 3e b4 cf e2 be 62 86 88 be
       0.40828365 0.25872502 -0.4429909 -0.26665026
0001f0 e9 bc 82 3d be 5e 8b 3e 0f d1 ad be 8b 7d 8e bd
       0.06383688 0.2722072 -0.33948562 -0.06957539
000200 cd da 86 be 4d b1 2f 3f fb b4 d0 3e 4a 55 3d bf
       -0.26338807 0.68629915 0.40763077 -0.73958266
000210 2d 01 1e 3e fb 00 dd 3e 32 d8 d9 3e 6e 6f 26 3f
       0.15430136 0.4316481 0.42547756 0.6501378
000220 90 d0 82 be 6c 65 93 3e 55 ff 3f 3f 5b 70 2c 3f
       -0.25549746 0.28788316 0.7499898 0.6735894
000230 ed 8f f9 be 7d 13 0f bf 0f 83 40 bf ad 30 37 3f
       -0.4874262 -0.5588911 -0.7519998 0.7155865
000240 88 09 25 bf 50 80 8b be 7d e6 09 3f 24 2f d6 be
       -0.6446767 -0.27246332 0.5386732 -0.4183284
000250 07 7f d4 3e d0 ce 14 3f cf 28 29 3f 5e e5 f8 3e
       0.41503164 0.5812807 0.66077894 0.48612493
000260 d5 2d a9 be 93 bd 8b 3e 1b da 0a bf f1 15 28 3e
       -0.3304278 0.2729307 -0.5423905 0.1641462
000270 a4 64 1d 3e a7 34 43 bf 0c 80 3a bf c1 bd 04 bf
       0.15370423 -0.76252216 -0.72851634 -0.5185204
000280 c6 7f 25 bf d3 53 49 3f 47 48 2f 3f 4c 1d 04 bf
       -0.6464809 0.7864353 0.6846966 -0.51607203
000290 27 9c 89 3e 03 e9 f2 3e f5 5a 21 bf cd 06 31 bf
       0.26876947 0.474434 -0.63029414 -0.69151
0002a0 c8 d1 01 be 59 15 bc be 00 b4 20 bf 53 66 15 bf
       -0.12677681 -0.36735037 -0.6277466 -0.5835926
0002b0 bc c8 51 3f 75 ad 1a 3f 00 3d 19 3f e4 89 b3 3e
       0.8194692 0.60420924 0.59858704 0.3506614
0002c0 ea ce ae be ff 47 bb be c2 ff 23 3f a8 74 0e bf
       -0.34142238 -0.36578366 0.6406213 -0.55646753
0002d0 4e cc 82 3e 45 a4 2c bf fe fb 24 3f ae 59 1c 3f
       0.25546497 -0.67438155 0.6444701 0.6107434
0002e0 dc 61 53 bf 00 81 f5 be d1 5b 9d bc 7f 45 fd 3e
       -0.82571197 -0.47949982 -0.01920882 0.49467084
0002f0 9d 83 de 3e 7c fe 01 3e 6c e0 00 bf ec f3 27 3e
       0.43459788 0.12694734 -0.5034244 0.16401643
000300 5d 91 34 3e 1d b8 9f be 78 bc d4 be b7 ca 69 3e
       0.17633577 -0.31195155 -0.4155004 0.22831236
000310 10 22 10 bf 9d a8 79 3e b8 43 db be eb bf 04 bf
       -0.56301975 0.24380727 -0.42825103 -0.51855344
000320 0e ad 08 3f 51 1d 16 3f ac 0d 32 be 9d 8c 8b 3e
       0.5338906 0.58638483 -0.17388028 0.27255717
000330 b3 22 28 3f 17 e4 19 3f d6 cf 10 bf a3 cd d6 3e
       0.65677947 0.6011366 -0.5656713 0.41953763
000340 d4 8a 7a 3e 56 de 1f 3f 83 f7 2a bf 88 95 ca 3e
       0.24467021 0.6244863 -0.6678392 0.39567208
000350 51 2c fb be 77 ff 8e be 6c 1d 25 bf 18 19 5a bf
       -0.49057248 -0.2792928 -0.6449802 -0.8519454
000360 2c be fc 3e 82 65 8e be ac 1e e5 be 86 50 88 bd
       0.4936384 -0.2781182 -0.44749963 -0.066559836
000370 00 1e 84 3e c2 77 2d bf 55 2a 1c be 9c 03 1d bf
       0.25804138 -0.6776086 -0.15250523 -0.6133363
000380 1f a3 55 3e 04 c3 b5 be 65 8d bf 3e 1e d2 00 3f
       0.20863007 -0.35500348 0.37412563 0.50320613
000390 79 19 24 3f 1f 4d ab be 92 21 9b 3e 45 21 06 3f
       0.6410137 -0.33457276 0.3029905 0.52394515
0003a0 2e fc 46 bf 10 20 9e be 02 d9 a8 be 9d 11 86 be
       -0.77728546 -0.30883837 -0.32978064 -0.26185313
0003b0 ce bd df 3c 7b e4 4a 3d 9c bf aa be d0 93 0c 3f
       0.027312186 0.049534302 -0.3334931 0.54913044
0003c0 34 ae 16 bf a2 69 33 bf b1 4c b0 be b5 5e 12 3f
       -0.5885956 -0.7008306 -0.3443351 0.5717576
0003d0 e9 82 e6 3e 3f 80 c4 be 89 c1 03 3d 1b 90 3f be
       0.45021752 -0.38379094 0.03216699 -0.18707316
0003e0 5d e8 00 3f 50 b7 83 be 3e 30 04 bf 1e 1b af be
       0.5035456 -0.25725794 -0.5163611 -0.34200376
0003f0 cb 31 7f 3e c8 b6 da be c6 af 34 3f 95 21 38 bf
       0.24921338 -0.42717576 0.7058071 -0.7192624
