python/binarypath/binaries/gat_000006.pth (torch, 372431 bytes, 8 tensors)

gat_net.0.scoring_fn_target f4 [1, 8, 8]
00000000: 1873 f93d 44ef 883d 7750 a7bd 817e db3c
00000010: 559d 0abd b917 46bd 1143 473d 7b4f cebd
00000020: 0446 c4bd 7c2a 19bd 49a5 a23d 30f2 70bd
00000030: 3c27 5bbd cde7 b53d 1712 71bd 3d4f 2b3b
00000040: 5fb3 b8bd 47e4 b0bd bbcd 983b e31d 82bd
00000050: 8e5c 403d 2da6 6f3d 1f1d 7cbd f15c a03d
00000060: c06f 1f3d b63d 06be 1f55 61bd e4f9 ba3d
00000070: c305 223c 8efa 613c 0f68 933d 5141 80bd
00000080: ebc2 c23d 7ec6 193d 2bf2 473d b697 513d
00000090: b2ef a0bd a2b1 5d3e 0694 393b 16db d3bb
000000a0: 4b42 16bd da15 6dbd 84fd 04bd 3f9c 9f3d
000000b0: dd50 5c3d e98d a83d 3bcc 173d 177b ae3d
000000c0: 3899 3d3d d2a3 8d3c 972d d7bc b9f4 72bd
000000d0: daf7 8dbd 04b6 ff39 d615 b7bb cf91 70bd
000000e0: e765 7bbc a7cd 09bd 96e9 9e3c aaea dabd
000000f0: 003d a8bd e780 4e3e e681 a9bd e21c 87bc
0.121801555 0.06686261 -0.08169644 0.02679372 -0.03384145 -0.048362467 0.048647944 -0.100737534
-0.09583667 -0.037394032 0.07941682 -0.058824718 -0.053504214 0.08882103 -0.058855142 0.002613976
-0.09018587 -0.086372904 0.004663197 -0.06353357 0.046963267 0.058508087 -0.06155121 0.07830227
0.038924932 -0.13109478 -0.05501282 0.09129694 0.009889069 0.013792647 0.07197582 -0.06262458
0.09509834 0.037542813 0.048814934 0.051170073 -0.07858218 0.21649793 0.0028316989 -0.006465326
-0.036684316 -0.057882167 -0.032468334 0.077934735 0.053788055 0.08230192 0.037060004 0.08519571
0.0462887 0.01729003 -0.026266856 -0.059315417 -0.069320396 0.00048773002 -0.00558732 -0.058732804
-0.01534412 -0.03364339 0.019398492 -0.1068929 -0.0821476 0.2016636 -0.08276729 -0.016493265

gat_net.0.scoring_fn_source f4 [1, 8, 8]
00000000: 625a 263e 757d 3e3c b484 4cbe 8dd6 d53e
00000010: 000f 61be 0f49 06be 00d3 0cbd e682 1abe
00000020: 3cc0 58be 0710 73bd 6685 0e3d 170c b53d
00000030: ebfd d03d 4362 9e3e 5a23 dfbd 0049 19be
00000040: b12a 1ebd 8bf1 cbbe 6b3d 9fbd 4e64 89bd
00000050: 3fb6 9f3d 5cf4 d0bc a6e1 a9be ee6d 853e
00000060: 4f1d 133d e699 51be e329 dcbd e561 bb3d
00000070: 3bb3 ec3c 142b 8dbd 61fb 203e 4539 e73c
00000080: 5003 853d dd0c 2f3d daa4 453e f482 6bbc
00000090: 73bc d63d 8b20 e73d 04ff 2d3e 71a5 8f3e
000000a0: 0a8b 033c 91aa d43d d814 25be e213 63bd
000000b0: 0927 1d3e d301 7f3e ca9c 3e3e 2351 553d
000000c0: c586 623e f1ab 733d 9894 e9bd 93f2 29bd
000000d0: 3a66 1ebe 3848 d8bd d000 78be 3d99 57be
000000e0: 3b3b 0cbe 9630 7cbe 8163 8abe afe9 6ebe
000000f0: 2ca4 88be 73cc 803e 7bb0 35bd e0a4 3ebe
0.16245416 0.011626591 -0.19972497 0.41765252 -0.21978378 -0.13113807 -0.034380913 -0.15088996
-0.21167082 -0.059341457 0.034795187 0.088401966 0.10204681 0.30934343 -0.10895415 -0.14969254
-0.038614932 -0.3983272 -0.077753864 -0.06708585 0.077984326 -0.025507145 -0.3317997 0.26060432
0.035916623 -0.20468864 -0.10750177 0.09149531 0.028894057 -0.06892982 0.15720893 0.02822555
0.064947724 0.042736877 0.19301167 -0.014374483 0.104851626 0.11285504 0.16991812 0.2805591
0.008028755 0.103840955 -0.16121233 -0.055438884 0.15346922 0.2490304 0.18614498 0.05207933
0.22121723 0.059490148 -0.11405295 -0.041491102 -0.15468684 -0.1056065 -0.2421906 -0.2105455
-0.1369447 -0.24627909 -0.2702904 -0.2333133 -0.26687753 0.25155982 -0.044357758 -0.18617582

gat_net.0.bias f4 [64]
00000000: 14c5 eb3c dbeb 0a3d 0061 0a3c 6a46 383c
00000010: 70e2 a23b 2e99 443c 77fd abbc 8ad3 7abc
00000020: 1838 583c b833 93bc c67f 34bc 9776 2e3d
00000030: 6235 8bbc 257f 58bc 6caa b23c 4443 523c
00000040: 2396 89bb b7b0 1f3c 8b19 ff3b d7b3 c73c
00000050: e314 92b9 f6de 0b3d aee5 0e3c df22 023d
00000060: d4c7 873c 07ce a93b 4b0d a6bb 20e5 ac3c
00000070: 8161 983c 6aff 413b 2dd2 893c e0d2 a83b
00000080: 5427 b93c 7ef2 0c3b ee1b b2bb 21d6 5f3c
00000090: cda3 b23b 9661 113c 5ce5 3e3b 961f 803c
000000a0: a454 883c fcd3 4c3d 9309 5fbc fec2 b73b
000000b0: 2c7e 1a3d 4cb0 0dbc 80d1 c33c a01f 763b
000000c0: ca2a fd3c 8acd 54ba 9f46 69bb 2990 df3c
000000d0: 8b12 283b 6593 8e3c 6125 353d 70a9 e13b
000000e0: 94b8 85bc cc9f fb3c 4895 80bb 5688 073c
000000f0: a485 dfbb fe09 103c 02f5 723c 6e19 343d
0.028780498 0.033916336 0.008445978 0.011247257 0.004970841 0.0119994115 -0.020994885 -0.015309224
0.013196968 -0.017968997 -0.011016792 0.042593565 -0.016993228 -0.013213907 0.02180978 0.01283342
-0.004198806 0.009746722 0.0077850274 0.024377747 -0.00027862852 0.03414818 0.008721752 0.031771537
0.016574778 0.005182031 -0.0050675026 0.021105349 0.018601181 0.0029601702 0.016823852 0.0051520914
0.02260176 0.0021506841 -0.0054354584 0.013661892 0.0054516555 0.008873364 0.0029128408 0.015640061
0.016641922 0.05000685 -0.0136131225 0.0056079617 0.037717983 -0.0086479895 0.023903608 0.003755547
0.030904192 -0.0008117786 -0.0035595072 0.02729042 0.0025645818 0.017404268 0.0442251 0.0068866536
-0.016323365 0.030715846 -0.0039240457 0.008272251 -0.006821351 0.008791445 0.014828922 0.043969564

gat_net.0.linear_proj.weight f4 [64, 1433]
00000000: 2654 1b3d 31c4 3bbe 8e7f 7c3d 644a 98bc
00000010: df52 3cbe 8c72 19bd 7d2c 243e 73e0 dbbd
00000020: 78c6 5abd aa97 20bc 0a1c 86bb c6cb e53c
00000030: 103a bf3d 060d bcbd 80a8 9939 712e 2dbb
00000040: 827c 733c 34a2 c73d 275d 473d d246 b33d
00000050: 4422 9129 fa79 29bd 131e 7a3a ef7e bcbb
00000060: 4645 3e3c d0d5 b33d c7c0 443d 40ff 263d
00000070: 8e4a 4d3c 1254 fe3c cdf6 39bb 0e28 e3bc
00000080: af16 3cbd 2a4a 8aba 1926 22be 0f0b dcbd
00000090: a5be 9b3c 2831 8c38 dbc9 b13c 7a94 953d
000000a0: 5ec0 9ebd 3d92 3e3e 0358 b13c 6046 1ebb
000000b0: 3d54 db3d a756 a9bd fde2 213c 41bb 513c
000000c0: 803d ee3c 1562 b7bb ad96 c4bd 7ba6 6c3e
000000d0: 1a11 c2bd 7cce 22bc 07f9 a8bd e409 053d
000000e0: dcbd 203e 8062 0a3d c9a3 993d 425c e5bd
000000f0: 8071 d4a6 b7b1 513e 3f7d 4ebd 5235 1f3e
00000100: 6982 cdbc e533 903d e604 0ebd c668 2ebe
00000110: 027d 003d 1f51 2fbd cc49 983d 07da b9bc
00000120: d4b2 53bd b337 8fbd 26f3 cfbc 1ddf c7bd
00000130: 2e13 3cbe d6c3 e63d 1f8b d5bc 281c 3ebd
00000140: d9f4 abbd e5ee 0c3d 73ce f8bc 189a 82bd
00000150: 6652 a9bd c563 7bbe a443 30be 7935 fd3c
00000160: fe29 e63c af30 ec3d 4f7f d83d d3af 2abd
00000170: 356e a33d de9b 5cbd 9f31 a9bd 4db8 e53d
00000180: 72d9 42bd d2fd e93c b5cd 203d 6768 4d3e
00000190: d21e 883d febf 9cbb 0dd0 063e 3c27 a1bd
000001a0: 311b 7b3d 6aeb 4dbd 60c3 2ebd ecfa ac3d
000001b0: c909 cabc 4820 a8bc cfba dabc 27ab b63a
000001c0: 17f4 b93c e890 cbbb 2176 8cbc 9e3b 3c3c
000001d0: a377 6cbc 7807 98bc 879f 513e e962 77bc
000001e0: 76b6 00be 0da2 b4bd c326 01bc e8d9 7bbb
000001f0: 8edd adbd 2c01 203e 1b73 e93d e9da a33d
00000200: 5b9a 0bbd 1b67 5f3e 0484 16be 8301 c23d
00000210: 9342 f6bd 7834 4d3e 9d57 8cbc 50cb 2c3e
00000220: f91b 8ebe 6112 18bd 1785 c3bc b9c5 13bd
00000230: a21a a33e d4e9 bcbb cb86 0b3e 8f49 37bc
00000240: cbfa a3bc 0a13 c729 3b7f 8a3d 59fd 94bb
00000250: cad5 793c ee54 103e 0f1f fbbc 8a0c febc
00000260: 470e f33d 9350 5e3d b09b 7b3d 98c7 e03d
00000270: e56b 1cbd 6159 3dbe 9035 a43d c948 b2ba
00000280: 8a68 e9bd e0d1 85bd 66ee cf3c 1def 2e3d
00000290: 4ef3 0b3c 83f3 313c 7508 b7bc 65e2 c83c
000002a0: 44c2 4dbe 52e8 a93d 7dfd aebd f1ff 2b3b
000002b0: e649 413e 6e3e b5bd 6721 b6bc 4269 853b
000002c0: e4f2 0cbd e963 97bd ed44 fabd 99dc 1d3c
000002d0: c026 dcbb 6c30 c73d b7c3 9fbc cc4e fabb
000002e0: 02d5 023d c612 12ba 16c0 aa3d cfcb fcbd
000002f0: 5cec 17be 56f4 10bc dee9 b1bc 70fb d73c
00000300: 8055 33bd c806 953d b992 4cbd 00e5 9d3d
00000310: ce0c 32be 03ca c23c d7f5 b6bc c689 78bc
00000320: b96a 053d f028 eebc 1877 acbd d20d 133e
00000330: 1790 95bc 6168 0f3e aa19 b93b e029 94bd
00000340: 86c6 e2bd adc8 ae3a e815 acbc 4847 013d
00000350: 4dc3 45ba 6154 80bd dfb4 dc3d 7f40 163c
00000360: 5efd f4bc 4342 11be e518 2bbd cd9d c93b
00000370: bcff e93c 24c9 3d3d 3882 953b e998 b039
00000380: 3a37 023c 2ec9 cf3d 42ed 803d 29a8 d53c
00000390: 40d1 a13d f7d8 913d 0349 11be 42be 50bd
000003a0: df05 c33d 687a f93b 7ad6 29be 00d4 a73b
000003b0: b88d 89bd fe09 233e 3048 51bc a549 98bd
000003c0: 088d 26bd 59ba 703d 8e51 31bd 0f7b 093d
000003d0: 7c06 9e3c a694 c13d 8e3a 803d 2aed b83d
000003e0: b59e febb 9a2e 2cbd 2fa5 933d 456a 013d
000003f0: 4bad 79bd 0525 0c3d 4967 82bb 6fb0 af3d
0.037922047 -0.1833656 0.061645083 -0.01859016 -0.18390988 -0.037462756 0.16032596 -0.1073617
-0.05341193 -0.0098017845 -0.004092698 0.028051268 0.093372464 -0.091821715 0.00029307976 -0.0026425386
0.014861228 0.09747735 0.04867282 0.08753742 6.445238e-14 -0.04137609 0.00095412246 -0.0057524364
0.011613196 0.08781016 0.04803541 0.04077077 0.012529982 0.031045947 -0.0028375864 -0.02772906
-0.04592007 -0.0010550667 -0.15834846 -0.10744297 0.019011805 6.684876e-05 0.021702698 0.0730371
-0.07751535 0.18610473 0.021648413 -0.0024150833 0.107094266 -0.08268481 0.009880778 0.0128009925
0.02908206 -0.005596409 -0.095990516 0.23110382 -0.09475918 -0.009936925 -0.08250623 0.032480136
0.15697426 0.033785343 0.07501943 -0.111992374 -1.4741219e-15 0.20477949 -0.050412413 0.15547684
-0.025086598 0.07041148 -0.03467264 -0.17032155 0.031369217 -0.042801972 0.07435951 -0.022686971
-0.051684216 -0.06993046 -0.025384497 -0.09759352 -0.18366691 0.112678215 -0.026067315 -0.04641357
-0.0839631 0.034407515 -0.03037188 -0.06377047 -0.082676694 -0.24549778 -0.17213303 0.030909287
0.028096195 0.11532723 0.10571157 -0.041671585 0.07980005 -0.053859584 -0.082614176 0.11216793
-0.047570653 0.028563414 0.039258678 0.20059358 0.066465035 -0.0047836294 0.13165303 -0.078688115
0.06130523 -0.050273336 -0.042666793 0.08446297 -0.024662869 -0.020523205 -0.026700405 0.0013936505
0.022699399 -0.0062123425 -0.017146172 0.011488823 -0.0144328205 -0.018558249 0.20471011 -0.015099266
-0.12569603 -0.08819971 -0.007882777 -0.0038429443 -0.08489524 0.15625447 0.11398908 0.08000738
-0.03408275 0.21816675 -0.14698797 0.094729446 -0.12024417 0.20039546 -0.017131621 0.16874433
-0.27755716 -0.037126902 -0.023867173 -0.036077235 0.31856257 -0.005765179 0.13625638 -0.011186971
-0.020017048 8.840678e-14 0.067625485 -0.004546803 0.015248725 0.14094898 -0.030654458 -0.031011838
0.118679576 0.05427606 0.061427772 0.109755695 -0.038188834 -0.18491127 0.08018029 -0.0013602014
-0.11396892 -0.06534171 0.025382232 0.042708505 0.008541895 0.01086128 -0.0223429 0.024522016
-0.20093638 0.08296265 -0.08544443 0.0026245082 0.18875846 -0.08849798 -0.022232724 0.0040713856
-0.034411326 -0.07392103 -0.12220178 0.009635114 -0.0067184865 0.097260326 -0.019502504 -0.007638788
0.03194142 -0.00055722555 0.08337419 -0.12343561 -0.14836258 -0.008847317 -0.021717962 0.026365012
-0.04378271 0.07276684 -0.049944613 0.07709694 -0.17387697 0.023777967 -0.022334022 -0.0151695665
0.03257248 -0.029072255 -0.08421153 0.14360741 -0.018257184 0.14004661 0.0056488113 -0.072345495
-0.110730216 0.0013334953 -0.02100654 0.03156212 -0.00075440557 -0.06266094 0.10776686 0.0091706505
-0.029905971 -0.14185433 -0.04177179 0.0061528445 0.028564326 0.0463344 0.0045626424 0.00033683263
0.007947737 0.10145794 0.06295253 0.026081162 0.079012394 0.07121461 -0.14188008 -0.050962694
0.09522604 0.007613469 -0.16585723 0.005121708 -0.06716484 0.1592178 -0.0127735585 -0.074359216
-0.04066184 0.058771465 -0.043290667 0.033564623 0.019290201 0.094521806 0.062611684 0.090296105
-0.007770384 -0.04203663 0.07209241 0.031595487 -0.06095628 0.034214992 -0.0039795977 0.08578574

gat_net.1.scoring_fn_target f4 [1, 1, 7]
00000000: 3bd8 acbd 840f a23d 5dcf febd 7856 fd3b
00000010: 5914 06bd 9a1d b4bc c63b 70be
-0.0843968 0.079131156 -0.12441895 0.007731255 -0.03273425 -0.021986771 -0.23460302

gat_net.1.scoring_fn_source f4 [1, 1, 7]
00000000: 2f28 7c3e 64bd 913e c9bf 4b3e b7e3 7d3e
00000010: 406a 653e 1d83 5c3e 7345 033e
0.24624704 0.28464806 0.19897379 0.24793898 0.22403812 0.21534391 0.12819462

gat_net.1.bias f4 [7]
00000000: f30c f03c c658 bfbd 7f0b e6bc 9be1 24bb
00000010: ec22 bbbc 12ef 7f3d 92d9 6d3d
0.02930305 -0.09343104 -0.028081654 -0.0025158885 -0.0228438 0.062483855 0.05806882

gat_net.1.linear_proj.weight f4 [7, 64]
00000000: 6e5d f33e 524d 3cbf 9db0 18bf 8563 fe3e
00000010: 9c24 24bf f4c7 0e3f d80a 27bf 3aee fabe
00000020: 359f 003f 7467 38bf ad77 653e 71f6 743e
00000030: 9056 5d3d 3eab 483e c5a0 0e3f 4298 1c3f
00000040: c0e4 423f 9797 5f3f 188b 15bf 8384 753f
00000050: 8426 833e feef c3be 6934 21be cd50 3bbe
00000060: 0da9 01bd a679 4e3f d8d3 54bf 8513 0cbf
00000070: 32b4 013f 36cd 5abf 9586 43bf fe2b c03d
00000080: a416 04bf 9e34 2cbf a5d2 23bf 2c47 81bf
00000090: f403 993e b647 5fbe 0548 3fbf 0f78 dabe
000000a0: 215e 1dbf 8276 cb3e 8cb2 e7be a726 6d3d
000000b0: 5a96 e63d 7698 f9be 94f6 f8be d799 5dbf
000000c0: a027 22bf 8757 783e c66f 92be 5021 243e
000000d0: 6bd6 d23e 0a8e 0ebf 3ff0 45bf 86ad 243e
000000e0: 0352 06bf be2b 013f 3766 053f 13ef 1bbf
000000f0: c7d2 063f 6f3d 3c3f 0d01 febe 35c3 433f
00000100: 848b 82be f71d 313f 1793 f53e ea1d f53e
00000110: 30a5 e1be 8296 12bc 43d2 1a3f 33f3 203f
00000120: 0c06 4b3f 7138 833e 5b91 6bbf 1712 fe3d
00000130: 2040 a7be 77bc 1cbf dcd0 bc3b cf61 2cbf
00000140: d0a7 59bf 93ac f5be 07a7 283f 62b7 233e
00000150: 9aa4 edbe 5362 973e 526b 7cbf 5934 4a3f
00000160: 9888 3bbf 5689 a83e 07ca ea3e 0dc2 0cbf
00000170: 1570 333b 3ff0 aa3d 2594 3dbf 24f7 213f
00000180: aaea 0a3f 1aee 22bf 6f08 19bf 281b 0d3e
00000190: 7571 0e3f 11a3 c13e 7675 293f 35e4 643f
000001a0: 5226 3d3f 2ced 77bf fbb3 303f af63 11bf
000001b0: 3392 f5bd b76a 5fbf 2b0e 42bf 5bfa 23bf
000001c0: 6d94 063f c38f 1cbf ed1d 373f 69f0 4dbf
000001d0: 6728 38bf e597 b7be 62e4 6dbf f150 07bf
000001e0: 2447 a73e 931c d93e c667 55bf 3fc0 2c3f
000001f0: 22cb b03e bf43 00bf 402f dd3e 913c ef3e
00000200: 5037 023f 05cf 16be fbaf bfbe 1c18 0c3f
00000210: e6c5 eb3e 77a7 1ebf dc53 54bf e219 51bf
00000220: 9542 75bf 7e56 d5be e24b 373f 7af0 f83e
00000230: ab07 09bf 9b28 323f 9b1e e4be 5cf9 40bf
00000240: 44c0 1a3f 13f7 04bf dd01 f03e 61e4 33bf
00000250: 496d a9be 05d5 573d f054 d63e bf4e 27bf
00000260: 3da6 7abd 484d da3e 4847 273f 0254 5e3d
00000270: 6be8 59bf 9622 b5be f7a4 bc3e 303f ea3e
00000280: 9075 023f dcfb 88be 466a dd3e a8de eb3e
00000290: 14d2 09bf cd35 d9be f080 173f a9fa e23e
000002a0: 5730 80be d05d 4abf 1926 233f 0fe4 afbe
000002b0: a6a5 fabe dc74 223f b1ea 13bf a538 293f
000002c0: 2a99 fb3e 8b69 e3be e6e4 49bf 5357 0fbf
000002d0: 231d a5be 80ab e3be e123 433f 0c1d 38bf
000002e0: 948a cebe 9942 60bf a9bc 46bf 1af2 43bf
000002f0: 4e07 56bf d3bc 593f 3f2b 88be d63b 5fbf
00000300: e717 24bf 290b 073f 44c9 6d3f d302 5fbf
00000310: 77a1 153f 5162 373f 75d5 47bf 4021 f03e
00000320: d9ef 0ebf 5ac9 c0be 343b 003f 131e 65bf
00000330: 61da 0abf 84b0 10bf fc9e 2c3f ded5 dd3e
00000340: d3f4 1fbf a7dc 6b3f fc4e 183f 9028 87be
00000350: 497f 0cbf 5b17 913e 3cea 303f e9a7 f73e
00000360: 3d87 813f 4a34 a8be 9099 873e 8c96 1c3f
00000370: 08e4 023f fc83 4d3e a649 69bb 8cdc 1ebf
00000380: d38b 15bf f8d1 d6bd dde8 e4bd b8aa 813e
00000390: c82e 85bd 3607 2dbf 4d56 e5bd 81fb cfbe
000003a0: bfa7 28be be78 9ebe 6459 a13e 907e 513f
000003b0: a05b 98be bc46 0fbf 62f9 e2be c7de f13d
000003c0: 32ee 1bbf b8be 2ebf 107f 31be fc83 3dbf
000003d0: 9c3d 3c3f 8b13 603f 40e3 db3e 09e9 ba3e
000003e0: 09b7 e23e cddc 1e3f 29d5 7c3e 772e b83e
000003f0: 33e5 31be 696d b63e f815 3c3f b280 13bf
0.4753222 -0.7355548 -0.5964449 0.49685302 -0.6411836 0.55773854 -0.6525092 -0.49009877
0.5024293 -0.72032857 0.22408934 0.23922135 0.05403763 0.19596574 0.55714065 0.61169827
0.76130295 0.8734068 -0.58415365 0.9590532 0.25615323 -0.38269037 -0.15742649 -0.18292542
-0.03165536 0.8065437 -0.8313575 -0.54717284 0.5066558 -0.8546938 -0.7637723 0.09383391
-0.51597047 -0.6726779 -0.63993293 -1.0099845 0.29885828 -0.218047 -0.7471927 -0.42669722
-0.61471754 0.39738852 -0.45253408 0.05789819 0.11259146 -0.4874913 -0.48625624 -0.86562866
-0.6334171 0.24252139 -0.286009 0.16028333 0.41179213 -0.55685484 -0.7731971 0.16081819
-0.5246889 0.5045737 0.5210909 -0.60911673 0.5266537 0.7353124 -0.49610177 0.7646974
-0.25497067 0.6918635 0.47963783 0.47874385 -0.4407134 -0.008947017 0.60477084 0.6287109
0.793061 0.25629 -0.9201867 0.12405794 -0.3266611 -0.61225075 0.0057622027 -0.67336744
-0.85021687 -0.47983226 0.65879864 0.15987924 -0.46414644 0.29567203 -0.9860126 0.78986126
-0.732553 0.3291728 0.4585726 -0.549836 0.0027380039 0.083466046 -0.74054176 0.6326773
0.5426432 -0.63644564 -0.59778494 0.1377989 0.5564187 0.37819722 0.66194856 0.89410716
0.738866 -0.9684627 0.6902463 -0.5679273 -0.11990776 -0.8727221 -0.7580287 -0.6405389
0.5257023 -0.6115686 0.7153004 -0.8044496 -0.7193665 -0.35858074 -0.9292661 -0.5285788
0.32671463 0.42404613 -0.8336147 0.67480844 0.34529978 -0.5010337 0.4320011 0.46725896
0.5086565 -0.14727409 -0.3743895 0.5472429 0.46049422 -0.6197428 -0.8294046 -0.8168012
-0.9580472 -0.4166755 0.71600163 0.4862097 -0.53527325 0.6959321 -0.445546 -0.7538049
0.60449624 -0.51939505 0.46876422 -0.70270354 -0.3309119 0.052693386 0.41861677 -0.6535453
-0.061193693 0.42637086 0.6534314 0.054279335 -0.85120267 -0.3537795 0.36844608 0.45751333
0.50960636 -0.26754653 0.43245143 0.4606831 -0.5383618 -0.4242386 0.5918112 0.44331864
-0.2503688 -0.79049397 0.6373001 -0.34353682 -0.48954505 0.63459563 -0.57779986 0.6610206
0.49140292 -0.4441646 -0.78864896 -0.5599262 -0.32248792 -0.44466782 0.7622662 -0.7191932
-0.40340102 -0.8760162 -0.7763162 -0.7654129 -0.83604896 0.8505375 -0.26595494 -0.8720068
-0.6409897 0.52751404 0.9288523 -0.87113684 0.584495 0.71634394 -0.78060085 0.46900368
-0.5583473 -0.3765362 0.50090337 -0.89499015 -0.5423947 -0.5651934 0.6743009 0.4332723
-0.6248295 0.92133564 0.5949552 -0.26398134 -0.5488172 0.2833813 0.69107413 0.48370293
1.0119396 -0.32852393 0.26484346 0.61167216 0.511292 0.2006988 -0.0035596876 -0.6205528
-0.5841648 -0.10489267 -0.11177228 0.2532556 -0.065030634 -0.6758913 -0.11198101 -0.4062157
-0.1647024 -0.30951494 0.31513512 0.81833744 -0.29757404 -0.5596731 -0.4433089 0.118100695
-0.6091033 -0.68259764 -0.17333627 -0.7402952 0.7353151 0.8752982 0.42946815 0.36505917
0.4428027 0.62055665 0.24690689 0.3597295 -0.17372589 0.35630348 0.7347102 -0.5761825
