python/binarypath/binaries/gat_000020.pth (torch, 372431 bytes, 8 tensors)

gat_net.0.scoring_fn_target f4 [1, 8, 8]
00000000: 80f7 3e3d 1d6c b5ba 2892 273d 4edc 2a3c
00000010: a362 9a3d f7ea a33c 5b91 7e3d 6671 5fbd
00000020: 185a e4bc 4394 5dbc 32ac 4abd b25a feba
00000030: 5669 3b3d 41cc 803d b3be 7b3d dc7e 143d
00000040: d3b2 ac3c 6dca 1cbd 6c40 2eb9 076d 6b3d
00000050: 9c52 8cbd 1e19 6cbd a6b5 60bd 6073 a8bd
00000060: e534 22bd 7dd5 6dbd 8f0e 5abd ad9b 243b
00000070: 98cc 203d 25e1 1c3c fc09 28bd 0d31 95ba
00000080: ca0a 10bc 983e 243d 4691 463d c8e9 843d
00000090: ad08 8e3c afcc aa3d f217 153d 7831 1fbd
000000a0: a0c4 45bd d0f1 cb3c d2ba c73c 2071 413d
000000b0: 586a 093d e6ef b63c ca89 1d3d cc1c 03bc
000000c0: b7d9 7b3c be03 7e3c 4be0 9e3c 1cbb 853c
000000d0: eaff 83bb 08a9 6d3c 703d a53c f9d2 833d
000000e0: a5cc 2abd c20d d03c d1de e23c 3e6e 2a3c
000000f0: 40c3 8ebc ac6b 52bd dcfc a23b 2b71 dc3c
0.046622753 -0.0013841424 0.04091087 0.010428501 0.07538345 0.0200095 0.06215034 -0.054551505
-0.027874991 -0.013524118 -0.049480624 -0.0019405691 0.045754753 0.06288958 0.06146116 0.036253795
0.021081364 -0.038278986 -0.00016617932 0.057477023 -0.06851694 -0.05764114 -0.054860733 -0.08225131
-0.039601225 -0.058064926 -0.05323654 0.0025117204 0.039257616 0.009575163 -0.041025147 -0.0011382416
-0.008791635 0.040098757 0.048478387 0.06489903 0.017338121 0.083398215 0.03639979 -0.038865536
-0.04828322 0.024895579 0.024381075 0.047227025 0.033548683 0.02233119 0.038461484 -0.008002471
0.0153717315 0.015503822 0.01939406 0.016324572 -0.00402831 0.014505632 0.020170897 0.06436724
-0.04169907 0.025397185 0.027694138 0.01040226 -0.017427087 -0.051372215 0.004973991 0.026909431

gat_net.0.scoring_fn_source f4 [1, 8, 8]
00000000: 6d06 493e 1e82 35be e941 313d 42c4 c4bd
00000010: 4f97 a43d 2b15 353e e839 053e 9fc0 81be
00000020: 8d58 913c 286e f23c c0bf 1ebe 08ab 003e
00000030: 76e4 6c3e 4892 b23c 6b2a 2e3e 3188 0f3e
00000040: 90a6 9b3d df22 90bd 5fda e13d af02 6a3e
00000050: 7246 26be 96c5 cabd 189a 013d 398f 19be
00000060: d10e 9bbd 376a 86bd 2835 12be 6315 dc3d
00000070: c170 053e 313c aa3d 47f0 11be c6be 393d
00000080: 9c11 87bd d820 043e 340e 563e 4068 203d
00000090: 3807 613e bcb2 b43e 1a9a 1ebd 4f95 debd
000000a0: 42d0 08be 30b1 103e aedf 003e bc7e 063e
000000b0: a4d8 bd3c 95f9 ff3d b33e bb3d 4a79 08be
000000c0: dc59 6dbc 7ca5 413e 5b35 3dbe 50a7 67bc
000000d0: 4d18 443e 62a4 1a3e a07a 303e 4e9c 463d
000000e0: e8d8 76bd d208 f13d 9473 d33d 7d0f 183e
000000f0: 17e6 92be 4b37 63bc ec7c 223d fb32 b03d
0.19631357 -0.17725417 0.043275747 -0.09607746 0.08036672 0.17683856 0.1301037 -0.2534227
0.01774242 0.029593542 -0.15502834 0.12565243 0.23134026 0.021798268 0.17008369 0.14016797
0.07600129 -0.07037901 0.11027979 0.22852586 -0.1623781 -0.09900968 0.031641096 -0.14996041
-0.075711854 -0.065632276 -0.1427809 0.10746267 0.13031293 0.08312262 -0.14251815 0.04534795
-0.065951556 0.12903154 0.20903856 0.03916192 0.2197541 0.35292614 -0.03872118 -0.10868322
-0.13360694 0.14130092 0.12585327 0.13134283 0.023174591 0.12498776 0.09142818 -0.13327518
-0.014486756 0.18910784 -0.18477385 -0.0141390115 0.19149895 0.1510177 0.17234278 0.048488908
-0.06026545 0.117692605 0.10324779 0.14849658 -0.2869117 -0.013868163 0.039669916 0.08603474

gat_net.0.bias f4 [64]
00000000: 0a06 bb3b acdd b13b 95ff a13c f412 403d
00000010: ab8b 053d dc93 bb3c 34bb 8d3b b126 01bc
00000020: cb6b 50bb b878 d7bc 98f5 22bc ad1c c63c
00000030: 7551 cf3c 82b2 dd3c 6945 54bc 4c73 c63c
00000040: 3266 9239 fe52 f53c 356d 663c 9758 1ebc
00000050: 2db9 063b 4878 5dbd a2fc cd3a e0d9 c9bc
00000060: 6644 313b 9114 c5bc 9a13 013c 0320 e63a
00000070: eaf4 42bc 40b9 d23c d16d 113b e757 483c
00000080: 5571 d6bb 021e 06bd ecb1 6cbc a2bb fc3b
00000090: a190 0bbb 9c76 6c3c 9b8b 803c 58f1 563c
000000a0: ce72 453c 92d3 253b 3b09 1e3d 9174 debc
000000b0: 209d c1bb 0e97 a53b 9ce7 b0ba 05f9 babc
000000c0: e9cb 5e3d 9eb9 303b d319 acbb eed9 febc
000000d0: 9704 c8bc b915 803c 9cfb a1bc bf6a a7bc
000000e0: f996 12bd 60b9 cabc 48c6 53bb 60f6 2e3c
000000f0: 3766 02bc c844 7cbb 0dee 033d 1b5e 563c
0.005707507 0.0054280367 0.019775191 0.046893075 0.0326039 0.022897653 0.004325295 -0.00788276
-0.003180253 -0.02630268 -0.009946249 0.024183596 0.025307396 0.027062658 -0.012956002 0.0242249
0.00027923431 0.0299468 0.014064123 -0.009664676 0.002055715 -0.054069787 0.0015715549 -0.024640024
0.0027048825 -0.024057658 0.0078782085 0.0017557148 -0.011899212 0.0257231 0.00221907 0.012227989
-0.006544272 -0.03274346 -0.014446717 0.0077127973 -0.0021295922 0.014432576 0.01569157 0.013119064
0.012051297 0.0025303108 0.03858302 -0.027155193 -0.0059086233 0.0050534075 -0.0013496759 -0.02282382
0.054393683 0.0026966105 -0.005252102 -0.031109776 -0.024416251 0.015635358 -0.019773297 -0.020436643
-0.03578851 -0.024746597 -0.003231423 0.010678858 -0.00795894 -0.0038493145 0.032209445 0.01308396

gat_net.0.linear_proj.weight f4 [64, 1433]
00000000: 4f2b eebc 5143 e7bd b4d8 ec3a 2271 263d
00000010: eef9 1dbe 15ab 263d edae bd3d 615e 6abd
00000020: e00d 29bd 1011 343c 82a1 803c 505b 303d
00000030: aa15 20bd ac75 9cbd 5be8 c2bd b4f1 d63a
00000040: 3c04 c43d 7288 9cbb c660 02bd 1de4 3e3e
00000050: 8c88 0339 8c81 8cbc 8943 433b 5d17 c9bb
00000060: 035c 59bc 9c1f 473d f12e 833d 98e5 ccbd
00000070: b04d dabc 16b8 82bb faf2 8cbd 3011 6cbc
00000080: 3b06 a83c 6b65 0e3b 622d e0bc 582a d4bd
00000090: 10e7 813d 17ee 66bc 3f59 4fbd d947 b2bc
000000a0: b7cf ccbd 587e 07be bb77 e73c 9e97 3dbc
000000b0: d2a8 efbb ba77 f1bd 062c 6bba f06c 0fbc
000000c0: 71b7 9b3d e39f e8b9 2dbf 1cbe 5153 cf3d
000000d0: c31c 903c 5adc 873b fac0 d43c 7eac a33d
000000e0: e870 f23d 0ba0 27bd 1f4e 3a3d 2c6f 83bd
000000f0: 1b40 09b7 2359 193e dd84 e5bc 7a40 893d
00000100: a781 99bd 481f 87bd 7b07 fabc 4682 743d
00000110: 3bfd debc 7518 b13c 089c 063d 4018 d03b
00000120: 1a4f 023c b600 a53d e014 9cbd d06c a13d
00000130: 5029 1ebe 7e99 f23d a20a 4dbd 117e 143d
00000140: 1335 f5bd 1262 423c 97e8 30be cdf4 d6bc
00000150: 3463 3fbd a7e5 c03d a677 3bbd e626 56bb
00000160: e02f e83d 0f3a e23d 0359 c6ba f9da 90bd
00000170: b3f5 fcbc c7b2 cabd 1438 a0bb 18e2 b13d
00000180: 6a1b 3c3d c389 9b3d 6b00 9cbc adfb 433e
00000190: d8a8 933d 27ce 6e3d 7a8f 883d 71b3 af3d
000001a0: 8e80 443d 773b ee3c 7a60 acbc 80e7 86bc
000001b0: deae d1bd 3959 a5bc 67b9 173d e860 803a
000001c0: a016 67bd 08c3 4abb 9068 6eb9 4d07 5a3d
000001d0: c647 76bd b8f9 24bd 07cc 6cbc e8b6 6cbd
000001e0: 7671 8bbc bec2 c8bc 658b 02bd 77c7 00bd
000001f0: 09c0 113d 6556 033e 1a42 af3d 0cfb fa3c
00000200: 5d01 e23d dd59 2a3d 6a55 783d 1f72 d93d
00000210: d087 17bb d35f 933d 22eb 08bd 1a80 083e
00000220: b5ae a43d 2645 f53a 736a 233d 7825 a9bd
00000230: b50b 763e 790b 673c 71e1 513d cadc 183d
00000240: ce6d 63bc 8792 91b9 30e9 d13d 754d 04bd
00000250: 4d91 d33a 18e8 b1bc f8a1 1cbc b407 cebd
00000260: 0515 4fbd bac3 b33c f0b7 963c 8cea 173d
00000270: 417d 9abb 32b3 e73b 0c0a d23c 8529 b23c
00000280: 5ebf f33c d00a 433a 5612 103d 17f0 c83c
00000290: 0b04 a33c ee8e 1c3c a03a cdbb 3554 533d
000002a0: 9d69 e0bd adf1 a73d dde6 a9bc d4b3 843b
000002b0: 0391 c1bc 23aa 893d 40da fabd b2c5 60bd
000002c0: 21ca 7b3c 87ab 05bc d39f c3bb 8de7 ed3d
000002d0: d7ae 003a 1fe0 153d 90b2 3d3d cb97 9fbc
000002e0: b739 7e3c 6b1a 6dbb decf a9bd 8b10 bdbd
000002f0: 1872 26bd 2710 12bd e842 6cbd 44eb 4b3d
00000300: 0953 7ebd e58c c63c 953d b3bc c65b 37bc
00000310: be15 8cbd 6036 1bbd d82f 153b 81a8 963c
00000320: f7b2 89bc 26ab 073c d4b9 8fbd 1ffe 0a3d
00000330: f3da b33a 6afa a83d 0ab7 48bd 9a4e 9b3a
00000340: eb97 d6bb 549c 3dbc 8d66 e9bc 0db6 20bd
00000350: 7492 e23b f9d2 873c 465c 9f3d ffff 45bc
00000360: 2b15 053c 8eb3 c73d 8223 e23c a442 5a3d
00000370: 363f 4d3d 97b8 40bc 22b8 673c 8122 923d
00000380: 4b36 9ebd 2acf 0e3e fcfb 84bc ff7e 853d
00000390: 4a7e 0dbd adca f439 d84d cdbc 1bc4 1abd
000003a0: 5373 1e3d 39ec 723b 2edc 88bd 4ad0 213c
000003b0: 519e 68bd 293a 293e 0d05 bb3d c1fd dabb
000003c0: 1522 de3c c64d 083c c8b0 5abc d088 e738
000003d0: 2afc 153c 9978 423d 3c15 34bb e611 213d
000003e0: d376 113d ca39 8bbd 06b0 0b3d 2df2 9cbd
000003f0: 40ef 663d ceef 453c 9eb3 d3bd c3f8 83bc
-0.029073386 -0.112921365 0.0018069954 0.040635236 -0.15427372 0.0406905 0.0926188 -0.057218913
-0.041272998 0.010990396 0.015702013 0.043055832 -0.03908316 -0.07639632 -0.095169745 0.0016398937
0.0957112 -0.0047770077 -0.03183057 0.18641706 0.00012544001 -0.017151617 0.0029794893 -0.0061368183
-0.013266566 0.04861413 0.06405438 -0.10004729 -0.026648372 -0.00398923 -0.068822816 -0.014408395
0.020510783 0.002172793 -0.02736539 -0.10359639 0.063429 -0.014094851 -0.05062222 -0.021762775
-0.10000556 -0.1323179 0.028255334 -0.011571793 -0.007313826 -0.11790414 -0.00089710986 -0.008754
0.07603348 -0.00044369613 -0.15307303 0.10123313 0.01759184 0.004146141 0.025970925 0.07991885
0.118379414 -0.040924113 0.04548466 -0.06417689 -8.180762e-06 0.14975409 -0.028017456 0.06701751
-0.07495432 -0.06597763 -0.030521145 0.05969455 -0.02722036 0.021618107 0.032863647 0.006350547
0.00795343 0.08056776 -0.07621169 0.078820825 -0.15445447 0.118456826 -0.05005897 0.03625304
-0.11973014 0.011864202 -0.17276226 -0.026239777 -0.046725467 0.09418803 -0.045768403 -0.0032676994
0.113372564 0.1104623 -0.0015132729 -0.07073016 -0.030878877 -0.0989738 -0.0048894975 0.08685702
0.04592458 0.07594635 -0.019043168 0.19138975 0.07209939 0.05830207 0.06667991 0.085791476
0.04797416 0.02908109 -0.021042097 -0.01646781 -0.102384314 -0.020184146 0.037042048 0.0009794505
-0.05641806 -0.0030939002 -0.00022736401 0.05322962 -0.060127042 -0.040277213 -0.014452941 -0.05779162
-0.017021876 -0.024506923 -0.03187122 -0.031440224 0.03558353 0.12825926 0.0855753 0.030637287
0.11035416 0.041589607 0.060628332 0.1061747 -0.0023121722 0.071960114 -0.033427365 0.13330117
0.08041135 0.0018712624 0.03989644 -0.082591 0.24027903 0.014101856 0.05124039 0.037319936
-0.01388116 -0.00027765727 0.10249555 -0.03230043 0.0016141325 -0.021717116 -0.009560101 -0.10060063
-0.050557155 0.021943916 0.018398255 0.037088916 -0.0047146385 0.0070709223 0.025639556 0.021748314
0.029754337 0.0007440271 0.035173737 0.024528546 0.019899389 0.0095555615 -0.006263092 0.051593978
-0.10957644 0.08200393 -0.020739967 0.0040497575 -0.023628717 0.06721904 -0.12248659 -0.054876037
0.0153680155 -0.008158571 -0.0059699803 0.116164304 0.00049088657 0.03659069 0.04631287 -0.01948156
0.01551669 -0.0036179076 -0.08291601 -0.09231671 -0.040636152 -0.035659935 -0.057680994 0.049784914
-0.062090907 0.024237106 -0.02187995 -0.011191314 -0.068400845 -0.037893653 0.0022764113 0.018390896
-0.01680897 0.008280551 -0.07017866 0.033933755 0.0013721868 0.08250888 -0.049002685 0.0011848987
-0.0065488718 -0.011572916 -0.028491283 -0.039236117 0.006914431 0.016580092 0.07781272 -0.01208496
0.008122723 0.09751044 0.027604822 0.05328621 0.05010911 -0.01176276 0.014143022 0.07135487
-0.07725199 0.13946214 -0.016233437 0.06518363 -0.034544267 0.00046690312 -0.025061533 -0.037784677
0.0386842 0.003706707 -0.06682621 0.00987632 -0.056791607 0.16526093 0.09131823 -0.006683082
0.027115861 0.008319324 -0.013347812 0.00011040422 0.009154359 0.047478292 -0.0027478477 0.03932371
0.03551371 -0.06798132 0.034103416 -0.07663379 0.05638051 0.0120811 -0.10336994 -0.01610983

gat_net.1.scoring_fn_target f4 [1, 1, 7]
00000000: 30a5 7fbd f212 aa3d 7e79 9f3e 5e4a 1dbe
00000010: 24f6 803e f8b4 a13d b698 93be
-0.062413394 0.08304395 0.3114738 -0.153604 0.2518779 0.07895845 -0.28827447

gat_net.1.scoring_fn_source f4 [1, 1, 7]
00000000: 7cec 8cbe 86a9 d1bb 9052 4c3f e6b7 aebd
00000010: fc56 123f 3b32 1d3f 6dee 92be
-0.27524173 -0.0063983826 0.7981348 -0.085311696 0.5716398 0.6140477 -0.2869753

gat_net.1.bias f4 [7]
00000000: b1e2 ea3d f50e f23d ce7e e5bd 4f49 98bc
00000010: 43f1 dabd febd 1ebd e3a9 8b3d
0.11469019 0.11819259 -0.11205827 -0.018589644 -0.10690548 -0.03875541 0.06819513

gat_net.1.linear_proj.weight f4 [7, 64]
00000000: c105 923e 2d9f 54be debf b73e b13c 5ebe
00000010: 045a 00bf 53ae c5bd f2e9 a1bd ea9a 183f
00000020: 7a82 333e da2b e93e ab34 973e 9386 d3be
00000030: 431b 5b3e 2001 efbd c93c d3be 848e 1bbe
00000040: 5a5d 36be b5fb c03e b45a b6be 7895 e73c
00000050: a145 ff3d 1b42 b13e 4f51 c9be 35d4 43be
00000060: ff86 933e ee91 14bf f501 b3be 5e06 acbe
00000070: c22d f93d 32f6 8e3e 628a 383e e83d ccbe
00000080: 6672 35be 1406 b63d 5236 8ebe 62e3 fdbe
00000090: 9211 9cbe b177 86be bf0a c43e b125 7cbe
000000a0: a5d6 d13e 799c 96bc 008c 11bf b6f7 a2be
000000b0: 5b8a a0be c787 583e 985b ebbd 56c4 e3be
000000c0: de10 033f 6c8c 07bf 2af6 f43e 3370 a7be
000000d0: 281f dabe d78a 693d c6dc b9be 7ca4 1cbe
000000e0: ff4d 7c3e 724c d5be 623a 1abc 6d8f 97be
000000f0: 7c40 173f 5b62 8b3e 73b4 8b3e 84ed 293e
00000100: f0ce 9cbe d326 b83e 6b54 8cbe 5c94 d53e
00000110: 3fa3 f3be c9a7 9a3e 7a1c 8c3e e06d 223e
00000120: a7af 93bc 25a9 13bf 1f7a e7bd 6768 de3d
00000130: a376 79be eb1c ec3e 22f4 973b 243b d43e
00000140: 33c5 e93c 0afe 013f 5a15 9ebe 9b5b 9e3e
00000150: ca0d 0abe a7fd b43d de8c dd3e c2a1 f13e
00000160: f087 0e3e d716 1a3e 0c17 f63e 6816 0f3f
00000170: e564 afbe 3384 09bf a5c0 1e3f 4c08 27bd
00000180: 60f8 8b3e b6ba 043f 3194 3d3f 6b9b 14be
00000190: 87fc c23e 41e9 f03e 73fc fe3e bf39 593e
000001a0: 09d1 10bf cc5a 1b3f 5927 903e 8b61 0b3f
000001b0: 4dcb 803e cc89 cebe 81f4 fdbe bfd1 b43d
000001c0: 5264 bfbe 91a1 fc3e ec70 623d cb26 2a3e
000001d0: 11ba f33e e638 05bf b54a 903e f932 703e
000001e0: 13a2 0e3f 9bef b23d a595 edbe 7833 d9be
000001f0: b742 f13e c8bb d2bd 68be 19bf 1b96 05bf
00000200: ea46 ec3e 1561 a2be 52d4 58be a7e4 8c3e
00000210: b948 653e 432c df3e fa04 2d3e 67f1 04bf
00000220: a29e f5be 802c 7dbe 3375 83be b255 083f
00000230: 3558 833e d6b1 ef3e e900 dc3e 6c29 9fbe
00000240: 48a6 0e3f 4e32 013b d54c 5a3e f529 9abe
00000250: 22cd 00bf d0b8 f7be 9fdd f6be e7db 16be
00000260: 3947 8a3e d0f7 fb39 7cc7 e7be 93e6 b6be
00000270: 0a44 d63e c92d 56bd 0a0a debe 6ea9 ca3e
00000280: 0aca c4be bf4d 0b3f 081e 403d ea0f af3e
00000290: 2a79 663d efa0 ad3e 0e2f f4be fa83 a9be
000002a0: 633f 01bf c3e6 0d3f 8095 bd3d 1bec 723e
000002b0: bc0d 033f 2049 a83e 2ff3 923e 19bc 03bf
000002c0: 3814 1abe 5c53 d83e 0a81 8abe 283c f33e
000002d0: b374 803e fc0a ef3e 5e7d aa3d 3f5e d73e
000002e0: db2b 0d3d b712 18bd ed4e 93be c5ea d3be
000002f0: 6f57 90be 8fe8 f0be 0839 bcbc 6c74 843e
00000300: 2de6 a33e 5c1d 4cbe b2f0 943e 1d69 853e
00000310: 67c0 0b3e 05a8 aabe 2789 bd3e 17f2 84bd
00000320: b048 8dbe eaa0 773c 037b f2be f2c9 d13c
00000330: b562 163e bb74 4fbe 2cdb e9be 8137 e53d
00000340: c892 ebbd 7ae9 753e dbae b33e b7db 433e
00000350: 5adc 9f3e d005 94be bc84 b0bc 64ea 083e
00000360: 7d97 7abe 92b4 793e 9fc5 013f bec0 763e
00000370: 6b7e d93d 2eba f1be 321d d33e 4465 863e
00000380: c900 ec3e baf8 123e 0a63 abbe 4fba 4dbe
00000390: 8d0a 723d 7195 f3be 8570 8cbe 0146 c93e
000003a0: a044 f2be 9134 fbbd 6318 d03d 4e82 393d
000003b0: 8db9 11bf 8231 683e 84ee 72be 87a3 8abe
000003c0: 8e71 633e 7c40 b13e 0f0e 5c3e 5b10 92be
000003d0: f23e f93d 063a 9f3e cd9e b3be f69e 02bf
000003e0: f450 c2be 3aa9 363e 5ba2 5e3e a6fd 933e
000003f0: 2b47 babd 1844 24be 2903 943e ddc3 70be
0.28520015 -0.20763846 0.3588857 -0.2170284 -0.5013735 -0.0965239 -0.0790595 0.5961138
0.17530242 0.4554127 0.2953237 -0.4131361 0.21397118 -0.116701365 -0.41257313 -0.15191084
-0.17809048 0.37692037 -0.35616076 0.028269514 0.124644525 0.34620747 -0.39319846 -0.1912392
0.2881393 -0.5803517 -0.3496243 -0.33598608 0.12166931 0.27922207 0.18021539 -0.3989098
-0.17719421 0.08887878 -0.27775818 -0.49587542 -0.30482155 -0.26263192 0.3828945 -0.24623753
0.40984073 -0.018385159 -0.5685425 -0.31829613 -0.31355557 0.21145545 -0.114920795 -0.4448573
0.5119761 -0.5294864 0.47844058 -0.3270279 -0.42601895 0.057017174 -0.3630125 -0.15297121
0.24639128 -0.41659886 -0.009413334 -0.29601613 0.5908277 0.27223477 0.2728611 0.16594511
-0.3062663 0.3596712 -0.27408156 0.41714752 -0.47585484 0.30206135 0.27365476 0.15862226
-0.018028094 -0.5767997 -0.113025896 0.10859757 -0.24361663 0.46115813 0.004637257 0.4145137
0.028536415 0.5077826 -0.30875665 0.30929264 -0.13481823 0.08837443 0.43271536 0.47193724
0.13919044 0.15047775 0.48064458 0.55893564 -0.34256664 -0.53717345 0.620127 -0.040779397
0.27337933 0.518474 0.7405425 -0.14512412 0.38083288 0.4705296 0.49801978 0.21213435
-0.5656896 0.6068542 0.2815502 0.54445714 0.25155106 -0.40339506 -0.49600604 0.088290684
-0.37381226 0.49342015 0.055283472 0.16616361 0.47602895 -0.52039945 0.28181997 0.23456945
0.55716056 0.08737107 -0.46403232 -0.4242208 0.47121212 -0.10289723 -0.6005616 -0.5218217
0.46147853 -0.31714693 -0.21174744 0.27518198 0.22391023 0.43588457 0.1689643 -0.5193085
-0.4797259 -0.24724007 -0.25675353 0.5325576 0.25653234 0.46815366 0.42969444 -0.3108629
0.55722475 0.0019713822 0.21318372 -0.30110136 -0.5031301 -0.48383188 -0.48215958 -0.14732324
0.27007464 0.00048059085 -0.45269382 -0.3572279 0.41848785 -0.052289758 -0.43367034 0.3958239
-0.38435394 0.54415506 0.04690364 0.3419183 0.056267895 0.33911845 -0.4769215 -0.33108503
-0.50487345 0.5543024 0.092570305 0.2372288 0.5119283 0.3286829 0.2870116 -0.5145889
-0.15046775 0.42251098 -0.27051574 0.47506833 0.25089034 0.46688068 0.08324693 0.42064092
0.034465652 -0.037127223 -0.28771153 -0.41390052 -0.28191707 -0.47052428 -0.022976413 0.25870073
0.32011548 -0.19933075 0.29089886 0.26056758 0.13647614 -0.33331314 0.370187 -0.064914875
-0.2759452 0.0151140485 -0.47359475 0.02560899 0.14686091 -0.20259373 -0.45675027 0.11192227
-0.11502606 0.24014845 0.35094342 0.19126783 0.31222802 -0.28910685 -0.021547668 0.13370663
-0.2447185 0.24385288 0.5069217 0.24096963 0.106198154 -0.47212356 0.41233212 0.26249135
0.4609435 0.14352694 -0.33473998 -0.20090602 0.059092093 -0.47574952 -0.27429596 0.3931122
-0.47317982 -0.122658856 0.101609014 0.045290284 -0.56923753 0.22675136 -0.23723799 -0.27077886
0.22211286 0.3461951 0.21489738 -0.28528103 0.12170209 0.31098956 -0.35082093 -0.51023805
-0.37952387 0.17837992 0.21741621 0.28904456 -0.090956055 -0.160416 0.2890866 -0.23512216
