python/binarypath/binaries/gat_000009.pth (torch, 372431 bytes, 8 tensors)

gat_net.0.scoring_fn_target f4 [1, 8, 8]
0.027304381 0.054187402 0.061663847 0.020858286 0.06539817 0.033503547 0.07524293 0.013290166
-0.11727128 -0.10605426 0.033721402 0.10093102 0.015336601 0.05395617 -0.00729965 0.03585626
0.09538832 0.048621774 0.058745652 -0.03552774 0.06201511 -0.012730282 0.005438399 -0.05530751
-0.032650314 -0.04614184 0.05236323 -0.1262614 0.081043355 0.02712401 0.04242562 -0.0967219
-0.07007745 -0.0277411 0.12912612 0.059527453 -0.032651205 0.016670171 0.066386916 0.0735907
-0.027430741 0.06922846 0.0520252 0.11422325 0.023488961 -0.05658008 0.072279274 -0.05411592
0.040700573 -0.065501526 -0.028679844 -0.022215394 0.06398114 0.066149265 -0.11030072 -0.08464992
0.032646745 0.013781796 0.005442039 -0.0031313538 0.094592676 0.062752865 -0.06940816 0.1422025
00000000: 70ad df3c 9cf3 5d3d 3b93 7c3d ffde aa3c
00000010: 7aef 853d 043b 093d f718 9a3d ffbe 593c
00000020: ed2b f0bd fa32 d9bd 741f 0a3d ecb4 ce3d
00000030: 5e46 7b3c 2501 5d3d e731 efbb 04de 123d
00000040: f45a c33d a027 473d 489f 703d 8985 11bd
00000050: 8e03 7e3d ac92 50bc 9934 b23b 218a 62bd
00000060: 56bc 05bd 3aff 3cbd d47a 563d ab4a 01be
00000070: 0ffa a53d 2c33 de3c 7dc6 2d3d 2216 c6bd
00000080: c484 8fbd 4e41 e3bc a339 043e 0fd3 733d
00000090: 45bd 05bd e28f 883c ddf5 873d b9b6 963d
000000a0: 6fb6 e0bc a7c7 8d3d 6018 553d e1ed e93d
000000b0: ec6b c03c 84c0 67bd 2807 943d a8a8 5dbd
000000c0: a5b5 263d aa25 86bd fef1 eabc 0ffd b5bc
000000d0: 8b08 833d 4479 873d 58e5 e1bd f05c adbd
000000e0: 98b8 053d 0bcd 613c 2253 b23b 6637 4dbb
000000f0: ceb9 c13d 9384 803d de25 8ebd 889d 113e

gat_net.0.scoring_fn_source f4 [1, 8, 8]
-0.10810169 -0.050142996 0.19255814 0.05563757 0.22545964 0.05067863 0.24725011 0.1188825
-0.3096513 -0.28783807 0.079910435 0.4030198 -0.17254564 0.26427457 0.103239864 0.17233726
0.120824955 0.20778288 0.17542273 0.20799984 0.14764507 -0.20670184 0.09563085 -0.22948058
-0.2688952 -0.043957204 0.2481681 -0.39519203 0.35690904 -0.26537544 0.14588307 -0.28690547
-0.1516828 -0.08570545 0.34219846 0.1339623 -0.07234629 0.2617781 0.29166228 0.30072987
-0.10140032 0.23093879 0.19001918 0.42646208 0.26817477 -0.26363972 0.19723108 -0.01159169
0.17399333 -0.12326642 -0.020918828 -0.14619842 0.22854558 0.32985583 -0.089697234 -0.18814974
-0.0740509 0.1235912 0.083124585 0.26862326 0.36402765 0.07811983 -0.16959237 0.3143287
00000000: 6b64 ddbd be62 4dbd f62d 453e 38e4 633d
00000010: e4de 663e 6594 4f3d 222f 7d3e ab78 f33d
00000020: 9d8a 9ebe 835f 93be 15a8 a33d 9c58 ce3e
00000030: ceaf 30be ff4e 873e 6c6f d33d 2e79 303e
00000040: 1373 f73d 09c5 543e 04a2 333e e9fd 543e
00000050: 4530 173e a6a9 53be 1bda c33d f5fc 6abe
00000060: a2ac 89be 780c 34bd c71f 7e3e 9c56 cabe
00000070: c8bc b63e 4adf 87be 5f62 153e 46e5 92be
00000080: bc52 1bbe 5786 afbd a334 af3e 6a2d 093e
00000090: 4b2a 94bd c707 863e c254 953e 44f9 993e
000000a0: f9aa cfbd 387b 6c3e 6394 423e 3d59 da3e
000000b0: 344e 893e c9fb 86be f2f6 493e 12eb 3dbc
000000c0: 4f2b 323e 1b73 fcbd f65d abbc 0ab5 15be
000000d0: da07 6a3e dde2 a83e 2fb3 b7bd 53aa 40be
000000e0: 00a8 97bd 621d fd3d 393d aa3d fd88 893e
000000f0: d561 ba3e 4afd 9f3d 9fa9 2dbe b1ef a03e

gat_net.0.bias f4 [64]
0.040627994 0.06983545 0.008950377 0.0036767442 0.037981924 0.0138071645 0.067438476 0.058088172
-0.02399666 0.015400961 -0.02006915 0.013402443 0.015031634 0.04721721 -0.04478595 0.013719973
0.025247395 0.034351293 -0.003963931 0.0102768615 0.028708775 0.017245704 -0.019750083 -0.008403556
0.03847441 0.0064599025 0.031618036 -0.009162196 0.016543325 -0.025419028 0.017098883 0.034482326
0.023909772 -0.022582633 0.047948677 0.0027197006 -0.004190799 0.005124521 0.025488388 -0.013128921
0.047971055 0.009897204 0.025826965 0.05234573 -0.0025187773 0.012617169 0.0103079295 0.05105211
0.0014204558 -0.034800887 0.060647935 -0.0077631 0.03916681 -0.009032166 0.03399453 0.01912875
0.016169542 0.008589362 0.0075454507 0.022642156 0.0015147941 -0.012071408 0.019657142 -0.0068065813
00000000: 8a69 263d e305 8f3d 9aa4 123c 88f5 703b
00000010: ef92 1b3d 7237 623c 2f1d 8a3d dded 6d3d
00000020: a594 c4bc 5054 7c3c 0f68 a4bc ec95 5b3c
00000030: 3e47 763c d566 413d 7971 37bd bdc9 603c
00000040: a0d3 ce3c f1b3 0c3d dde3 81bb 4860 283c
00000050: aa2e eb3c dd46 8d3c edca a1bc 12af 09bc
00000060: 5897 1d3d 97ad d33b ea81 013d 091d 16bc
00000070: de85 873c 913b d0bc f512 8c3c 573d 0d3d
00000080: 6dde c33c 37ff b8bc d565 443d 013d 323b
00000090: f852 89bb 99eb a73b 06cd d03c b01a 57bc
000000a0: 4c7d 443d e227 223c 1293 d33c 7a68 563d
000000b0: 1212 25bb 3eb8 4e3c 97e2 283c 041c 513d
000000c0: 962e ba3a 608b 0ebd f869 783d 9a61 febb
000000d0: 616d 203d a6fb 13bc d93d 0b3d e5b3 9c3c
000000e0: fd75 843c 65ba 0c3c d43f f73b 0b7c b93c
000000f0: 0e8c c63a 28c7 45bc 0408 a13c be09 dfbb

gat_net.0.linear_proj.weight f4 [64, 1433]
0.009349318 -0.24785736 -0.12570077 0.032371964 -0.12580602 0.021505173 0.049941573 -0.028204383
-0.04889321 -0.05595503 -0.0033892205 -0.05663094 0.0061854804 0.007104885 -0.11527652 0.07993613
0.03262353 -0.079040706 0.03909849 0.14109941 2.7731202e-30 0.016222255 0.0046950798 0.04915936
0.09793379 0.12430192 0.068048276 -0.01947593 -0.19611008 0.04924209 0.12763748 -0.0036187875
0.020606045 -0.0024004334 0.097665966 -0.16303547 -0.015483368 -0.024986371 -0.065281466 -0.0070100403
-0.2142481 -0.037696857 -0.013959366 0.07550461 -0.08317992 0.12560447 0.001363047 0.08356288
0.0076476866 0.012257612 0.011740127 -0.041241415 0.11609259 -0.018658444 -0.0653052 -0.07044614
0.18731129 -0.06589247 0.057647593 -0.09200095 -1.7047805e-29 -0.13111567 -0.03288209 0.08358224
-0.029688947 0.030233774 -0.023668064 -0.05900028 -0.03544078 -0.01887887 0.06889673 0.02526381
0.010876111 0.088301 -0.0485428 0.13367175 0.07079505 0.15698029 -0.17323986 0.035911247
-0.07262498 0.1936738 -0.17801611 0.04455133 -0.07723184 0.08109113 0.025991729 0.033871267
0.123496935 -0.0056613693 0.003073118 -0.03807607 -0.19341229 -0.10275285 -0.02344952 0.020721843
0.03232323 0.15740906 0.10458188 -0.12269218 0.0055161994 -0.054636385 0.035568137 0.1464129
0.12735069 -0.03770168 0.042522456 0.02064905 0.027513372 0.057590183 0.0061012157 -0.020855177
0.012035602 7.5883545e-05 -0.007089422 -0.05870784 -0.022152206 0.023010349 0.013675993 -0.025128277
0.060444906 0.10834789 0.09343283 0.0045558447 0.044262614 0.0341292 0.021101028 0.0073685106
0.19656874 0.051204853 -0.09026765 0.043929078 -0.009324362 0.08234087 -0.03191811 0.2795417
0.13720419 0.014347278 0.013148089 -0.006219652 -0.20214878 -0.042799816 0.08855661 0.086216316
0.017163947 1.05357245e-30 0.1392404 0.0053116838 0.0074029416 -0.04004401 0.14579126 -0.08379505
0.010384849 0.011145638 -0.04435649 0.19054171 0.07749708 0.007813833 -0.020438792 -0.020158578
0.10186416 0.101658314 0.12303475 -0.01542197 -0.05216466 0.031162392 -0.014474293 -0.002049878
-0.26344803 0.061193928 -0.028098784 -0.0004919604 -0.0072900834 -0.024263332 -0.07668455 -0.013694753
0.2596155 0.045169495 0.017245492 0.07025175 0.0032075604 -0.004507724 -0.064190626 0.027251462
0.001557666 -0.0015164025 -0.11841274 -0.37237275 0.10425865 -0.07706635 -0.004288615 -0.16093644
-0.13397962 0.010490807 0.069959395 -0.023618491 -0.18606438 -0.010529952 -0.03832288 -0.030880133
-0.007890801 0.041576464 -0.015464142 -0.12880945 0.007600902 0.027457587 -0.042835377 0.04330676
0.0030790425 -0.02100797 -0.070061415 0.11745644 0.028156953 -0.022259215 0.16866134 -0.06950725
0.008543302 0.17430139 0.07299142 0.027674647 0.027731087 -0.011306358 0.033701636 0.00047505787
-0.15103827 0.060740326 -0.016888455 0.0073231496 0.0067673544 -0.056394298 0.035715476 0.05460845
0.07468684 0.006117061 -0.1297878 -0.05955852 -0.003474188 0.10726291 0.26288727 0.009862578
-0.007832885 0.0007154577 -0.047766082 0.0027749417 -0.17523581 0.0790121 -0.032963753 0.00804484
-0.0026025886 -0.04423478 -0.13473688 0.015676735 -0.010359595 0.08227416 -0.15307437 0.032666367
00000000: e22d 193c 52ce 7dbe b4b7 00be 7798 043d
00000010: 4bd3 00be 9e2b b03c 898f 4c3d e10c e7bc
00000020: 3f44 48bd 1a31 65bd af1d 5ebb d8f5 67bd
00000030: 92af ca3b 18d0 e83b 1916 ecbd 8eb5 a33d
00000040: 40a0 053d 18e0 a1bd bd25 203d 5d7c 103e
00000050: 74fb 600e 89e4 843c 2fd9 993b 535b 493d
00000060: 8391 c83d 0192 fe3d e55c 8b3d fc8b 9fbc
00000070: 15d1 48be 13b2 493d 66b3 023e 2e29 6dbb
00000080: 02ce a83c 9750 1dbb 1805 c83d c5f2 26be
00000090: f4ad 7dbc 38b0 ccbc 4ab2 85bd 7bb4 e5bb
000000a0: db63 5bbe 0568 1abd d3b5 64bc 29a2 9a3d
000000b0: 3c5a aabd 759e 003e 45a8 b23a 0423 ab3d
000000c0: 7299 fa3b 27d4 483c a959 403c c2ec 28bd
000000d0: f4c1 ed3d 98d9 98bc bcbe 85bd 1146 90bd
000000e0: 88ce 3f3e a2f2 86bd e21f 6c3d fe6a bcbd
000000f0: a2e2 ac8f 3043 06be 5faf 06bd 2a2d ab3d
00000100: 3c36 f3bc d2ac f73c 87e3 c1bc 47aa 71bd
00000110: 5a2a 11bd dca7 9abc bb19 8d3d 0df6 ce3c
00000120: b731 323c 28d7 b43d d1d4 46bd 3fe1 083e
00000130: fffc 903d 71bf 203e ca65 31be ac17 133d
00000140: 68bc 94bd 6d52 463e db49 36be 757b 363d
00000150: ba2b 9ebd 1b13 a63d 9bec d43c 99bc 0a3d
00000160: f6eb fc3d 0283 b9bb 5d66 493b a7f5 1bbd
00000170: df0d 46be 1670 d2bd 3519 c0bc dbc0 a93c
00000180: 5d65 043d d72f 213e 062f d63d 0a46 fbbd
00000190: 3cc1 b43b 67ca 5fbd e5af 113d 43ed 153e
000001a0: 3868 023e 146d 1abd 072c 2e3d 3228 a93c
000001b0: b963 e13c afe3 6b3d b5ec c73b 7ad8 aabc
000001c0: f930 453c ab23 9f38 624e e8bb a277 70bd
000001d0: 8b78 b5bc 3380 bc3c 4611 603c d1d9 cdbc
000001e0: 1495 773d 80e5 dd3d b659 bf3d 3249 953b
000001f0: b74c 353d 0fcb 0b3d 10dc ac3c 8c73 f13b
00000200: 5149 493e 2ebc 513d 3fde b8bd faee 333d
00000210: 35c5 18bc 54a2 a83d 90bc 02bd 1720 8f3e
00000220: 417f 0c3e d810 6b3c 156b 573c 39ce cbbb
00000230: 1700 4fbe dc4e 2fbd 2b5d b53d 2e92 b03d
00000240: 689b 8c3c b0f3 aa0d 0995 0e3e a20d ae3b
00000250: 6094 f23b 3005 24bd 4e4a 153e bd9c abbd
00000260: 3725 2a3c 329c 363c 27af 35bd 5e1d 433e
00000270: cab6 9e3d 9705 003c 416f a7bc 9a23 a5bc
00000280: 289e d03d 3c32 d03d a5f9 fb3d 6eac 7cbc
00000290: 9caa 55bd 4648 ff3c 9625 6dbc 3f57 06bb
000002a0: a9e2 86be 7ca6 7a3d 6c2f e6bc e7f6 00ba
000002b0: a7e1 eebb e5c3 c6bc ca0c 9dbd f55f 60bc
000002c0: 53ec 843e a603 393d 6b46 8d3c 26e0 8f3d
000002d0: ef35 523b 88b5 93bb 6076 83bd 753e df3c
000002e0: 992a cc3a 06c2 c6ba 6182 f2bd a4a7 bebe
000002f0: 8f85 d53d f6d4 9dbd 8387 8cbb 86cc 24be
00000300: f431 09be a2e1 2b3c df46 8f3d 917b c1bc
00000310: a987 3ebe d285 2cbc 74f8 1cbd 55f8 fcbc
00000320: 6b48 01bc 154c 2a3d 505d 7dbc a0e6 03be
00000330: fd10 f93b bcee e03c 2674 2fbd 6e62 313d
00000340: c3c9 493b e818 acbc 5c7c 8fbd 018d f03d
00000350: 69a9 e63c f558 b6bc 8fb5 2c3e d159 8ebd
00000360: 35f9 0b3c 107c 323e 877c 953d f1b5 e23c
00000370: 4e2c e33c 4d3e 39bc ba0a 0a3d 3011 f939
00000380: c7a9 1abe d9ca 783d a859 8abc 08f7 ef3b
00000390: afc0 dd3b b5fd 66bd 644a 123d 1cad 5f3d
000003a0: 6af5 983d a071 c83b 18e7 04be a2f3 73bd
000003b0: 34af 63bb a8ac db3d 2999 863e a696 213c
000003c0: 8055 00bc 8e8d 3b3a 5ea6 43bd ccdb 353b
000003d0: 0471 33be 19d1 a13d 0005 07bd 81ce 033c
000003e0: 3190 2abb 872f 35bd 77f8 09be 7f6c 803c
000003f0: 4abb 29bc 5b7f a83d 87bf 1cbe 2bcd 053d

gat_net.1.scoring_fn_target f4 [1, 1, 7]
0.055577964 0.09577202 0.0122090485 -0.0051415213 0.044764712 -0.09872592 -0.06670416
00000000: b8a5 633d 1f24 c43d 7608 483c 357a a8bb
00000010: 345b 373d d130 cabd 319c 88bd

gat_net.1.scoring_fn_source f4 [1, 1, 7]
0.13524023 0.033559304 0.05530226 0.05893747 0.09428323 0.03835279 0.027956123
00000000: 6a7c 0a3e 7b75 093d 9f84 623d 6b68 713d
00000010: 9117 c13d d117 1d3d 3d04 e53c

gat_net.1.bias f4 [7]
-0.028010068 -0.009178167 0.024216438 0.054911215 -0.06693801 0.073685005 0.063182406
00000000: 5f75 e5bc 0660 16bc 8d61 c63c 95ea 603d
00000010: cc16 89bd 2ae8 963d c765 813d

gat_net.1.linear_proj.weight f4 [7, 64]
0.57842 -1.0642815 -0.91164595 0.44998148 -0.5650135 -0.68472964 -1.0691527 -1.0713632
0.7982737 0.67411363 -0.569809 -0.55036443 0.26632917 0.4221545 0.38890353 0.4339469
0.038760252 0.5678905 1.0441891 -0.68928325 -0.99008065 0.03268573 -0.08813285 -0.24961913
-1.2421302 0.070464805 -0.11055934 -0.08207934 0.0635105 -0.60216874 -0.93323654 0.019540941
-1.227695 -0.27591026 -0.071808144 1.2706648 0.6773953 -0.63646597 0.67860895 1.0642513
-0.21607934 0.41774803 -0.78353405 -0.860457 0.87305534 0.34250614 0.63127494 0.47936818
-0.6283454 -0.1868474 -0.84110093 -0.28195953 0.09075919 0.9360848 0.3859608 0.32736427
-0.19293876 -0.57108635 0.5165559 -0.09392552 -0.75537753 -0.4432191 0.38188833 -0.7568514
-1.0075116 0.1658184 -0.93980765 -0.9013506 -1.052727 0.39474255 -1.2235707 0.23214263
0.55761343 -0.9556593 1.0390568 0.97144634 -1.2064403 0.31255582 -0.2647974 -0.3681606
-0.9324596 0.11738612 -0.2978306 0.8949678 -0.2524236 -0.8480512 1.2273504 -0.5361477
-0.21752356 -0.8925093 0.025073124 -0.8980632 0.5414178 0.8612911 -0.387744 0.30994746
-0.7512763 -0.0055663576 0.4525022 -0.36130056 -1.2483921 0.8884039 -1.1669365 0.88230526
-0.59277797 -0.82236534 0.68503755 -0.96812373 0.9969589 -1.2484612 -0.49435398 0.10953028
0.6880323 -0.56418985 -0.8711103 0.832229 0.57953775 0.5889713 -0.70509505 -0.9675415
-0.84311295 0.8298653 0.2847923 -0.76380485 0.6351091 1.0554359 -0.03437183 0.971494
-0.67150724 -1.2532332 0.95014066 0.55087644 -0.9196269 0.68075365 0.4208456 0.3425903
-0.8560678 -0.6434063 -0.5445315 0.4732997 0.4153793 -0.45027372 -0.32481295 0.63202965
-1.1120204 -1.2556629 -0.60044414 0.39621782 -0.82873917 -0.35001168 -0.29964343 -0.08193616
0.52505475 -0.68879575 0.36369577 -0.59982556 -1.3284366 -0.7559184 0.74067587 -1.2536778
0.45188004 0.7147671 0.36595878 -0.627374 -0.4609212 -1.0250424 0.7836067 0.36151174
-0.048382856 0.7645597 -0.1560105 0.09041537 -0.5656763 -0.8850898 0.830581 -1.3078461
1.0505152 1.3191876 -0.8413211 -0.5045327 -1.1951904 0.14411175 -0.68031675 0.68238074
1.0118506 -0.47180784 -1.3092622 -0.79579115 0.52517474 -0.71975416 0.55623156 0.81796837
0.6447181 0.5388044 0.2833112 -0.8631154 -0.759922 -0.6672808 0.24000067 0.45068333
1.2299036 0.6251849 0.088405035 -0.5767023 -0.3394496 -0.7484949 0.1070921 -1.3812251
-1.1165272 0.26562667 -0.4188178 0.009968737 0.43167362 1.1689435 1.0366321 1.3186464
0.2812602 -1.021739 -0.37356684 1.2385765 -0.8796168 0.70513254 -0.226235 0.5384482
-0.100101694 1.0070395 -0.7368255 -0.45910922 -0.7203754 -1.1582586 -1.3666774 0.046365924
0.4918603 -0.8084757 -0.6021584 -0.46055847 -0.78581095 0.18652508 -0.70638686 0.31024173
-0.20947844 1.299059 -0.17344011 -0.5449568 0.08031001 -1.0721675 0.78562546 0.49968508
-0.41033798 -1.1553841 -0.060460333 -0.7258039 -0.8609744 -0.6548479 -1.3496523 -0.26952344
00000000: 5513 143f 603a 88bf a161 69bf f963 e63e
00000010: baa4 10bf 714a 2fbf ffd9 88bf 6e22 89bf
00000020: aa5b 4c3f b692 2c3f 01df 11bf afe4 0cbf
00000030: 4c5c 883e a224 d83e 5d1e c73e 4a2e de3e
00000040: 12c3 1e3d 4661 113f fda7 853f de74 30bf
00000050: ed75 7dbf 79e1 053d ff7e b4bd 289c 7fbe
00000060: 1ffe 9ebf da4f 903d ef6c e2bd 3719 a8bd
00000070: cb11 823d bb27 1abf 97e8 6ebf 5314 a03c
00000080: 1c25 9dbf 1c44 8dbe 2610 93bd 25a5 a23f
00000090: c769 2d3f 6fef 22bf 51b9 2d3f 6339 883f
000000a0: e743 5dbe 12e3 d53e b095 48bf e946 5cbf
000000b0: 8e80 5f3f f75c af3e 3c9b 213f bf6f f53e
000000c0: 3edb 20bf ed54 3fbe 6452 57bf 005d 90be
000000d0: f4df b93d 41a3 6f3f a79c c53e 4a9c a73e
000000e0: bd91 45be b732 12bf 023d 043f 065c c0bd
000000f0: 6c60 41bf 9ded e2be de86 c33e 03c1 41bf
00000100: 24f6 80bf 4ccc 293e 3c97 70bf eabe 66bf
00000110: c2bf 86bf b21b ca3e f79d 9cbf ccb6 6d3e
00000120: c1bf 0e3f 16a6 74bf d0ff 843f b5b0 783f
00000130: a36c 9abf 5107 a03e 8693 87be 8c7f bcbe
00000140: acb5 6ebf 2268 f03d 417d 98be 9c1c 653f
00000150: ab3d 81be e219 59bf d119 9d3f fa40 09bf
00000160: 7fbe 5ebe 7d7b 64bf 2766 cd3c 78e7 65bf
00000170: 5b9a 0a3f 937d 5c3f 6286 c6be 6fb1 9e3e
00000180: a553 40bf fe65 b6bb 5eae e73e 63fc b8be
00000190: 50cb 9fbf 706e 633f 2d5e 95bf c2de 613f
000001a0: 4cc0 17bf 8986 52bf 9f5e 2f3f f5d6 77bf
000001b0: b338 7f3f 94cd 9fbf f71b fdbe 6951 e03d
000001c0: e322 303f bf6e 10bf 1601 5fbf f60c 553f
000001d0: 965c 143f d3c6 163f 1c81 34bf cdb0 77bf
000001e0: 40d6 57bf 0d72 543f 4cd0 913e b788 43bf
000001f0: 8396 223f 8618 873f 7ac9 0cbd d5b3 783f
00000200: e6e7 2bbf f269 a0bf 6b3c 733f 3d06 0d3f
00000210: ab6c 6bbf df45 2e3f 1379 d73e ff67 af3e
00000220: 4227 5bbf 46b6 24bf 6b66 0bbf 5754 f23e
00000230: 98ac d43e 478a e6be e24d a6be b2cc 213f
00000240: af56 8ebf 90b9 a0bf b5b6 19bf 10dd ca3e
00000250: 4028 54bf bb34 b3be dd6a 99be 25ce a7bd
00000260: fd69 063f eb54 30bf 5536 ba3e 2b8e 19bf
00000270: 360a aabf de83 41bf ef9c 3d3f 8478 a0bf
00000280: d25c e73e fafa 363f f35e bb3e 959b 20bf
00000290: ddfd ebbe 9734 83bf 739a 483f 1118 b93e
000002a0: 1a2d 46bd 2fba 433f 37c1 1fbe b22b b93d
000002b0: 29d0 10bf 3f95 62bf f5a0 543f 8067 a7bf
000002c0: 4877 863f 24db a83f d260 57bf 0e29 01bf
000002d0: 00fc 98bf 0892 133e 3d29 2ebf 81b0 2e3f
000002e0: 5284 813f cc90 f1be e795 a7bf f8b8 4bbf
000002f0: da71 063f cf41 38bf 3165 0e3f 6066 513f
00000300: 3f0c 253f 16ef 093f 2a0e 913e 21f5 5cbf
00000310: 408a 42bf ead2 2abf bcc2 753e f7bf e63e
00000320: 7b6d 9d3f 1e0c 203f b30d b53d c3a2 13bf
00000330: 57cc adbe 5d9d 3fbf 1a53 db3d fccb b0bf
00000340: 5dea 8ebf 3800 883e 496f d6be ea53 233c
00000350: 5304 dd3e f19f 953f 5cb0 843f 68c9 a83f
00000360: 5601 903e 58c8 82bf 2744 bfbe ad89 9e3f
00000370: 912e 61bf 9183 343f 26aa 67be bed7 093f
00000380: 1e02 cdbd ace6 803f 99a0 3cbf 5d10 ebbe
00000390: 866a 38bf d141 94bf 49ef aebf 32ea 3d3d
000003a0: 1dd5 fb3e 43f8 4ebf 0e27 1abf 52ce ebbe
000003b0: e82a 49bf 6e00 3f3e c5d5 34bf 01d8 9e3e
000003c0: 8481 56be 9147 a63f 499a 31be 4a82 0bbf
000003d0: 9379 a43d c93c 89bf c01e 493f b9d6 ff3e
000003e0: d217 d2be a0e3 93bf 41a5 77bd 49ce 39bf
000003f0: d168 5cbf 1da4 27bf 68c1 acbf fafe 89be
