python/binarypath/binaries/gat_000022.pth (torch, 372431 bytes, 8 tensors)

gat_net.0.scoring_fn_target f4 [1, 8, 8]
-0.028736368 -0.020560937 -0.022378834 0.002033471 -0.07922062 -0.033238523 -0.002086205 -0.05012217
0.0024192575 0.024948936 0.029044034 0.00096431794 0.015272646 -0.0134250205 0.012878605 -0.013605036
0.011762345 -0.06938984 0.020663705 0.007333636 0.025804592 -0.0045182486 0.0045104595 0.042490114
0.035095837 -0.01758819 0.029482286 0.005874117 -0.014976412 -0.02284934 -0.022227202 0.016950533
0.021966256 0.001968687 0.025804987 0.06581622 0.036548484 -0.005688495 -0.021753706 0.011763018
0.0080706 0.01098529 0.0087409215 -0.016760547 0.01382706 0.071702525 0.0004868697 -0.027923137
-0.044972196 -0.013420295 -0.02062989 -0.02976286 0.016496466 0.028335925 -0.010346625 0.018544286
0.024957208 -0.022286378 0.023639368 -0.0022701498 0.017857088 0.014032719 0.072238155 0.033557147
00000000: 8868 ebbc 696f a8bc d153 b7bc fb43 053b
00000010: 6c3e a2bd 1e25 08bd b6b8 08bb e84c 4dbd
00000020: 688c 1e3b b661 cc3c c1ed ed3c 48ca 7c3a
00000030: 1f3a 7a3c 9ef4 5bbc c900 533c a8e7 5ebc
00000040: dab6 403c 431c 8ebd ee46 a93c ff4e f03b
00000050: 2764 d33c d10d 94bb 7acc 933b 1d0a 2e3d
00000060: a7c0 0f3d 1c15 90bc d684 f13c aa7b c03b
00000070: a05f 75bc 8a2e bbbc d215 b6bc d8db 8a3c
00000080: 94f2 b33c 1605 013b fb64 d33c a8ca 863d
00000090: ddb3 153d 8e66 babb d434 b2bc acb9 403c
000000a0: 8d3a 043c a5fb 333c 1536 0f3c 6a4d 89bc
000000b0: e58a 623c c6d8 923d 8c42 ff39 10bf e4bc
000000c0: c434 38bd cce0 5bbc 0400 a9bc 3ed1 f3bc
000000d0: 9923 873c be20 e83c e484 29bc 30ea 973c
000000e0: 0f73 cc3c ec91 b6bc 59a7 c13c cbc6 14bb
000000f0: 0749 923c 7de9 653c 99f1 933d 3873 093d

gat_net.0.scoring_fn_source f4 [1, 8, 8]
-0.08668951 -0.008585051 -0.039329804 0.09525322 -0.118975446 0.0018433912 -0.023337875 -0.008181567
0.028010864 -0.03782429 0.13696322 0.08407688 0.09691503 0.064868055 0.08043297 -0.0495506
-0.10687933 -0.07324197 0.05055909 -0.060971923 0.108361155 0.0719259 0.03872471 0.078968056
-0.058742 -0.019146314 0.052609056 -0.10899522 0.011809978 -0.026269853 0.039617497 0.0062275794
0.011669153 0.045523554 0.06971337 0.11515804 0.10715961 0.05348683 0.09256995 -0.07598894
0.016675064 -0.03203431 0.09893447 -0.06957647 0.13932027 0.026505169 -0.057686217 -0.049816854
0.06351295 -0.0291116 -0.07071144 -0.06981958 0.0054463465 0.08820715 -0.061451577 -0.0013194236
0.0147532895 -0.028888 -0.10555524 0.01551302 0.028263407 0.12807116 0.03040615 0.18819076
00000000: 458a b1bd 50a8 0cbc 4a18 21bd 1f14 c33d
00000010: 66a9 f3bd f29d f13a 122f bfbc fb0b 06bc
00000020: 0a77 e53c a5ed 1abd 1640 0c3e 8030 ac3d
00000030: 637b c63d 8bd9 843d 0aba a43d 92f5 4abd
00000040: 8de3 dabd e3ff 95bd 0c17 4f3d b2bd 79bd
00000050: 74ec dd3d e34d 933d cd9d 1e3d 01ba a13d
00000060: 749b 70bd bbd8 9cbc 987c 573d e338 dfbd
00000070: a37e 413c e033 d7bc f545 223d b910 cc3b
00000080: fa2f 3f3c e876 3a3d e2c5 8e3d fad7 eb3d
00000090: 7f76 db3d 0215 5b3d 5095 bd3d 17a0 9bbd
000000a0: 259a 883c 6936 03bd 289e ca3d 1c7e 8ebd
000000b0: f9a9 0e3e 5e21 d93c 6248 6cbd c20c 4cbd
000000c0: 1413 823d 737b eebc 29d1 90bd 91fd 8ebd
000000d0: 4477 b23b f3a5 b43d a6b4 7bbd 82f0 acba
000000e0: c8b7 713c 87a6 ecbc 582d d8bd 522a 7e3c
000000f0: a988 e73c 1625 033e 5116 f93c 14b5 403e

gat_net.0.bias f4 [64]
-0.018488538 0.010148222 0.017217081 -0.008342722 -0.05532633 0.019881396 -0.022081507 -0.018339364
0.015974957 -0.009295397 -0.020953415 0.016523411 -0.03042529 0.043037634 0.050625913 0.0060347454
0.0073190164 0.0006896184 -0.03536394 0.030963177 0.016023308 0.021062851 0.029392315 -0.011028955
-0.024121076 0.052328616 -0.0036284681 0.0053238035 0.011410023 0.00443517 0.041924436 0.024377236
-0.0032905387 -0.008793411 -0.001684672 0.046475843 0.004536369 0.053174634 0.03533881 0.023134578
-0.037795763 0.0070040757 -0.0085815545 0.0033170735 -0.018399972 -0.026112773 0.014909633 0.00056769984
-0.0059796507 -0.047830675 0.012468874 0.029181406 0.0029086473 -0.0037925886 0.0030382485 -0.0011347206
0.0050053196 -0.002929064 -0.02059868 -0.041805707 -0.0023776237 -0.042305496 -0.0017059061 -0.012512976
00000000: 4675 97bc ba44 263c d60a 8d3c eaaf 08bc
00000010: dd9d 62bd 4fde a23c 47e4 b4bc 6f3c 96bc
00000020: eadd 823c b94b 18bc 7fa6 abbc 1b5c 873c
00000030: 753e f9bc 3b48 303d 1e5d 4f3d 1dbf c53b
00000040: 5cd4 ef3b 82c7 343a c7d9 10bd 7da6 fd3c
00000050: 5043 833c 008c ac3c 27c8 f03c cab2 34bc
00000060: 9099 c5bc 8856 563d 98cb 6dbb 4d73 ae3b
00000070: 1bf1 3a3c e754 913b f5b8 2b3d c5b2 c73c
00000080: 14a6 57bb 3d12 10bc 36d0 dcba 745d 3e3d
00000090: d2a5 943b a5cd 593d 6ebf 103d ba84 bd3c
000000a0: bbcf 1abd 7282 e53b a699 0cbc 4263 593b
000000b0: 8abb 96bc 74ea d5bc 8947 743c b1d1 143a
000000c0: f2f0 c3bb 19ea 43bd 404a 4c3c d80d ef3c
000000d0: 019f 3e3b 148d 78bb 5a1d 473b e8ba 94ba
000000e0: aa03 a43b 8af5 3fbb 90be a8bc 763c 2bbd
000000f0: e8d1 1bbb 8748 2dbd b698 dfba 3a03 4dbc

gat_net.0.linear_proj.weight f4 [64, 1433]
-0.0071588974 -0.0016887148 -0.069098376 -0.012439916 -0.09030314 0.045967128 -0.050612252 0.033254422
0.020360218 -0.02660913 -0.022082713 0.02063057 -0.11388979 -0.011055042 -0.0059899744 -0.002322755
0.007498739 0.005762268 -0.0023264533 0.011933974 0.0023167036 -0.012924716 0.021104408 0.019133482
0.023056604 -0.019708354 -0.09217069 -0.0011924091 -0.02129471 -0.055340227 0.04230185 -0.0011021906
0.015115998 0.008578141 0.029085854 0.010706933 -0.02198779 0.013451289 -0.0249517 0.05892695
-0.055964302 -0.020930765 -0.02935281 -0.0040794155 -0.0573513 0.07494734 0.0010723474 0.07349406
-0.017786091 -0.0029925278 0.021965057 -0.08073129 -0.042278748 0.009151162 0.0029705013 0.013568009
-0.053540405 -0.005363142 0.010679232 0.0005716879 -0.00037411606 -0.09467903 -0.035259582 -0.07745644
-0.040204834 0.021603111 0.006065162 -0.03414662 -0.029423757 -0.044279564 0.05675103 -0.043334324
0.048562273 0.024946187 0.06261477 0.020068856 0.073132336 -0.0001463804 -0.034176163 -0.025136173
-0.007755081 -0.054122314 -0.06536103 0.06862581 -0.021381471 0.09608116 -0.0020855786 -0.008487441
-0.06287064 -0.054244485 -0.029886987 -0.024358742 -0.016331945 -0.0026705943 -0.02767773 -0.009081582
0.0056859762 -0.0154975 0.02959663 0.010637311 -0.0020347307 0.022099858 -0.034326095 0.021116339
-0.052421648 -0.012705027 0.019902393 0.029721867 0.044113558 0.011268166 0.003837728 -0.021284245
0.008262212 0.004787746 0.03604941 -0.0077934507 0.024033582 0.02737873 -0.027467677 -0.0043996302
0.020211574 -0.007209888 0.039755747 0.017565373 0.026404899 -0.080373794 -0.0597011 0.010640408
0.024591075 -0.022824978 0.053156637 -0.07538765 -0.0691219 -0.09982013 -0.0050393855 -0.07974654
0.069486916 0.020014938 0.003547905 0.052204374 -0.11250764 0.0037950324 -0.006856649 0.056274056
-0.0012081657 0.00029770052 0.05254442 0.037633587 0.030357823 -0.04077711 -0.012116188 -0.04157108
-0.038758285 -0.008703385 0.033880454 -0.09238077 -0.04997209 0.06776283 -0.03664704 -0.013736608
-0.00560439 -0.013400104 0.0078225285 0.026427096 0.007892848 -0.014417681 0.011531749 -0.050200474
-0.023697421 0.0005341733 -0.03246402 -0.003525451 -0.0514157 0.00583514 0.029203802 -0.04795498
0.05145649 -0.023186497 -0.052059345 -0.06881916 0.015997145 0.02040599 0.027665775 0.01885393
-0.014370149 0.0016039143 0.033318534 -0.12791894 0.03170888 0.00053255004 -0.004453209 -0.01472423
0.014716314 0.0043012872 0.08247222 -0.01522902 -0.039289527 -0.011416465 -0.028337287 7.6800876e-05
0.011911981 0.03054161 -0.0047208597 0.080496736 -0.005030748 -0.011999593 -0.04397713 0.0042375047
0.0053490824 -0.015411678 -0.0030352797 -0.04363814 -0.05308681 0.03159197 -0.016418155 -0.002325491
0.011910941 0.0014380317 0.016273264 0.013955195 -0.0061083403 -0.05821862 -0.01003574 -0.0036189535
-0.028939065 -0.017813472 -0.0137515245 0.021682845 0.05220466 0.011847538 0.034535624 -0.023906559
0.021677226 -0.06850928 0.03847559 -0.006736655 -0.046698492 -0.031259928 0.03882907 -0.001930251
-0.02767259 0.004358102 -0.023211727 -0.0033714902 -0.064723775 0.016337672 0.0018664325 -0.052858997
-0.011843847 -0.0013939715 -0.07906818 -0.024566395 -0.044668183 0.010662126 0.01799133 0.005189407
00000000: 2f95 eabb de57 ddba 7383 8dbd cad0 4bbc
00000010: daf0 b8bd 0748 3c3d cb4e 4fbd ca35 083d
00000020: 79ca a63c 64fb d9bc cee6 b4bc 7101 a93c
00000030: 0d3f e9bd 3520 35bc 8c47 c4bb 5d39 18bb
00000040: fbb7 f53b 68d1 bc3b 6977 18bb b786 433c
00000050: d6d3 173b 30c2 53bc 27e3 ac3c d2bd 9c3c
00000060: 34e1 bc3c 6a73 a1bc fdc3 bcbd 9c4a 9cba
00000070: 3e72 aebc 6fac 62bd b444 2d3d 6177 90ba
00000080: 17a9 773c 558b 0c3c 7545 ee3c 226c 2f3c
00000090: bd1f b4bc cc62 5c3c 8267 ccbc 635d 713d
000000a0: d33a 65bd ff76 abbc 4e75 f0bc 9eac 85bb
000000b0: 32e9 6abd fe7d 993d 028e 8c3a 0e84 963d
000000c0: 23b4 91bc 491e 44bb 10f0 b33c 7256 a5bd
000000d0: 7b2c 2dbd c1ee 153c beac 423b 5b4c 5e3c
000000e0: 2f4d 5bbd 4cbd afbb f2f7 2e3c 53dd 153a
000000f0: 0225 c4b9 14e7 c1bd 5a6c 10bd 7ba1 9ebd
00000100: d3ad 24bd 02f9 b03c 44be c63b 54dd 0bbd
00000110: 170a f1bc 7d5e 35bd c573 683d 557f 31bd
00000120: 3ce9 463d f25b cc3c 2c3c 803d 7167 a43c
00000130: 68c6 953d b07d 19b9 4efc 0bbd 60ea cdbc
00000140: 561e febb 5caf 5dbd 01dc 85bd b08b 8c3d
00000150: 3228 afbc 33c6 c43d 34ae 08bb e80e 0bbc
00000160: 52c2 80bd 772f 5ebd 8ed5 f4bc fc8b c7bc
00000170: 92ca 85bc 2305 2fbb 68bc e2bc eaca 14bc
00000180: 6d51 ba3b 3ae9 7dbc a274 f23c 1e48 2e3c
00000190: 1e59 05bb c30a b53c 8599 0cbd 2cfc ac3c
000001a0: 15b8 56bd bf28 50bc 580a a33c 467b f33c
000001b0: 6bb0 343d 1d9e 383c 6482 7b3b 4c5c aebc
000001c0: 3b5e 073c 86e2 9c3b 8ca8 133d 3460 ffbb
000001d0: 13e2 c43c 5c49 e03c e503 e1bc c62a 90bb
000001e0: be92 a53c ed40 ecbb ecd6 223d 42e5 8f3c
000001f0: 164f d83c 049b a4bd 2489 74bd 1b55 2e3c
00000200: 3973 c93c 73fb babc c6ba 593d d764 9abd
00000210: c88f 8dbd 7f6e ccbd 6e21 a5bb 2752 a3bd
00000220: 284f 8e3d 5ef6 a33c f883 683b 41d4 553d
00000230: 686a e6bd 14b6 783b bead e0bb a07f 663d
00000240: 505b 9eba b014 9c39 d138 573d ad25 1a3d
00000250: f8b0 f83c e605 27bd fa82 46bc 7046 2abd
00000260: 02c1 1ebd a498 0ebc 3bc6 0a3d 2132 bdbd
00000270: 89af 4cbd 3dc7 8a3d 351b 16bd 830f 61bc
00000280: 08a5 b7bb 1c8c 5bbc 102a 003c a37d d83c
00000290: 0151 013c 2338 6cbc a9ef 3c3c 039f 4dbd
000002a0: 1821 c2bc c307 0c3a fef8 04bd 410b 67bb
000002b0: 4599 52bd b434 bf3b d03c ef3c 716c 44bd
000002c0: 0ac4 523d 9cf1 bdbc 2e3c 55bd 0ff1 8cbd
000002d0: 720c 833c 762a a73c 56a3 e23c 8f73 9a3c
000002e0: c670 6bbc 6f3a d23a 0479 083d 2ffd 02be
000002f0: 2ce1 013d d49a 0b3a 3aec 91bb e63d 71bc
00000300: b21c 713c d0f1 8c3b 32e7 a83d 2483 79bc
00000310: 0eee 20bd 200c 3bbc 9923 e8bc 2810 a138
00000320: 782a 433c 6632 fa3c 71b1 9abb 79db a43d
00000330: f9d8 a4bb f199 44bc 5d21 34bd c4da 8a3b
00000340: 5b47 af3b 4381 7cbc 8beb 46bb e8bd 32bd
00000350: 8e71 59bd 9566 013d 5e7f 86bc 4467 18bb
00000360: 1c26 433c 567c bc3a 824f 853c 55a4 643c
00000370: 7928 c8bb a676 6ebd f26c 24bc f72b 6dbb
00000380: 9e11 edbc 8fed 91bc 134e 61bc 39a0 b13c
00000390: 8ed4 553d 2d1c 423c 3a75 0d3d b0d7 c3bc
000003a0: 7094 b13c 984e 8cbd 9598 1d3d 28bf dcbb
000003b0: eb46 3fbd 690a 00bd 3b0b 1f3d 7a00 fdba
000003c0: a1b1 e2bc 69ce 8e3b 8526 bebc 38f4 5cbb
000003d0: e68d 84bd 95d6 853c 15a3 f43a ad82 58bd
000003e0: b20c 42bc ecb5 b6ba 7fee a1bd 773f c9bc
000003f0: fcf5 36bd 33b0 2e3c 8e62 933c e70b aa3b

gat_net.1.scoring_fn_target f4 [1, 1, 7]
0.15436552 -0.32147327 -0.27140105 -0.36971414 -0.13761479 -0.10584142 -0.05451117
00000000: ff11 1e3e 2598 a4be 14f5 8abe 2c4b bdbe
00000010: e4ea 0cbe 63c3 d8bd 1b47 5fbd

gat_net.1.scoring_fn_source f4 [1, 1, 7]
0.31298098 0.12652114 0.13426581 -0.59506506 0.06698423 0.427977 0.4881968
00000000: 0b3f a03e c28e 013e fa7c 093e 2f56 18bf
00000010: 072f 893d cd1f db3e eef4 f93e

gat_net.1.bias f4 [7]
0.017760007 0.011199003 -0.044739008 0.16309701 0.004169739 -0.04795743 -0.043325853
00000000: 6f7d 913c 067c 373c 4040 37bd e702 273e
00000010: 4ea2 883b 036f 44bd 7376 31bd

gat_net.1.linear_proj.weight f4 [7, 64]
-0.20255892 -0.23317078 -0.19826373 -0.07433061 0.21756145 0.12806728 0.02461777 0.062578365
0.15679447 0.0025560097 -0.24150011 -0.21469478 -0.13088828 0.27739084 -0.03463774 -0.20845076
-0.3137093 -0.16897498 -0.29332352 -0.12991455 -0.2877269 0.07408729 -0.34231746 -0.20256379
0.11017562 -0.042106364 0.3164501 -0.18131901 -0.3775619 -0.018309167 -0.2884286 -0.25265342
0.23845603 0.103403255 -0.32232252 -0.0760307 0.031680934 0.28141257 -0.06491336 0.0035520392
-0.25041154 0.19330455 0.028904878 0.1907324 0.0045237825 0.1871621 0.3347852 0.049964435
0.37460914 -0.25447372 0.281362 -0.14926982 -0.24049886 -0.22244105 -0.2723043 0.3232421
-0.36813506 0.18740945 -0.06328468 -0.073562704 0.17690372 -0.3001917 -0.22130702 -0.37191206
-0.104137905 0.40865123 -0.13055733 0.24550433 -0.080224015 -0.26788247 0.04630902 0.31813782
0.3492115 -0.16317378 -0.19661497 -0.3124846 0.4714551 0.29170838 -0.30756968 0.15733103
-0.33367798 -0.22597477 -0.12048971 0.15769961 -0.24925324 -0.17008744 0.0758604 0.22991551
-0.4251918 0.27270347 0.06408006 0.27974862 0.14437605 -0.22842453 -0.02278032 -0.14870168
0.07793399 0.28455895 -0.22490546 0.1737411 0.3309887 0.27817658 0.23120366 0.08407465
-0.16664891 0.098757386 0.23806551 -0.27825254 0.031738535 -0.2189005 -0.03454834 0.21126497
0.14425726 0.3966309 0.22952034 0.15065162 0.28178123 -0.32502475 0.41457483 0.050553624
0.31228957 -0.3754 0.1883239 0.2900854 -0.24478649 0.3698681 0.0014795514 -0.12772395
-0.1792372 -0.32263535 -0.26955038 -0.19922908 0.15381394 0.19539781 -0.26540297 -0.28267118
0.038000073 0.086316764 0.40346178 0.3645786 -0.28244796 0.11911107 0.27522904 -0.13618419
0.33265895 0.048213057 0.1590307 -0.35287923 -0.035757132 0.3528451 0.221781 0.21058892
0.14444217 -0.29974076 -0.26053712 0.16910645 0.11357515 -0.1600394 0.24614574 -0.38646874
-0.3754336 -0.022397077 -0.32733214 -0.30551752 0.316024 -0.44475564 -0.26761648 -0.020288646
-0.020718921 0.02871463 0.3769679 0.27407557 -0.18341587 0.1700905 -0.14570132 -0.3640927
0.04971159 -0.15288125 0.37450606 0.38324952 0.40544856 0.40436253 0.26089105 -0.3818797
0.16981809 0.18920432 -0.39442196 -0.3571083 0.343825 0.11484811 0.3276312 0.19667794
0.28167722 0.24819167 0.11440146 -0.16437478 0.10642951 0.12357011 0.06305844 0.25114778
0.13841312 -0.14873432 0.14143181 0.09263996 0.23870118 0.17277105 0.08331315 -0.14079623
0.25452188 0.31824154 0.34234354 0.18502107 0.26873586 -0.22315885 -0.20407183 0.11446122
0.2591018 -0.3145146 0.2463255 -0.04740289 0.17482422 0.3461644 -0.4324491 0.40745825
-0.15048383 0.33849844 0.13972022 -0.2549483 -0.08017774 -0.16951936 -0.23082846 0.2824302
-0.060060784 -0.35187665 -0.15184693 0.09206272 -0.2921204 0.26647145 -0.21981017 0.17627384
0.15543078 -0.02712679 -0.33657783 -0.13113014 0.027095245 -0.009447967 0.24996841 -0.18874775
0.25126332 -0.36258578 0.09323676 0.09734492 -0.06657861 -0.107020125 0.31365058 0.111742035
00000000: 9b6b 4fbe 52c4 6ebe a605 4bbe a63a 98bd
00000010: 6ec8 5e3e 1224 033e 35ab c93c 1629 803d
00000020: bb8e 203e ba82 273b ce4b 77be f3d8 5bbe
00000030: 9407 06be 2c06 8e3e 4ee0 0dbd 1e74 55be
00000040: 819e a0be c707 2dbe 802e 96be 5208 05be
00000050: f150 93be 14bb 973d 3c44 afbe e26c 4fbe
00000060: c1a3 e13d b977 2cbd bf05 a23e b1ab 39be
00000070: cb4f c1be 1bfd 95bc eaac 93be ca5b 81be
00000080: d12d 743e 16c5 d33d 7507 a5be fcb5 9bbd
00000090: dec3 013d 4f15 903e 4cf1 84bd 54c9 683b
000000a0: f135 80be a1f1 453e ecc9 ec3c 5b4f 433e
000000b0: 3d3c 943b 6ca7 3f3e f768 ab3e 82a7 4c3d
000000c0: c5cc bf3e 614a 82be ae0e 903e 30da 18be
000000d0: 5545 76be 96c7 63be 786b 8bbe fd7f a53e
000000e0: 337c bcbe 43e8 3f3e 669b 81bd 0ba8 96bd
000000f0: 4026 353e bab2 99be 4f9e 62be 426b bebe
00000100: 4146 d5bd bc3a d13e d2b0 05be 7d65 7b3e
00000110: 7d4c a4bd e427 89be 87ae 3d3d f6e2 a23e
00000120: dacb b23e 0717 27be 6f55 49be fbfd 9fbe
00000130: 9062 f13e cd5a 953e c679 9dbe 631b 213e
00000140: d7d7 aabe ee65 67be 4fc3 f6bd 027c 213e
00000150: 3e3c 7fbe 672b 2ebe b35c 9b3d f96e 6b3e
00000160: bdb2 d9be ca9f 8b3e 683c 833d 363b 8f3e
00000170: 51d7 133e 1fe8 69be cb9d babc 4145 18be
00000180: db9b 9f3d b6b1 913e 9e4d 66be 30e9 313e
00000190: 5a77 a93e 296d 8e3e a7c0 6c3e 552f ac3d
000001a0: 03a6 2abe 5041 ca3d 72c7 733e 1e77 8ebe
000001b0: 4400 023d 7427 60be 8f82 0dbd d855 583e
000001c0: 2db8 133e 3513 cb3e 6107 6b3e 6b44 1a3e
000001d0: a145 903e a569 a6be 2743 d43e 5111 4f3d
000001e0: 6be4 9f3e 6e34 c0be fbd7 403e 1386 943e
000001f0: 4fa9 7abe 5a5f bd3e 82ed c13a 11ca 02be
00000200: f589 37be 7630 a5be 8202 8abe b502 4cbe
00000210: 6781 1d3e 5d16 483e e6e2 87be 47ba 90be
00000220: f7a5 1b3d d8c6 b03d 8b92 ce3e 0caa ba3e
00000230: 059d 90be 81f0 f33d d2ea 8c3e de73 0bbe
00000240: 4652 aa3e 0e7b 453d f2d8 223e 96ac b4be
00000250: 1276 12bd 1da8 b43e 8f1a 633e 9fa4 573e
00000260: a6e8 133e 9f77 99be 1f65 85be 3e2a 2d3e
00000270: 179a e83d 5ee1 23be a10d 7c3e 3bdf c5be
00000280: d538 c0be 137a b7bc 1498 a7be cb6c 9cbe
00000290: e6cd a13e 03b7 e3be 0705 89be 6034 a6bc
000002a0: baba a9bc f23a eb3c f001 c13e a253 8c3e
000002b0: 5fd1 3bbe 342c 2e3e ba32 15be 5c6a babe
000002c0: 619e 4b3d e78c 1cbe 42bf bf3e 4839 c43e
000002d0: f496 cf3e 9b08 cf3e 8393 853e bc85 c3be
000002e0: cbe4 2d3e c7be 413e adf1 c9be e6d6 b6be
000002f0: d509 b03e 7c35 eb3d 47bf a73e f165 493e
00000300: ff37 903e f525 7e3e 504b ea3d dd51 28be
00000310: b7f7 d93d 5312 fd3d c924 813d 7196 803e
00000320: 2bbc 0d3e cf4d 18be 80d3 103e 05ba bd3d
00000330: 156e 743e e5ea 303e 16a0 aa3d e32c 10be
00000340: b150 823e 8ef0 a23e a747 af3e 2a76 3d3e
00000350: bf97 893e c183 64be 35f8 50be a56a ea3d
00000360: fea8 843e 0f08 a1be c03c 7c3e 8829 42bd
00000370: 1f05 333e 763c b13e f869 ddbe 5e9e d03e
00000380: 6f18 1abe ab4f ad3e d112 0f3e 9588 82be
00000390: 3a34 a4bd 7c96 2dbe 4c5e 6cbe b19a 903e
000003a0: 4c02 76bd 2d29 b4be c37d 1bbe 618b bc3d
000003b0: ce90 95be f26e 883e eb15 61be 2181 343e
000003c0: 3f29 1f3e 0039 debc ee53 acbe fb46 06be
000003d0: d9f6 dd3c a5cb 1abc b8f7 7f3e 1747 41be
000003e0: 96a5 803e d8a4 b9be eaf2 be3d c65c c73d
000003f0: 5e5a 88bd 5e2d dbbd cf96 a03e 02d9 e43d
