python/binarypath/binaries/gat_000002.pth (torch, 372431 bytes, 8 tensors)

gat_net.0.scoring_fn_target f4 [1, 8, 8]
000000 0d 8c ae bd d6 f5 b9 bd 11 3d 0c 3d fb 5e bc bd
       -0.08522806 -0.090800926 0.034237925 -0.091978036
000010 36 97 14 3d 91 b1 9e 3d bc f9 1f bc 4d 4c 11 bd
       0.03627702 0.07748712 -0.009764131 -0.035473157
000020 e7 23 00 3e 90 12 e0 3d 80 20 6e 3d 75 a4 6a bd
       0.12513696 0.109410405 0.058136463 -0.057285745
000030 01 d3 8c 3a ee 17 95 3d bd cf 4b bd 1d bb 3c bc
       0.0010744036 0.07279955 -0.04975866 -0.011519221
000040 e2 60 e1 bd d2 10 f6 bd 76 d4 96 bc 7c 85 a8 bd
       -0.11004807 -0.12014927 -0.018411856 -0.08228585
000050 b9 7c 1e 3d 2e 5b 65 3d a4 41 4f 3c e0 9b 8d bd
       0.038693164 0.05599516 0.012649927 -0.069144964
000060 95 ad 60 bd 21 6b 21 3e a9 d7 99 bd b8 86 12 3c
       -0.05485304 0.15763523 -0.07511837 0.008943252
000070 0a 65 79 bd 8d 56 8b 3d 08 97 75 bd 25 81 87 bb
       -0.060887374 0.068036176 -0.059958488 -0.0041352683
000080 7f 96 c5 bc d1 ee 79 bd be ff ea 3c 7c 49 3d 3b
       -0.024119614 -0.06101877 0.0286864 0.0028882911
000090 17 7a b7 3a 74 20 4e 3d d4 12 d7 3c fc f1 59 3d
       0.0013998178 0.05032392 0.026254095 0.05320929
0000a0 42 78 f7 bd 6f a8 f3 3d 44 6c 07 3c e0 fb 9f 3d
       -0.12083484 0.118973605 0.008265559 0.07811713
0000b0 26 48 51 3c 1e a3 84 bd 8b 0f f3 bd 22 8f c7 bb
       0.012773549 -0.06476425 -0.11868199 -0.006090061
0000c0 8b 71 64 3d 3c c2 fa 3c a3 01 7a bd 0a 9d e5 b9
       0.055772346 0.030610196 -0.061036717 -0.00043795287
0000d0 4e 51 22 bd 82 9b fc bb 42 52 49 3d f5 33 a8 3d
       -0.03962832 -0.0077089677 0.049150713 0.08213035
0000e0 a0 1b f1 bc 4e 90 74 bd f7 a4 a4 3b d1 c3 68 bc
       -0.029432118 -0.059707932 0.005024548 -0.0142068425
0000f0 1e e0 9e 3c 8c 74 e3 3b 79 a9 eb 3c 64 67 81 ba
       0.019393977 0.0069413837 0.028767334 -0.0009872732

gat_net.0.scoring_fn_source f4 [1, 8, 8]
000000 63 35 9d be c9 8c 80 be de 31 24 3b 01 6e 4c be
       -0.30704793 -0.2510741 0.0025054137 -0.19963838
000010 61 cb 7d 3d bb 83 3a 3e 5c a2 bd bc 0f 9a 52 be
       0.061961535 0.18214314 -0.023148708 -0.20566581
000020 5a 65 3d 3e ce 0c 0a 3e eb 4e 44 3e f2 1e 88 3d
       0.18495694 0.13481447 0.1917073 0.06646527
000030 45 97 ed bc b9 f0 8d 3d 8a 70 24 be ff 74 a3 3c
       -0.029002795 0.0693068 -0.16058555 0.019953249
000040 04 20 0d be df ab aa be 9e 8a d8 bd 29 83 60 be
       -0.13781744 -0.33334252 -0.10573314 -0.21925034
000050 3c dd 9f 3e aa 16 2b 3e 6c bf 8b 3d d8 ff a3 be
       0.31223476 0.16707864 0.0682362 -0.3203113
000060 27 27 f9 bd e6 0b c3 3e 1b 8b b1 bd 6b 02 b3 3c
       -0.12165671 0.38095015 -0.086691104 0.021851739
000070 13 a4 c7 bd 1e c7 ca 3d 95 a9 2e be 35 2d ef 3c
       -0.097480915 0.0990126 -0.17056878 0.029196361
000080 14 7b eb bd f6 e0 ef bd 98 66 81 3d 7c 4f 87 3c
       -0.11498085 -0.1171283 0.06318396 0.016517393
000090 9f 22 51 bd 6e 41 e8 3e 1f ec 1f 3e 24 25 61 3e
       -0.051058408 0.4536242 0.15617417 0.21986824
0000a0 ac f2 ac be bf 54 d6 3e eb 3f f4 3c 3c 97 2d 3e
       -0.33778894 0.4186153 0.029815635 0.16952223
0000b0 6d 0d cc ba c8 a7 42 be 3b cb b2 be 5b 5b e3 3a
       -0.0015567966 -0.19009316 -0.34920678 0.0017345952
0000c0 63 cb ae 3e ee 3b 2c 3e e0 38 86 be 31 40 85 3c
       0.34139547 0.16819736 -0.26215267 0.01626596
0000d0 25 53 08 be 56 16 11 3b 8d 39 21 3e 2b a0 97 3e
       -0.13312967 0.0022138557 0.1574461 0.29614386
0000e0 5e 76 42 be 4b df 29 be 13 2f 96 bd 4b d2 0e be
       -0.18990466 -0.16589086 -0.073331974 -0.13947408
0000f0 22 5f 89 3e 71 bf 0b bd fd 67 42 3e 6a bb 21 38
       0.26830393 -0.03411812 0.18984981 3.8559934e-05

gat_net.0.bias f4 [64]
000000 b6 0b 51 bc da 8c a7 3c fa 4b d9 bd c2 e2 03 ba
       -0.01275914 0.020452905 -0.106101945 -0.0005031043
000010 a6 ef 88 bd 99 24 41 3c ba d7 9a be 05 08 07 3a
       -0.06686334 0.011788511 -0.3024271 0.00051510363
000020 f1 4e 6c 3c 0c 3b 96 bc 74 8f 76 bb ba 58 18 3f
       0.014423118 -0.018338703 -0.0037622126 0.59510386
000030 79 c8 35 be 88 dd 83 bc a5 3c 79 3c ba a4 66 3e
       -0.17752255 -0.016096845 0.015212213 0.22523776
000040 31 4f 83 3d 1a d0 7d bc a5 d0 37 be 17 18 39 bc
       0.06411589 -0.01549151 -0.17950685 -0.011297247
000050 9b b9 67 3c 3e f7 eb 3c 78 2d 3a be a7 f4 4f bc
       0.014143373 0.028804418 -0.18181407 -0.012692607
000060 56 c1 c2 3b 57 53 9c ba e3 ea 88 3d 4a 60 24 be
       0.0059434576 -0.0011926693 0.06685426 -0.16052356
000070 aa e8 3c 3e ee 6e bb 3b ca f8 a8 3c 4d 45 f4 3d
       0.1844813 0.005720011 0.020626444 0.119272806
000080 90 43 b4 3d 3c d2 b4 3c c4 64 a9 3d 1c b3 cb be
       0.08801949 0.022072904 0.08271173 -0.39785087
000090 83 42 dc 3e 40 fc 29 39 7e 3d 15 bc c6 b7 da 3c
       0.43019494 0.00016211066 -0.009108899 0.026698958
0000a0 9a bb 0e 3b 4c 70 53 3c d3 b0 a5 be 1e bd 3c bc
       0.00217793 0.012905192 -0.3236147 -0.011519698
0000b0 ae 77 f1 3e e8 a9 71 3c b5 6d 75 3c 0b a0 42 3e
       0.4716162 0.014749981 0.0149797695 0.19006364
0000c0 1e 74 cd bc 57 7a 85 3c 65 8e 8b bc 8c ff 45 3e
       -0.025079783 0.016293688 -0.017035672 0.19335765
0000d0 62 54 88 bc a5 5e 41 be c7 ed d7 3c 59 33 ba bb
       -0.0166418 -0.1888376 0.026358498 -0.0056823906
0000e0 19 fa 8c 3d 29 54 7b 3c 71 8e 8c 3d c4 6b 18 3d
       0.0688364 0.01533989 0.06863106 0.03721215
0000f0 14 33 bc 3c fb 60 f0 bd 5d 70 cb 3b 83 06 0e bf
       0.022973575 -0.117372476 0.006208463 -0.55478686

gat_net.0.linear_proj.weight f4 [64, 1433]
000000 c5 11 d9 3c c7 5d 48 bc 93 93 0e 3e 1a 7f ad 3d
       0.026497731 -0.0122293895 0.13923483 0.08471508
000010 70 05 4c be 76 1c 24 bd 3d c7 1d 3e e9 5b 56 3d
       -0.19923949 -0.040066205 0.15408035 0.052333746
000020 b1 aa 2a be 46 60 6e 3d 18 0e 81 3b fc 59 98 bb
       -0.16666676 0.058197282 0.0039384477 -0.004649399
000030 3e e9 f7 bd d4 76 7e bd ae ed 47 bd 13 a1 92 bd
       -0.12105034 -0.062125042 -0.048810653 -0.07159629
000040 1b 16 78 3c 4f c7 09 3d 2b 07 0c 3d 9d dc 56 3c
       0.015141989 0.03363734 0.034186523 0.013114122
000050 94 81 03 2a 28 b6 77 3d 77 94 98 bc d5 37 98 bb
       1.1680094e-13 0.060476452 -0.018625481 -0.0046453276
000060 5f 3e 8d 3d c2 70 86 3d f3 d7 bb bc 9b 29 2a bd
       0.06896662 0.065644756 -0.022930121 -0.041543584
000070 bb 4f b6 bc c7 c1 cc 3c 5b 4e 58 3e b3 fd cd bd
       -0.022254815 0.024994744 0.2112364 -0.10058155
000080 46 41 bc bc 0a 09 54 3c 5e 14 a2 bd 8a b4 a0 bd
       -0.022980344 0.012941608 -0.07914041 -0.07846935
000090 79 70 2f 3c 1c 8f 72 3c 98 f7 b5 3d d3 50 79 3d
       0.010707968 0.014804628 0.088851154 0.060868096
0000a0 2c f7 59 be 4d aa 19 bc d7 d5 9c 3c 04 9b b9 b9
       -0.21285695 -0.009378982 0.019144936 -0.00035401445
0000b0 21 bf 53 bc 9d fe d5 3d 15 ca b6 bc 96 49 91 3d
       -0.012923987 0.10448954 -0.022313157 0.070941135
0000c0 3c e7 60 bd 1f 8c 00 ba dc 3b dc 3d c1 c5 26 3e
       -0.054908022 -0.0004903692 0.10753605 0.16286375
0000d0 56 9a 2a be d5 64 20 bc 4b 72 11 3e 56 1c 50 bb
       -0.16660437 -0.009789665 0.14203756 -0.003175517
0000e0 91 3b 20 3d 36 7e 30 bd a2 03 21 3c 65 9e f5 bd
       0.039119307 -0.043089114 0.009827526 -0.11993102
0000f0 38 94 ae a8 ea b0 a1 bc ed 75 c0 bd a6 77 bf 3d
       -1.938216e-14 -0.01973768 -0.093974926 0.09348993
000100 45 3d 88 ba e7 61 d9 3d dd 58 9a 3c f0 d1 83 bd
       -0.0010394236 0.106143765 0.018841201 -0.06436527
000110 df 6a 4a 3b 69 14 16 3d e0 9b 53 3c d7 97 31 bb
       0.0030886454 0.03664056 0.012915581 -0.002709856
000120 47 15 22 bd e2 67 06 bd 33 c6 10 3c 34 94 ff bd
       -0.039571073 -0.032813914 0.008836317 -0.124794394
000130 4c 67 07 3e 85 f5 5c 3c 35 4a cc bd ca 4b 9c bd
       0.13222998 0.013486271 -0.09975091 -0.07631643
000140 53 70 15 bd 50 59 f4 bd a2 45 63 bd e4 d9 c6 3d
       -0.036484074 -0.119310975 -0.05548633 0.09709528
000150 d2 b5 b3 bd f9 1f 68 be e6 8f 30 3b 1d 83 11 bd
       -0.08774914 -0.22668447 0.002694124 -0.03552543
000160 5b be 08 3e 76 d2 3f bc 69 73 4d 3a 8e c7 14 be
       0.13353865 -0.011707893 0.0007837327 -0.14529249
000170 f0 70 9a 3d 04 c6 a2 bd 2d 23 9e bc 2a 6a 96 3d
       0.07541072 -0.07947925 -0.019303882 0.07344468
000180 3d 1b a4 3d cf ec 48 3d 95 11 36 3d 6f dd 60 3e
       0.08013008 0.049053963 0.04445036 0.2195947
000190 df 85 d7 3c c0 e7 83 bc 1d 1e 9f 3d fc fb c4 bd
       0.026308952 -0.016101718 0.077694155 -0.09618375
0001a0 cc 92 e7 3c 62 c4 bd 3c 92 5d 7d 3d b4 c4 61 bd
       0.02826824 0.023164932 0.061856814 -0.05511923
0001b0 76 23 02 3e 2b cb 3b bd bd 2c d8 bc f4 71 e2 3c
       0.1270884 -0.045848053 -0.02638852 0.027642228
0001c0 e9 1b a7 3c 2e fe b9 bb 49 c6 e0 bc ba be 2c 3d
       0.02039905 -0.0056760525 -0.0274383 0.04217408
0001d0 f9 33 6b 3d 4c 29 99 bb 30 71 f0 3d f4 4a 9f 3c
       0.05742261 -0.0046741124 0.11740339 0.01944492
0001e0 59 29 d4 bd 06 a1 1f be 44 22 c8 3d 65 27 de bd
       -0.10359449 -0.1558877 0.09772161 -0.10847358
0001f0 f0 bb 67 bc e4 4d 0b 3d 61 c0 63 3e 37 cf aa 3c
       -0.014143929 0.03400983 0.22241355 0.02085076
000200 fe f3 27 bd 03 23 55 3d 3e b7 f6 bd 29 4a 22 3e
       -0.041004173 0.052035343 -0.120466694 0.15848602
000210 a1 24 47 bd 99 d1 90 3d 13 3c 9e 3b 72 ce 0a be
       -0.048618916 0.070712276 0.0048289387 -0.13555315
000220 bf 3c ca bd 9c 6a f2 3c cc 31 0a 3c 73 21 a8 3d
       -0.09874868 0.029591851 0.008434724 0.08209505
000230 61 a1 5c 3e d6 99 5f bc 9c 87 ad 3d ad 23 62 be
       0.21545936 -0.013647517 0.08473131 -0.22083922
000240 eb 11 17 3d 4e 92 88 29 27 89 74 3d 0a 73 cf bc
       0.036882322 6.064993e-14 0.05970111 -0.02532341
000250 23 aa 77 3d 56 0c 71 3d 4e 55 c8 bd 66 55 61 bd
       0.06046499 0.058849655 -0.097818956 -0.055013083
000260 c0 38 2c 3d 51 29 b9 3a 69 f7 8c bc a2 80 a1 3d
       0.04204631 0.0014126693 -0.017207818 0.07885863
000270 2a 9c 25 3d df b0 9e bc ff 7a 2a bc 39 1b c5 3c
       0.040432133 -0.019371448 -0.010405301 0.024060832
000280 81 0a dc bd 4b fb 26 3c 6c ba f1 bd e6 60 46 3d
       -0.10744191 0.010191749 -0.11803135 0.048432253
000290 6c 3d 6e 3c 51 58 92 3c 5e 18 ba b9 c4 d1 fb 3c
       0.014541011 0.017864378 -0.0003549484 0.030739672
0002a0 a1 09 dc bc ba 31 82 bd f0 fa b5 bc 9c cf d4 3b
       -0.02686006 -0.06357141 -0.022214383 0.0064944755
0002b0 66 23 51 3d 8a 1f d7 3d 64 fc 27 bd 0f 91 e3 bb
       0.05105915 0.105040625 -0.041012183 -0.0069447826
0002c0 c2 95 11 be 44 5a 95 bc da e0 9d 3c a6 62 9f bd
       -0.14217284 -0.018231519 0.019272257 -0.077824876
0002d0 c1 14 a2 3b 41 b9 a8 3c 38 58 5f 3d 7b b8 25 3c
       0.0049463217 0.020596148 0.05452749 0.010114784
0002e0 3f b1 be 3b 2a 9f 28 bb f4 85 e5 bd 70 27 f5 3d
       0.005819469 -0.0025729635 -0.1120719 0.11970413
0002f0 29 3b 0b 3d 69 7d 1c bd 48 7f 25 bc 5e d9 a2 3d
       0.033991966 -0.038205538 -0.010101147 0.07951616
000300 b0 6f 97 bd 92 dc 8d 3d ae a0 d8 3d ed 62 0a 3d
       -0.073943496 0.06926836 0.10577522 0.03378575
000310 8f 62 92 bd e8 0e 67 bb 03 56 42 3c 28 09 13 3d
       -0.07147705 -0.0035256688 0.011861327 0.035897404
000320 81 43 1f 3d 51 66 16 bc f0 47 84 3d 93 85 30 bc
       0.038882736 -0.009179668 0.064590335 -0.010774034
000330 17 6e 6e 3c 11 e0 aa bd cc fd 35 bc e4 70 e6 bd
       0.014552615 -0.083435185 -0.011107873 -0.11252001
000340 e8 ac 03 bc a6 c5 45 3a f4 bd ef bc ff 3c 1c 3e
       -0.0080368295 0.00075444055 -0.029265381 0.15257643
000350 5e 54 81 3d c8 b9 cf 3c 76 11 ff bc 05 b8 b2 3c
       0.0631492 0.025357142 -0.031136256 0.021816263
000360 87 f5 3d bd 20 3c 38 be 54 4a e9 bd ef 91 95 3c
       -0.04637673 -0.17991686 -0.1139113 0.018258063
000370 40 8f 14 3d 66 18 18 3c 28 1e 47 bc 9f ab 88 ba
       0.036269426 0.009283161 -0.012153186 -0.0010427124
000380 cf 27 26 bd 68 98 e9 bb 58 6f ff bd 9f a7 7e bd
       -0.04056531 -0.007128764 -0.12472409 -0.062171575
000390 a5 5c 57 bd a8 4a 9c 3d 39 c0 d5 bc e7 a7 e7 bd
       -0.052578587 0.07631427 -0.026092635 -0.11311322
0003a0 3b aa b0 3d 86 ae 42 bd 39 09 22 be c0 22 58 bc
       0.08626219 -0.04752972 -0.1582383 -0.013191879
0003b0 aa cd 62 bd 5d 5b 87 3d a4 29 a5 39 b0 6b fe bd
       -0.055371918 0.06609223 0.00031502277 -0.124228835
0003c0 c9 2e ee 3b f4 0c a3 3c 95 c2 a6 3c 6d 6b cb 3d
       0.007268761 0.019903637 0.020356456 0.09932599
0003d0 82 4a d9 3c 3a d6 b1 3d ac 7c ae bb 80 35 2c 37
       0.026524786 0.086834386 -0.0053249206 1.0264455e-05
0003e0 80 6d 4e 3d e0 54 c4 3c 2c da 21 3d f6 90 c3 3c
       0.050397396 0.023966253 0.039514706 0.023872834
0003f0 e3 22 ae bc a6 35 43 3c 19 f2 59 3d 85 93 3e 3c
       -0.02125687 0.011914646 0.053209398 0.011631851

gat_net.1.scoring_fn_target f4 [1, 1, 7]
000000 84 2b fe 3c 6c 46 90 bb 4a d5 1b 3c a8 41 cf 39
       0.03102661 -0.004402926 0.009511301 0.00039531034
000010 a5 79 74 bc b7 14 80 3b f2 20 1c bb
       -0.01492158 0.0039087194 -0.0023823348

gat_net.1.scoring_fn_source f4 [1, 1, 7]
000000 9c 8a 64 3e 51 8d f6 3d 87 4c 06 bc 49 a8 48 bc
       0.223185 0.12038673 -0.0081969565 -0.012247154
000010 7a 91 b1 38 47 9f e7 ba 30 3a 5e 3b
       8.467115e-05 -0.001767137 0.0033909194

gat_net.1.bias f4 [7]
000000 77 e1 be 3f c3 59 55 3f f3 65 b1 bf af 29 af bf
       1.4912556 0.8334009 -1.3859237 -1.3684596
000010 3e 80 ad bf 84 16 b0 bf 32 35 b3 bf
       -1.3554761 -1.3756871 -1.4000609

gat_net.1.linear_proj.weight f4 [7, 64]
000000 08 f8 6f 3f 56 1a 46 3f 16 87 30 be 06 53 6a 3f
       0.9373784 0.77383935 -0.17239031 0.91532934
000010 15 d8 5b be 6d 3c c1 be 73 a5 e3 3b 66 f4 72 3f
       -0.21469148 -0.37741414 0.0069472133 0.9490417
000020 88 e6 57 bf fa 43 0b bf 34 2f 30 bf 82 fb 9a bc
       -0.8433614 -0.544006 -0.68822026 -0.018918756
000030 df e4 fc bc 12 66 5c bf fa 39 2b 3f 29 15 1f 3d
       -0.030870853 -0.86093247 0.6688534 0.03883854
000040 77 34 55 be 89 22 82 bf 7d 75 5c bd d0 3b 3b bf
       -0.20820795 -1.0166789 -0.053822983 -0.7313814
000050 76 da 0f 3f 3d 85 cd 3e 24 a6 6e 3d ba f6 6f bf
       0.5619272 0.40140715 0.058263913 -0.9373585
000060 d4 f9 41 3f 68 3d 82 bf 3c 1f a2 3e b2 81 08 be
       0.7577183 -1.017499 0.31664455 -0.13330725
000070 26 70 1c 3e 36 4a 0e bf 3c 60 49 3f 34 da a6 3d
       0.15277156 -0.55581987 0.78662467 0.08147088
000080 d2 b1 0c be e1 bf cd be 24 f0 95 3e d3 63 8d bc
       -0.13739708 -0.40185454 0.29284775 -0.017259514
000090 b5 ab e4 bc eb ac 46 3f f7 b5 1d 3f e0 57 13 3f
       -0.027913908 0.776076 0.6160578 0.5755596
0000a0 23 27 47 bf 77 cf 6c 3f 9a ab 93 3b be fa f6 3e
       -0.7779409 0.92504066 0.0045065405 0.48238176
0000b0 19 16 29 bc 09 d7 22 bf e1 61 6d bf b4 1a 76 3d
       -0.01032021 -0.6360937 -0.92727476 0.06008406
0000c0 b9 29 31 3f ce 6a f6 3e d8 04 39 bf 5f 2b a4 3d
       0.6920429 0.4812836 -0.72273016 0.08016085
0000d0 c2 82 e4 be c8 66 77 bd 7c 91 df 3e d7 a5 52 3f
       -0.4463101 -0.060400754 0.43665683 0.822843
0000e0 8c 78 9b be e0 2a 2c bf 4e d8 1c be c5 bd 77 be
       -0.30365407 -0.6725292 -0.15316889 -0.24193485
0000f0 39 52 2c 3f fb 78 24 be 28 d5 0e 3f 55 93 68 3c
       0.6731296 -0.16061775 0.55794 0.014195283
000100 11 8b 88 bf a9 15 5b bf c5 7e fe bd c9 ca 83 bf
       -1.066744 -0.85579926 -0.12426523 -1.029626
000110 a7 4a 9b bc 0f 00 20 3f 35 11 f5 3c aa e0 83 bf
       -0.018956495 0.6250009 0.029915432 -1.0302937
000120 c6 d1 6a 3f cb df 2a 3f 8a 50 33 3f 2a cd a9 bc
       0.9172634 0.6674773 0.7004477 -0.020727713
000130 8a 4d 7a bd fc 82 59 3f e5 18 45 bf 28 dd ff 3c
       -0.061109103 0.8496549 -0.7699111 0.031233385
000140 42 18 ca 3e df 70 72 3f 10 01 e6 3d 04 80 5d 3f
       0.39471632 0.9470348 0.112306714 0.8652346
000150 1f d9 13 bf 9e 98 b7 be d0 71 f0 bd 92 91 7a 3f
       -0.57753175 -0.35858625 -0.11740458 0.9787837
000160 e4 51 4f bf c8 ca 81 3f b3 fc 45 be f3 58 79 3c
       -0.8098433 1.0140009 -0.19334678 0.015218961
000170 ba 29 48 be f4 eb ff 3e a4 50 65 bf 9e db 3c 3e
       -0.19547167 0.49984705 -0.8957617 0.18443152
000180 6c ad 92 3e a3 69 53 3e b5 2a d9 bd 99 74 b3 bc
       0.28647935 0.20645766 -0.10603849 -0.021906184
000190 1d d0 2b 3d 35 30 76 bf 6e 06 bc be 81 f1 bf be
       0.04194652 -0.9616731 -0.36723655 -0.3748894
0001a0 0d 46 82 3f 33 8a 96 bf 86 80 18 bd 1b 1a d1 be
       1.0177628 -1.1760925 -0.037231945 -0.4084023
0001b0 58 3d 62 3c 31 e1 2b 3f fc da 72 3f ad 69 f2 3d
       0.013808571 0.6714049 0.94865394 0.11836562
0001c0 25 5e 67 bf 07 18 13 bf a8 16 5c 3f f5 7b e9 3c
       -0.9037803 -0.5745854 0.8597207 0.02850149
0001d0 a8 b9 22 3e 49 53 8e bd 12 8a af be 27 88 8b bf
       0.15891135 -0.06949479 -0.34285027 -1.0900925
0001e0 f2 0b e8 3e 38 57 13 3f dd 3d c2 3e aa 4d d6 3e
       0.45321614 0.5755496 0.37937823 0.41856128
0001f0 db b8 20 bf 2d 02 5f bc 6c 3a da be 77 42 8b bc
       -0.6278207 -0.013611359 -0.42622697 -0.016999466
000200 f2 80 e7 bd 7f c9 37 be f3 a0 a3 3e 5e e2 42 bd
       -0.11303891 -0.17947958 0.31958732 -0.04757916
000210 26 cb 72 3e 33 8e 1a be eb 16 00 3f b5 a4 ca bc
       0.23710307 -0.15093307 0.5003497 -0.024736742
000220 51 c4 c9 3c 02 a2 6c 3e 82 01 3a 3e c1 50 31 bf
       0.024629744 0.23108676 0.18164638 -0.69263846
000230 b0 44 bf 3e 04 a6 57 3e ac 0a 85 bd 2e 8a b4 be
       0.37357092 0.21059424 -0.06496176 -0.35261673
000240 c1 f5 8d be 8d f9 38 3d 4a 54 ca 3e e3 75 13 3e
       -0.27726558 0.045159865 0.39517432 0.14400439
000250 e0 c7 85 be ee 45 64 be 4e 6d a1 3e 78 e3 a9 3d
       -0.26129055 -0.22292301 0.31528705 0.08295339
000260 23 6b 0e be c1 8d f1 3d cb 42 af be bd c0 88 3e
       -0.13908057 0.117946155 -0.34230646 0.26709548
000270 1c ba e2 be 0f 70 85 3e 63 9b 3a bd c7 65 83 be
       -0.44282615 0.26062056 -0.045558345 -0.25663587
000280 ac 93 0c be a2 60 59 3e 29 01 24 be 32 d7 0c 3f
       -0.13728207 0.21228269 -0.16016068 0.5501586
000290 01 23 10 bf 6b 60 27 bd 25 4e 03 bd b3 26 8a 3c
       -0.5630341 -0.040863436 -0.032056946 0.016864156
0002a0 5f 63 70 bd 77 29 15 3c 58 a9 e2 3e f0 bc 43 be
       -0.058688518 0.009104124 0.44269824 -0.19115043
0002b0 b1 bf 0a bf 46 dc 69 3e 0a d8 62 3d 85 c3 ad be
       -0.5419875 0.22837934 0.055381812 -0.33938232
0002c0 68 33 43 3e 2f 58 be bd 8c 96 13 3e 60 61 be be
       0.19062579 -0.092941634 0.14412898 -0.37183666
0002d0 dd 22 da 3d b8 35 bb 3e 45 46 91 be 69 e2 a5 bc
       0.10651181 0.36564422 -0.28373924 -0.020249562
0002e0 46 52 75 be cb e2 87 3c b2 29 09 be 0b 45 8a be
       -0.23957166 0.016587636 -0.13394812 -0.270058
0002f0 42 44 6d be 1a 83 90 3e e7 69 5d be 0c ab 25 3f
       -0.2317057 0.28225023 -0.2162243 0.6471412
000300 2a aa 05 be ea de 09 be fd 1e aa 3e 08 d4 fe bd
       -0.13053194 -0.13463941 0.33226767 -0.124427855
000310 1e 1b d8 3d c9 84 cd bd 28 c5 8c 3e ea 0b 1d be
       0.10552047 -0.100350924 0.27494168 -0.15336576
000320 f6 3f 25 3e 40 6e 54 3e 0b 7f 34 3e e2 e4 41 bf
       0.1613768 0.20745182 0.17626588 -0.7573987
000330 29 27 99 3e 40 bb f2 bc 02 3a 47 be 73 c0 b0 be
       0.2991269 -0.029630303 -0.19455722 -0.34521827
000340 82 12 cb be 4b c4 9e 3c 71 62 a7 3e 4e 41 4f 3e
       -0.39662558 0.01938071 0.32692292 0.20239756
000350 65 4b 87 be 63 02 b4 be 68 32 a0 3e e2 1d 6b 3d
       -0.2642471 -0.3515807 0.31288457 0.057401545
000360 23 38 05 be 1e fe 99 bc 10 b0 60 be 45 f1 ce 3e
       -0.13009696 -0.01879793 -0.21942163 0.4041845
000370 2d aa e8 be 23 98 b0 3d a2 90 b7 bd 7b 60 1d be
       -0.45442334 0.08622768 -0.089631334 -0.15368836
000380 85 dc 87 be 55 66 6d 3e 21 87 13 be 21 56 08 3f
       -0.2653543 0.23183568 -0.14407016 0.5325642
000390 54 f2 27 bf b2 f5 1d bd 8c 4c 24 bd 1b 9b 8c bd
       -0.6560414 -0.03856439 -0.040112063 -0.068655215
0003a0 5b 80 9c bd 1f 3d 86 bd ce bf e1 3e fc 90 c9 bd
       -0.07641669 -0.06554627 0.44091648 -0.09842107
0003b0 5d 32 14 bf 4d 52 91 3d 77 68 e4 3d c8 69 95 be
       -0.5788935 0.07095776 0.111527376 -0.29182267
0003c0 1d f6 0e 3e 14 a5 3e be 5f c6 ba 3d 11 bf 8a be
       0.13961072 -0.1861766 0.091198675 -0.27098897
0003d0 29 dd 98 3d 66 9c 8a 3e 1d 9d 39 be 09 64 a0 bd
       0.07464058 0.27072448 -0.1812634 -0.0783158
0003e0 75 74 c1 be fa 34 43 3e 20 63 83 be 62 0d ad be
       -0.37784162 0.19063178 -0.25661564 -0.33799273
0003f0 3c b5 60 be d1 d3 b7 3e 48 ac b9 bd d8 ee 1c 3f
       -0.21944135 0.3590379 -0.09066063 0.61301947
