python/binarypath/binaries/gat_000018.pth (torch, 372431 bytes, 8 tensors)

gat_net.0.scoring_fn_target f4 [1, 8, 8]
0.0559693 0.041317567 -0.03830518 -0.0071531367 -0.044035345 0.03711387 0.028047565 -0.009480325
-0.0019769545 0.006601465 -0.00054161623 0.0527281 -0.005803919 0.026522402 -0.020302238 0.060013827
0.052585527 0.033660274 -0.0029170215 -0.041701045 0.04295777 -0.0061937077 0.004661302 0.017743547
-0.012035182 0.018790081 0.03412163 0.02375909 0.020197514 -0.053718545 -0.0036008728 0.02147086
-0.056185927 0.027960477 0.057818275 0.003149352 -0.04001575 -0.0069362978 0.018283278 -0.017724555
0.049887143 -0.053699378 0.011135614 -0.016196087 0.020605857 -0.0037099845 -0.009445948 -0.0726835
0.027799886 0.06296072 -0.045866873 0.023655107 0.034659628 0.013762196 -0.04704823 -0.029751413
-0.014295641 0.06327878 -0.07581974 -0.056899175 0.0028839456 -0.02294719 0.014728724 -0.027713185
00000000: 1140 653d 9c3c 293d e4e5 1cbd dc64 eabb
00000010: 685e 34bd b704 183d 02c4 e53c 5d53 1bbc
00000020: cb8f 01bb 1a51 d83b 40fb 0dba 6cf9 573d
00000030: cd2e bebb 8245 d93c e150 a6bc 0fd1 753d
00000040: ec63 573d 5bdf 093d 802b 3fbb b7ce 2abd
00000050: 7df4 2f3d 96f4 cabb d6bd 983b ea5a 913c
00000060: 362f 45bc a8ed 993c 1fc3 0b3d 6ca2 c23c
00000070: 4275 a53c fa07 5cbd 9ffc 6bbb a8e3 af3c
00000080: 3723 66bd 5f0d e53c dbd2 6c3d 5c65 4e3b
00000090: 8ee7 23bd e249 e3bb d0c6 953c 1633 91bc
000000a0: 7656 4c3d e1f3 5bbd 2672 363c a8ad 84bc
000000b0: 9dcd a83c 3623 73bb 2dc3 1abc 16db 94bd
000000c0: 96bc e33c 8df1 803d e7de 3bbd 5bc8 c13c
000000d0: 41f7 0d3d d57a 613c a5b5 40bd 3cb9 f3bc
000000e0: 4438 6abc 4e98 813d 6147 9bbd 1c0f 69bd
000000f0: 9400 3d3b bffb bbbc bf50 713c c306 e3bc

gat_net.0.scoring_fn_source f4 [1, 8, 8]
0.017724395 0.3275981 -0.09435027 -0.344247 -0.09950865 0.36189875 0.11566061 -0.0034046657
0.29708403 -0.035842195 -0.07187482 0.18251824 -0.123655915 0.048088625 -0.19731529 0.26251727
0.112410024 0.16341393 0.06356199 -0.21032691 0.1522559 0.20935588 -0.14144504 -0.060680434
-0.18218318 0.08437816 -0.007652404 0.019019052 0.108616464 -0.01842694 -0.1518823 0.070525125
-0.035404775 0.07071011 0.08032592 0.13714108 -0.044112016 -0.06416987 0.13324282 -0.008078411
0.12878871 -0.32403204 0.0386546 0.06456115 0.058221526 -0.14831671 -0.07039036 -0.2575329
0.23409978 0.19832052 -0.1479641 -0.05507663 0.10019825 -0.11261703 -0.10835576 0.012478713
-0.009082294 0.16093491 -0.1655158 -0.12166474 -0.11332835 0.12855928 0.12997966 -0.0753961
00000000: c032 913c f0ba a73e b73a c1bd 2541 b0be
00000010: 31cb cbbd cb4a b93e 78df ec3d d020 5fbb
00000020: 661b 983e 44cf 12bd 1b33 93bd 10e6 3a3e
00000030: 503f fdbd 94f8 443d 050d 4abe aa68 863e
00000040: 3a37 e63d fb55 273e ca2c 823d f05f 57be
00000050: f8e8 1b3e 6361 563e f8d6 10be 0c8c 78bd
00000060: 3a8e 3abe 75ce ac3d 04c1 fabb d8cd 9b3c
00000070: 4f72 de3d 18f4 96bc 0987 1bbe 7a6f 903d
00000080: 9904 11bd 76d0 903d ea81 a43d b66e 0c3e
00000090: cdae 34bd 7e6b 83bd ce70 083e 505b 04bc
000000a0: 30e1 033e 87e7 a5be 4954 1e3d a338 843d
000000b0: b279 6e3d 56e0 17be d228 90bd 5adb 83be
000000c0: dab7 6f3e 8914 4b3e e783 17be 0898 61bd
000000d0: bd34 cd3d c2a3 e6bd a0e9 ddbd 8473 4c3c
000000e0: e7cd 14bc 1fcc 243e f97c 29be 5d2b f9bd
000000f0: b218 e8bd 0ba5 033e 6319 053e 4569 9abd

gat_net.0.bias f4 [64]
0.01099384 -0.022914967 0.017900193 0.07719891 -0.016234796 -0.006860579 0.00271512 -0.0067068925
-0.0072439536 0.017756104 0.0002618878 0.018181212 0.0029057187 0.010311369 0.021781234 -0.022449076
-0.019167978 0.016932297 -0.010368771 0.025652902 0.041865513 -0.014765496 0.008696678 -0.007323459
-0.000971457 0.028714232 0.0019328924 0.011276161 0.050510466 -0.0023539737 -0.011297851 0.0003109636
-0.012156606 -0.030959507 -0.017644756 -0.010077642 -0.02220815 -0.02688334 0.035002273 -0.023433384
-0.021424422 -0.007916557 -0.019785956 -0.015908957 -0.0051788827 -0.003633256 -0.02631351 0.0057729073
0.0076012 -0.014468618 -0.016463991 0.055374645 0.016343333 0.011462288 -0.017985541 -0.0100661535
-0.008066298 -0.02948152 -0.04402748 -0.008460509 0.018548144 0.006500313 0.007353744 0.01663815
00000000: 821f 343c 2bb8 bbbc 6da3 923c 761a 9e3d
00000010: d6fe 84bc b5ce e0bb 28f0 313b 7ec5 dbbb
00000020: b05e edbb 4075 913c fc4d 8939 c4f0 943c
00000030: df6d 3e3b 04f1 283c 8f6e b23c 20e7 b7bc
00000040: 2a06 9dbc 9ab5 8a3c c7e1 29bc 0926 d23c
00000050: 2c7b 2b3d fbea 71bc 837c 0e3c a0f9 efbb
00000060: 60a9 7eba 1c3a eb3c 1b59 fd3a a6bf 383c
00000070: 10e4 4e3d 2045 1abb 9f1a 39bc d408 a339
00000080: 802c 47bc cb9e fdbc bc8b 90bc b21c 25bc
00000090: deed b5bc 733a dcbc 8b5e 0f3d 5ef7 bfbc
000000a0: 4582 afbc 72b4 01bc 2816 a2bc 8053 82bc
000000b0: 9eb3 a9bb ec1b 6ebb 6e8f d7bc a82a bd3b
000000c0: 7d13 f93b c80d 6dbc 7edf 86bc 86d0 623d
000000d0: 74e2 853c 52cc 3b3c 6a56 93bc 82ec 24bc
000000e0: 8228 04bc 3b83 f1bc 2956 34bd f29d 0abc
000000f0: 47f2 973c 9400 d53b adf7 f03b bb4c 883c

gat_net.0.linear_proj.weight f4 [64, 1433]
0.07052253 0.07547737 0.013374964 -0.07666152 -0.10880682 0.007821832 -0.06945179 0.034400433
-0.040035315 -0.0014036037 0.026373368 0.018966917 0.011844061 -0.0448715 -0.018847376 -0.13234362
0.037929025 0.022895344 -0.004783127 0.12662499 -4.6726283e-05 0.040310394 -0.009158532 -0.01852201
0.0018252388 0.0015526391 -0.023108844 0.013473561 -0.041884676 -0.03425449 0.08544731 -0.006996647
0.0020326462 0.0012956255 0.03469655 -0.044238284 0.026333937 0.045603648 -0.006246505 -0.022535263
-0.1719717 -0.030308628 0.011117009 0.00081327837 0.078156084 0.10757412 0.013332597 0.013834658
-0.09161745 -0.024073318 0.06864817 0.10758858 -0.06958414 -0.0012603878 0.06499342 -0.06332783
-0.07842899 -0.0006305797 0.044911504 -0.038612653 -0.00012327764 0.020919861 -0.023745969 -0.03712721
-0.1396998 -0.029170094 0.037323035 -0.0024805833 -0.032834187 -0.004506721 0.049291227 -0.004006061
0.023167556 -0.020196933 0.047068775 -0.027112838 0.09638541 0.067361146 -0.058285207 -0.014739752
-0.07590783 -0.004347928 0.02301073 0.009672892 -0.05595463 -0.08806701 -0.005126258 0.03997316
0.109348826 -0.01755163 -0.018039912 -0.04376473 0.021151686 4.7658104e-06 -0.116335735 0.07378903
-0.029420735 0.10134472 0.018811136 -0.034380138 0.022588598 0.0019311712 0.10257779 0.0130981
-0.02059086 -0.040750787 0.02424967 -0.023465239 0.02600721 -0.05030883 -0.0048337476 0.027544418
0.019240124 0.00058847154 0.0087072505 0.004512428 0.08881392 0.033887874 -0.08596526 -0.004759352
-0.09888835 -0.090157986 -0.0154587915 -0.092849694 -0.0070934203 -0.06001304 0.0063273585 -0.0021305021
-0.02359619 0.0322226 -0.028758802 0.10519131 -0.10396157 0.02200967 -0.033860367 0.040045805
0.011824587 -0.021186816 -0.003019856 0.09876833 -0.13320255 -0.07142974 0.020781737 -0.054044407
0.020144261 1.35806495e-05 -0.07389133 0.0122372545 0.0036432336 0.08766194 -0.04400967 -0.0032620174
-0.015009635 0.053808253 -0.060624048 0.11640261 -0.0018191971 0.035967126 -0.026594652 -0.05211631
-0.075492896 -0.058529466 -0.04908977 0.019346545 0.0037456604 -0.0033856407 0.0072048153 -0.012600888
0.028382402 -0.03903176 -0.06988389 -0.00015106465 0.1315779 0.031332765 0.033087056 -0.008540869
-0.030340604 0.055307277 0.0034320238 -0.053921774 -0.004300598 -0.006748587 0.0223448 0.117789626
0.003361752 5.6412468e-05 0.041946597 0.006712042 -0.0036873636 -0.07930679 0.006477899 -0.06800275
-0.06725787 0.036064774 0.024472287 -0.03137186 -0.0069574937 -0.04765468 0.028445031 0.011517426
0.006698791 0.0023816335 -0.014717074 0.048882846 1.9506842e-08 0.06869344 0.030555474 -0.0029804881
-0.03657477 0.002541998 -0.016999882 -0.00873365 0.12983285 -0.048465993 0.036594182 0.0007946968
0.008218145 -0.07943184 -0.010065752 -0.018219547 0.0062208483 -0.06535201 -0.016851023 0.0077649048
-0.09599846 0.054244153 -0.07327419 0.0031296683 0.017157322 0.018969132 0.033475604 -0.008354004
-0.060645156 -0.10282845 -0.16695006 -0.008405137 -0.032242574 -0.044984683 0.07598588 0.06075341
0.020145351 0.016384333 -0.009993134 0.024709243 0.030812573 -0.030282443 0.019853106 -0.033388726
0.036987282 0.12503016 0.047515374 -0.02776926 0.022696111 0.0050892243 0.022769816 -0.05193264
00000000: 1e6e 903d e193 9a3d aa22 5b3c b700 9dbd
00000010: 1cd6 debd 2427 003c bd3c 8ebd 78e7 0c3d
00000020: 12fc 23bd 20f9 b7ba f60c d83c 8260 9b3c
00000030: 980d 423c 2ecb 37bd d065 9abc 1685 07be
00000040: 775b 1b3d 048f bb3c c7bb 9cbb fba9 013e
00000050: f7fb 43b8 831c 253d ab0d 16bc 78bb 97bc
00000060: da3c ef3a ec81 cb3a c24e bdbc 36c0 5c3c
00000070: 448f 2bbd 704e 0cbd 00ff ae3d 2144 e5bb
00000080: 2536 053b fad1 a93a f81d 0e3d 3433 35bd
00000090: 45ba d73c e4ca 3a3d 7baf ccbb df9b b8bc
000000a0: 5919 30be cd49 f8bc 1e24 363c 3032 553a
000000b0: 4c10 a03d d24f dc3d f770 5a3c c3aa 623c
000000c0: eea1 bbbd 6835 c5bc 6997 8c3d 6757 dc3d
000000d0: 2182 8ebd 9933 a5ba 451b 853d 05b2 81bd
000000e0: 619f a0bd 7d4d 25ba 20f5 373d 4d28 1ebd
000000f0: 1744 01b9 2160 ab3c e886 c2bc b412 18bd
00000100: 770d 0fbe 1ff6 eebc 0ae0 183d 4891 22bb
00000110: 247d 06bd 1ead 93bb 99e5 493d 4645 83bb
00000120: e3c9 bd3c 0a74 a5bc 30cb 403d be1b debc
00000130: b765 c53d a4f4 893d 78bc 6ebd 007f 71bc
00000140: 9075 9bbd 1079 8ebb 0081 bc3c 0d7b 1e3c
00000150: af30 65bd 7a5c b4bd 2bfa a7bb e5ba 233d
00000160: 47f2 df3d 70c8 8fbc 70c8 93bc a542 33bd
00000170: 4d46 ad3c 00ea 9f36 6e41 eebd b41e 973d
00000180: c103 f1bc d28d cf3d d019 9a3c 30d2 0cbd
00000190: b90b b93c 5a1f fd3a 4e14 d23d 6a99 563c
000001a0: 2aae a8bc 4cea 26bd 3ea7 c63c 2c3a c0bc
000001b0: 130d d53c a210 4ebd 6a64 9ebb d5a4 e13c
000001c0: 779d 9d3c a843 1a3a dba8 0e3c fddc 933b
000001d0: 13e4 b53d 03ce 0a3d 8e0e b0bd 57f4 9bbb
000001e0: fa85 cabd c0a4 b8bd df46 7dbc fb27 bebd
000001f0: ec6f e8bb 3cd0 75bd bb55 cf3b e59f 0bbb
00000200: cc4c c1bc d8fb 033d 9497 ebbc 8b6e d73d
00000210: cee9 d4bd a04d b43c 2bb1 0abd 1207 243d
00000220: eabb 413c f98f adbc c7e8 45bb 0d47 ca3d
00000230: 4066 08be c149 92bd 763e aa3c ab5d 5dbd
00000240: 9405 a53c 72d8 6337 5654 97bd c47e 483c
00000250: 51c3 6e3b 1a88 b33d 7c43 34bd 92c7 55bb
00000260: f9ea 75bc 0b66 5c3d ec50 78bd 7e64 ee3d
00000270: 2072 eeba 4452 133d 07dd d9bc e977 55bd
00000280: 059c 9abd 98bc 6fbd 5b12 49bd a57c 9e3c
00000290: c179 753b a0e1 5dbb 5f16 ec3b f473 4ebc
000002a0: 3682 e83c c4df 1fbd 491f 8fbd 1c67 1eb9
000002b0: 5bbc 063e c956 003d 4b86 073d 00ef 0bbc
000002c0: dc8c f8bc e289 623d ceeb 603b 14dd 5cbd
000002d0: 08ec 8cbb 4023 ddbb 710c b73c b03b f13d
000002e0: d750 5c3b 6d9c 6c38 32d0 2b3d b0f0 db3b
000002f0: b2a7 71bb 996b a2bd 8e44 d43b 0745 8bbd
00000300: 7fbe 89bd a8b8 133d 1b7a c83c c87f 00bd
00000310: b0fb e3bb 8e31 43bd 8e05 e93c 96b3 3c3c
00000320: 8881 db3b 2e15 1c3b e21f 71bc 6139 483d
00000330: 0090 a732 25af 8c3d 794f fa3c 4b54 43bb
00000340: 6dcf 15bd a697 263b 5643 8bbc 9517 0fbc
00000350: e7f2 043e 4784 46bd c8e3 153d 3353 503a
00000360: 66a5 063c 29ad a2bd d3ea 24bc 2941 95bc
00000370: 42d8 cb3b 46d7 85bd 280b 8abc be70 fe3b
00000380: d79a c4bd 1e2f 5e3d c710 96bd 1f1b 4d3b
00000390: 838d 8c3c 2765 9b3c b71d 093d 3bdf 08bc
000003a0: 0e67 78bd b997 d2bd f5f4 2abe b3b5 09bc
000003b0: ca10 04bd dc41 38bd 7c9e 9b3d 91d8 783d
000003c0: dd07 a53c 7038 863c 3eba 23bc 0a6b ca3c
000003d0: a66a fc3c e312 f8bc fba2 a23c 9ec2 08bd
000003e0: fa7f 173d e807 003e 7b9f 423d 5c7c e3bc
000003f0: 32ed b93c 82c3 a63b c487 ba3c 52b7 54bd

gat_net.1.scoring_fn_target f4 [1, 1, 7]
-0.25537083 0.11567964 0.028866198 0.11962485 -0.0036570048 0.14341229 0.07513063
00000000: f7bf 82be 72e9 ec3d ce78 ec3c e0fd f43d
00000010: 5caa 6fbb acda 123e 16de 993d

gat_net.1.scoring_fn_source f4 [1, 1, 7]
-0.34058395 0.5911007 0.16843551 0.59195185 0.50571597 0.7704722 0.7908254
00000000: 0561 aebe 6052 173f 5c7a 2c3e 288a 173f
00000010: 9a76 013f ab3d 453f 8973 4a3f

gat_net.1.bias f4 [7]
0.13820612 -0.08245837 0.13438456 0.014726496 -0.043679744 -0.08468151 -0.029756589
00000000: e885 0d3e efdf a8bd 1b9c 093e 6747 713c
00000010: 88e9 32bd 806d adbd 17c4 f3bc

gat_net.1.linear_proj.weight f4 [7, 64]
-0.25199574 -0.37175867 0.1727423 -0.21243119 0.12292057 -0.26641133 0.15148456 0.1545137
-0.33587033 0.5222523 0.0059261164 0.4339545 0.36651662 0.24632877 0.43346632 0.13740742
0.39792705 -0.1680521 0.15648156 0.18713613 -0.2864849 -0.34960583 0.25517467 -0.44509026
0.38309932 -0.3900401 -0.21564844 0.48940554 -0.013294387 0.37879354 0.19626237 -0.10570664
-0.2634531 -0.17902358 -0.39430287 0.42266563 0.38771755 -0.16356675 0.09963051 0.37190446
-0.38543156 0.1638861 0.21418509 -0.15665263 -0.076891154 -0.5209797 -0.12371129 0.36304152
0.4684017 -0.21394555 0.3145337 -0.018448181 -0.26503304 -0.078351416 -0.2804357 0.10191072
-0.24404123 0.039399702 0.15863217 0.4192602 0.16318154 -0.5060168 -0.36776388 0.28354198
0.26155728 0.3437952 0.45411354 -0.33773845 0.45103586 0.110895514 -0.46971294 -0.34875745
0.4485659 0.3627465 -0.35055828 0.5247741 -0.2335847 0.48392317 -0.20409392 0.61896026
-0.121275134 0.24682523 0.4748018 -0.4447527 -0.3958673 0.36342296 -0.20543447 0.027213579
-0.5282612 0.50397676 -0.3973295 -0.36452362 -0.31080928 -0.28225365 -0.62945396 0.2602809
0.42514753 -0.3581977 -0.5903305 0.33216673 0.3223789 -0.3230211 -0.49261054 0.14635244
0.36614487 -0.49019516 -0.043472756 -0.45880827 0.43605572 -0.43892223 -0.5570655 -0.5172867
0.40043092 0.57870466 -0.37079662 -0.14866892 0.2201869 -0.41318348 -0.44512013 0.34766373
-0.03575127 0.3699227 -0.4275463 -0.4116735 -0.514075 0.46791744 0.36688495 -0.3683496
-0.22601944 0.5441051 -0.4966199 -0.44663677 -0.5602193 0.6410234 0.24612473 0.4320356
0.25937963 -0.4199437 -0.33050978 -0.5720999 -0.43167397 -0.45694405 -0.22206809 -0.10677336
0.49901915 -0.33375657 0.2514332 -0.36473 0.43202594 0.38224345 0.41312426 -0.37408334
-0.5088125 0.3535443 0.5858118 -0.13895783 0.6657035 0.30734447 -0.46965647 -0.43962473
-0.24448887 0.23666012 0.2852568 0.14548805 0.25580513 -0.12774254 -0.43347594 -0.17195047
0.5327714 -0.59264857 -0.062097147 0.549896 -0.52346027 0.18891928 0.48246688 -0.6887257
-0.3489083 -0.4311689 0.28670895 -0.11253565 -0.53985786 -0.2887592 0.38454458 0.28258038
0.508952 -0.39444107 0.5698863 0.20178752 0.35303926 0.3672572 0.5093829 0.40049005
-0.21022345 -0.11117844 0.40832645 0.27433708 -0.15438971 -0.4416628 -0.42363742 0.29393935
0.014527993 0.5310811 0.30465975 0.0010973482 0.52700335 0.1544591 -0.29746622 -0.3725783
0.120976724 0.59093344 -0.21522096 -0.37885606 0.52000505 -0.10287756 0.30815026 0.27892548
0.04474978 0.4265049 -0.16529062 -0.27183065 0.13882081 -0.38076285 0.34257996 -0.38367358
0.12845553 0.08256135 -0.36292878 -0.3169714 -0.42598215 -0.306713 -0.43662497 0.36670122
-0.27535054 0.5964939 -0.34186804 0.16603707 -0.39962098 0.3103662 0.16752326 0.42394242
-0.24920592 0.27137473 0.24107291 0.35221362 0.17245217 0.053140067 -0.1149493 -0.4680581
0.13784052 -0.4788576 -0.02779033 -0.4640302 -0.48000836 -0.6077924 -0.11771602 0.2583957
00000000: 9605 81be 2757 bebe 5ce3 303e 9087 59be
00000010: c8bd fb3d 1167 88be c51e 1b3e d738 1e3e
00000020: 32f7 abbe 54b2 053f de2f c23b 492f de3e
00000030: 11a8 bb3e 9c3d 7c3e 4cef dd3e 88b4 0c3e
00000040: 18bd cb3e da15 2cbe b43c 203e 9da0 3f3e
00000050: 26ae 92be 89ff b2be 41a6 823e dfe2 e3be
00000060: 9825 c43e 56b3 c7be f2d2 5cbe 5d93 fa3e
00000070: b3d0 59bc 3af1 c13e 01f9 483e b97c d8bd
00000080: 53e3 86be f551 37be 11e2 c9be a167 d83e
00000090: ea82 c63e 0b7e 27be 150b cc3d 436a be3e
000000a0: 4957 c5be c2d1 273e 5653 5b3e 8c69 20be
000000b0: 1c79 9dbd ed5e 05bf 585c fdbd 94e0 b93e
000000c0: 59d2 ef3e 8b14 5bbe 900a a13e a420 97bc
000000d0: 69b2 87be b576 a0bd 4595 8fbe 91b6 d03d
000000e0: f2e5 79be 9561 213d 7970 223e 46a9 d63e
000000f0: 1019 273e 518a 01bf 8c4b bcbe 6a2c 913e
00000100: d6ea 853e ed05 b03e 9281 e83e 0eec acbe
00000110: 2cee e63e 301d e33d 377e f0be 5690 b2be
00000120: 6eaa e53e e9b9 b93e 607c b3be 9857 063f
00000130: d430 6fbe c7c4 f73e fffd 50be 2e74 1e3f
00000140: 195f f8bd c1bf 7c3e 3919 f33e a0b6 e3be
00000150: 1eaf cabe 9312 ba3e 6a5d 52be 03ef de3c
00000160: 203c 07bf 9f04 013f c66e cbbe d7a2 babe
00000170: 6522 9fbe 8d83 90be e523 21bf 8a43 853e
00000180: f0ac d93e b065 b7be e61f 17bf c211 aa3e
00000190: d90e a53e 0663 a5be 7337 fcbe 6add 153e
000001a0: 5777 bb3e dcfa fabe 7d10 32bd ebe8 eabe
000001b0: b242 df3e 6aba e0be d89b 0ebf e76c 04bf
000001c0: 4805 cd3e fd25 143f 0ed9 bdbe aa3c 18be
000001d0: ad78 613e c98c d3be c9e6 e3be fb00 b23e
000001e0: ec6f 12bd 8266 bd3e 59e7 dabe dec6 d2be
000001f0: 6b9a 03bf e092 ef3e 58d8 bb3e 5298 bcbe
00000200: a471 67be 794a 0b3f f744 febe 93ad e4be
00000210: 886a 0fbf 1c1a 243f 1f08 7c3e c533 dd3e
00000220: 68cd 843e dc02 d7be 9438 a9be 2475 12bf
00000230: 5f04 ddbe 92f4 e9be d165 63be feab dabd
00000240: 707f ff3e 24e2 aabe dabb 803e e4bd babe
00000250: 8132 dd3e 6ab5 c33e 0685 d33e da87 bfbe
00000260: 8941 02bf c203 b53e c3f7 153f f64a 0ebe
00000270: 8b6b 2a3f 415c 9d3e d076 f0be 7e16 e1be
00000280: 4a5b 7abe 0857 723e 2e0d 923e d2fa 143e
00000290: e4f8 823e f1ce 02be 8ff0 ddbe c913 30be
000002a0: b563 083f d1b7 17bf 9459 7ebd fcc5 0c3f
000002b0: 7e01 06bf 0e74 413e e605 f73e 5450 30bf
000002c0: 1ca4 b2be 2cc2 dcbe 84cb 923e 1779 e6bd
000002d0: 2034 0abf 3fd8 93be 07e3 c43e 60ae 903e
000002e0: ae4a 023f 2ef4 c9be 12e4 113f 63a1 4e3e
000002f0: 90c1 b43e 2309 bc3e eb66 023f 080d cd3e
00000300: d144 57be 86b1 e3bd 2a10 d13e e975 8c3e
00000310: 5618 1ebe a021 e2be 01e7 d8be 387f 963e
00000320: d206 6e3c eef4 073f 5dfc 9b3e e5d4 8f3a
00000330: b1e9 063f 872a 1e3e 7e4d 98be 95c2 bebe
00000340: a5c2 f73d 6a47 173f e262 5cbe 6cf9 c1be
00000350: 0d1f 053f 78b1 d2bd dfc5 9d3e 52cf 8e3e
00000360: 8c4b 373d da5e da3e f241 29be 632d 8bbe
00000370: 0b27 0e3e 59f3 c2be a466 af3e dd70 c4be
00000380: d989 033e ed15 a93d cdd1 b9be 134a a2be
00000390: 551a dabe 7d09 9dbe 4f8d dfbe 43c0 bb3e
000003a0: bffa 8cbe d3b3 183f 5409 afbe 9f05 2a3e
000003b0: 1f9b ccbe 52e8 9e3e 388b 2b3e fb0e d93e
000003c0: d62f 7fbe a1f1 8a3e d1db 763e 5855 b43e
000003d0: 4d97 303e 66a9 593d 8a6a ebbd 50a5 efbe
000003e0: 1126 0d3e d32c f5be 8ca8 e3bc 5e95 edbe
000003f0: a8c3 f5be 4898 1bbf 1915 f1bd 714c 843e
