python/binarypath/binaries/gat_000013.pth (torch, 372431 bytes, 8 tensors)

gat_net.0.scoring_fn_target f4 [1, 8, 8]
0.14416058 -0.05616032 -0.038444865 -0.09754612 -0.09238946 0.06666573 -0.017302493 -0.07956824
0.035260048 -0.0068316604 0.04830141 -0.0481422 0.03350864 0.11376419 -0.051148336 -0.064119026
0.030367829 -0.10896001 0.0070205815 0.06906236 0.064850055 -0.01685152 0.0007136386 -0.09788488
0.08152737 -0.025466176 0.06698209 0.10196752 0.059008945 -0.061722763 -0.04400238 0.019558908
0.025630256 0.00906467 -0.07092411 0.02064552 0.051612623 -0.097210586 -0.06433 0.074890494
0.04123875 0.008699798 -0.04727811 0.07878391 0.017368548 -0.018646777 -0.0540831 -0.010270075
-0.15802187 -0.11626552 -0.022741733 0.057626337 -0.03859201 -0.13939527 -0.08998625 -0.02124346
-0.04992905 0.014447696 0.04977245 -0.059830576 0.010783576 0.11022009 -0.02112064 0.017804803
00000000: d59e 133e 5d08 66bd 5d78 1dbd 43c6 c7bd
00000010: af36 bdbd 0b88 883d f5bd 8dbc acf4 a2bd
00000020: d76c 103d 1fdc dfbb b3d7 453d c130 45bd
00000030: 5b40 093d 33fd e83d eb80 51bd d650 83bd
00000040: f4c5 f83c 6d26 dfbd e80c e63b 9170 8d3d
00000050: 1bd0 843d 330c 8abc 7a13 3b3a de77 c8bd
00000060: d2f7 a63d 719e d0bc e82d 893d 59d4 d03d
00000070: 5db3 713d 02d1 7cbd d73b 34bd 013a a03c
00000080: 8bf6 d13c fb83 143c a940 91bd cb20 a93c
00000090: c267 533d 5816 c7bd 72bf 83bd 3060 993d
000000a0: f7e9 283d 9989 0e3c b1a6 41bd 7559 a13d
000000b0: 7c48 8e3c 20c1 98bc 3e86 5dbd d143 28bc
000000c0: 7cd0 21be 9e1c eebd df4c babc 9809 6c3d
000000d0: a812 1ebd a2bd 0ebe b64a b8bd c406 aebc
000000e0: 6782 4cbd 07b6 6c3c 32de 4b3d e810 75bd
000000f0: 99ad 303c 12bb e13d 3105 adbc 61db 913c

gat_net.0.scoring_fn_source f4 [1, 8, 8]
0.25734577 -0.03639808 0.040434033 -0.027308375 -0.15709348 0.07091197 0.065130584 -0.076617196
0.08127041 0.07704754 0.23034807 -0.40228188 -0.0040468387 0.2858641 -0.1933292 0.049882542
-0.028562488 0.1131819 -0.18983062 0.28449187 0.18232757 -0.069387056 -0.09912653 -0.22656977
0.15423478 0.00051266985 -0.042168126 -0.06634298 0.20880677 0.11593971 -0.14491649 -0.11748063
-0.1464022 0.23583192 0.06439877 0.046849262 0.036736418 -0.062710196 -0.020983126 0.18805118
-0.025631696 -0.048343286 0.0035592718 0.12990488 0.118330255 0.06440599 -0.3447869 0.04623532
0.1928451 -0.0027685713 0.1649846 0.10924948 -0.22298731 -0.25098225 -0.20326594 -0.066655256
0.05212289 0.10737913 -0.08567127 -0.041176833 -0.0328808 0.16817904 -0.07888124 0.07143942
00000000: d3c2 833e 2716 15bd 289e 253d d0b5 dfbc
00000010: 1ddd 20be 4c3a 913d 2f63 853d 7ae9 9cbd
00000020: 1a71 a63d 1acb 9d3d 5de0 6b3e e4f7 cdbe
00000030: 589b 84bb c85c 923e 17f8 45be a351 4c3d
00000040: e1fb e9bc e9cb e73d f562 42be eba8 913e
00000050: 14b4 3a3e cd1a 8ebd da02 cbbd e801 68be
00000060: b9ef 1d3e b164 063a 7cb8 2cbd d4de 87bd
00000070: 71d1 553e cc71 ed3d fd64 14be af99 f0bd
00000080: 75ea 15be ec7d 713e 81e3 833d 03e5 3f3d
00000090: ed78 163d 346e 80bd cee4 abbc 7d90 403e
000000a0: 90f9 d1bc 9c03 46bd ac42 693b c905 053e
000000b0: 2257 f23d 4ae7 833d e987 b0be 3f61 3d3d
000000c0: 3079 453e eb70 35bb b9f1 283e 31be df3d
000000d0: c956 64be bf80 80be f224 50be 8d82 88bd
000000e0: d07e 553d 97e9 db3d 6b74 afbd 0aa9 28bd
000000f0: 05ae 06bd 2037 2c3e 7d8c a1bd d54e 923d

gat_net.0.bias f4 [64]
-0.0048284694 -0.0043676263 -0.020429539 -0.01626322 -0.00024758605 0.026135754 0.0052099633 -0.0012369803
0.027620027 0.0048805955 0.004968009 0.019155305 0.0029176367 -0.024361234 -0.010576986 0.0067861653
-0.0011682098 0.0019228674 -0.0012327576 -0.012703756 -0.003229656 -0.0026658704 0.021353202 0.027151728
0.023884598 0.019357603 -0.004613354 -0.004941167 0.01824414 -0.0027389796 0.02037746 -0.014411311
-0.0024137879 0.008725794 0.022808358 0.00021671533 0.0074894456 0.0036801985 0.013235498 0.007322496
0.00044341577 0.012057794 0.016197039 -0.009852679 0.015255891 -0.048589226 0.030837525 0.0004999614
-0.017160233 -0.026384834 0.023942694 0.021333495 0.022674765 -0.0005916248 0.012818272 -0.012745166
-0.007084609 0.0005286877 -0.0076320907 -0.00563913 0.016315928 -0.0030041807 0.010484188 -0.008203223
00000000: 2338 9ebb 4e1e 8fbb d95b a7bc 723a 85bc
00000010: 70ce 81b9 a61a d63c 57b8 aa3b 2c22 a2ba
00000020: 6543 e23c 67ed 9f3b aeca a23b 96eb 9c3c
00000030: d235 3f3b 3691 c7bc 184b 2dbc 7b5e de3b
00000040: 9e1e 99ba b908 fc3a 7b94 a1ba 6a23 50bc
00000050: a3a8 53bb e2b5 2ebb e9ec ae3c 4d6d de3c
00000060: a2a9 c33c d693 9e3c 9e2b 97bb 83e9 a1bb
00000070: bc74 953c 7480 33bb a2ee a63c 6b1d 6cbc
00000080: a430 1ebb a2f6 0e3c 98d8 ba3c 143e 6339
00000090: 066a f53b 7c2f 713b b4d9 583c 8cf1 ef3b
000000a0: 427a e839 0e8e 453c a7af 843c 226d 21bc
000000b0: d8f3 793c 7f05 47bd fa9e fc3c d70f 033a
000000c0: 9e93 8cbc 0225 d8bc 7823 c43c 95c3 ae3c
000000d0: 6ec0 b93c 4517 1bba bb03 523c 1ad1 50bc
000000e0: 0226 e8bb a297 0a3a 9e16 fabb 73c8 b8bb
000000f0: fba8 853c cae1 44bb dfc5 2b3c d066 06bc

gat_net.0.linear_proj.weight f4 [64, 1433]
-0.05220718 -0.26230398 0.048565235 -0.05025345 0.123630926 -0.050901596 0.16130438 -0.079750076
0.023987392 -0.034560554 0.005183487 0.047670577 0.19024687 -0.12713091 0.019952757 0.07591165
0.1814704 -0.0073195943 0.046855446 -0.13657668 -1.3190317e-13 0.1530494 0.03535223 0.06528367
0.038685214 0.16600868 0.13027768 0.0557913 0.124135755 0.064787 -0.16924877 -0.0053608655
-0.105149984 0.011236745 -0.040857084 -0.047832515 -0.0081626065 -0.033716425 -0.22302413 0.073977485
0.064440675 0.02304001 -0.023968702 -0.0059336675 0.04085684 -0.1834603 0.009273496 -0.08589219
0.119868666 0.0018668076 -0.096554324 0.143062 0.032239173 0.010341233 -0.18202877 -0.011041327
0.1835763 -0.0696457 0.06312674 -0.05285996 1.9912227e-13 0.11009577 0.0189827 0.10358926
-0.060497902 0.12407877 -0.048975345 0.002393112 -0.013674617 -0.046826307 0.0382139 0.09922867
-0.03772851 -0.03938483 -0.12536514 -0.0402586 -0.26814142 0.14285707 0.074520215 0.07014943
-0.074216485 -0.15664381 0.011668802 -0.10657476 -0.00028229493 -0.20070975 -0.15817283 0.033870254
0.043928076 0.12776777 0.0005610528 -0.10152319 0.19945486 0.0016728062 -0.013351768 0.17999522
-0.033466794 0.07086632 0.22660758 0.15729453 0.06451857 0.0033249573 0.10925881 -0.020394223
0.06706564 -0.012341437 -0.012804186 -0.021836745 -0.1186753 0.036354706 -0.069748215 -0.022894416
0.011542296 0.00846953 -0.070199385 0.0072115446 -0.072642386 -0.02833685 0.078282274 -0.038147964
-0.042524308 0.057128333 0.013007709 -0.058119074 0.026660943 0.052361555 0.19146386 0.033787817
0.0053905407 0.10272651 -0.07034784 0.02599173 -0.07181784 0.1199597 -0.01953838 -0.05166074
-0.1624496 -0.0049318955 0.019959552 -0.03501944 0.36759877 -0.0012060863 0.030803131 -0.04345029
-0.02631167 -9.317169e-15 0.08974837 -0.06848264 0.005354571 0.049814288 0.023113923 0.033204637
0.03281273 0.15321071 0.035352815 0.0022528742 -0.12799846 -0.08793962 0.026826281 0.05948694
-0.06042924 0.098069526 -0.06907179 0.039997254 0.015314253 0.019434107 -0.040922143 0.023636412
0.00790124 0.025151627 0.020395465 -0.0008731092 0.05904031 -0.02849786 -0.13932027 -0.04980834
-0.049407203 -0.08605735 -0.04436722 0.18717808 0.0011012548 0.039228562 0.0182769 -0.0036070487
-0.012771552 0.013138081 0.08789758 -0.06310392 -0.16627626 0.007812977 -0.048528146 -0.06709765
-0.06889193 0.01364969 -0.1550546 0.052053977 -0.15717351 0.039832927 0.007988157 -0.06797387
-0.0003848523 -0.03480121 -0.08387606 0.12504092 -0.017633716 0.073217794 -0.017559258 -0.07584631
-0.17409931 -0.008845556 -0.004193788 0.027106078 -0.24025673 -0.009400714 0.15770663 0.06100426
-0.01940899 -0.07576739 -0.10585571 0.04138415 -0.049129497 0.030563625 0.10597719 0.00030780723
0.019082697 -0.02034522 0.06423428 -0.020227177 0.018975034 0.032103114 -0.024371257 -0.0113903135
0.0018969718 0.13178329 0.08975045 0.012934589 0.07566777 0.113444515 0.11029287 -0.024024082
0.006670506 -0.029027637 0.03537436 -0.07950928 0.027776977 0.024315849 0.012558931 0.23240913
-0.036892086 -0.14978917 0.042746667 -0.098198935 0.039168805 0.100853086 -0.046012767 0.09582333
00000000: 32d7 55bd b54c 86be 57ec 463d 90d6 4dbd
00000010: 3632 fd3d 317e 50bd fa2c 253e 0254 a3bd
00000020: 3581 c43c 5e8f 0dbd 3eda a93b 3942 433d
00000030: 13d0 423e 9b2e 02be f773 a33c 9177 9b3d
00000040: 60d3 393e 35d9 efbb 7feb 3f3d c2da 0bbe
00000050: 8082 14aa fbb8 1c3e 80cd 103d 72b3 853d
00000060: 6374 1e3d 2efe 293e 8367 053e 6b85 643d
00000070: e33a fe3d 0caf 843d 8d4f 2dbe 33aa afbb
00000080: e058 d7bd 531a 383c c259 27bd 07ec 43bd
00000090: 74bc 05bc 3c1a 0abd 7060 64be 8281 973d
000000a0: 79f9 833d 67be bc3c 035a c4bc 366f c2bb
000000b0: 8059 273d 04dd 3bbe ddef 173c 3fe8 afbd
000000c0: b47d f53d abaf f43a 46be c5bd d87e 123e
000000d0: 390d 043d 466e 293c c065 3abe afe6 34bc
000000e0: 6dfb 3b3e 68a2 8ebd 9848 813d af83 58bd
000000f0: 1631 602a e479 e13d 9b81 9b3c 9b26 d43d
00000100: a6cc 77bd 031d fe3d 5f9a 48bd c2d5 1c3b
00000110: 800b 60bc f1cc 3fbd 2e86 1c3d 6738 cb3d
00000120: 3689 1abd fd51 21bd b85f 00be 34e6 24bd
00000130: d549 89be 2049 123e 0e9e 983d 81aa 8f3d
00000140: d0fe 97bd 3c67 20be 812e 3f3c de43 dabd
00000150: fc00 94b9 db86 4dbe 0ff8 21be 89bb 0a3d
00000160: eded 333d 8ed5 023e 9e13 133a 64eb cfbd
00000170: e53d 4c3e 1042 db3a 60c1 5abc ab50 383e
00000180: 7a14 09bd 5c22 913d d10b 683e d111 213e
00000190: 5022 843d 87e7 593b 15c3 df3d c911 a7bc
000001a0: b659 893d bd33 4abc a6c8 51bc f9e2 b2bc
000001b0: 090c f3bd ace8 143d 27d8 8ebd 128d bbbc
000001c0: e61b 3d3c c9c3 0a3c b2c4 8fbd d24e ec3b
000001d0: 88c5 94bd af22 e8bc 7552 a03d 0a41 1cbd
000001e0: f82d 2ebd 66ff 693d 491e 553c 440e 6ebd
000001f0: 0d68 da3c 1279 563d 1a0f 443e 1865 0a3d
00000200: 22a3 b03b 4762 d23d 8712 90bd 9cec d43c
00000210: 3b15 93bd 6ead f53d f40e a0bc 369a 53bd
00000220: 3059 26be bd9b a1bb 3782 a33c 8b70 0fbd
00000230: e835 bc3e 8a15 9eba d956 fc3c eef8 31bd
00000240: 928b d7bc dcd7 27a8 fecd b73d a040 8cbd
00000250: 6675 af3b 110a 4c3d 6959 bd3c 9601 083d
00000260: a466 063d 45e3 1c3e 1dce 103d f5a4 133b
00000270: 0712 03be b019 b4bd cac2 db3c 94a8 733d
00000280: a784 77bd add8 c83d 8375 8dbd 29d4 233d
00000290: a2e8 7a3c 4734 9f3c fa9d 27bd 26a1 c13c
000002a0: 3474 013c c90a ce3c 6414 a73c 5ee1 64ba
000002b0: 41d4 713d 5874 e9bc f9a9 0ebe d403 4cbd
000002c0: 355f 4abd d63e b0bd 67ba 35bd 9cab 3f3e
000002d0: fb57 903a 21ae 203d 70b9 953c 3c64 6cbb
000002e0: c63f 51bc 1b41 573c a503 b43d a13c 81bd
000002f0: 5344 2abe 0002 003c 73c5 46bd 7e6a 89bd
00000300: 3617 8dbd f3a2 5f3c a2c6 1ebe 8d36 553d
00000310: 18f2 20be da27 233d c2e0 023c e235 8bbd
00000320: 00c6 c9b9 b78b 0ebd 36c7 abbd ba0a 003e
00000330: 9574 90bc 36f3 953d 6fd8 8fbc 4f55 9bbd
00000340: 1747 32be f3ec 10bc 0b6c 89bb 910d de3c
00000350: dc05 76be 7405 1abc d97d 213e 9adf 793d
00000360: 9aff 9ebc ef2b 9bbd e1ca d8bd 6d82 293d
00000370: 033c 49bd 9160 fa3c 920a d93d 3061 a139
00000380: 5153 9c3c 05ab a6bc 438d 833d 77b3 a5bc
00000390: 8871 9b3c 8e7e 033d 3ba6 c7bc 709e 3abc
000003a0: d0a3 f83a 33f2 063e 15cf b73d 99eb 533c
000003b0: b4f7 9a3d 9955 e83d 3ae1 e13d 27ce c4bc
000003c0: 4394 da3b 5ecb edbc b4e4 103d c3d5 a2bd
000003d0: 8b8c e33c 0832 c73c f9c3 4d3c a9fc 6d3e
000003e0: 281c 17bd 5562 19be 2117 2f3d 861c c9bd
000003f0: 786f 203d 108c ce3d e277 3cbd 063f c43d

gat_net.1.scoring_fn_target f4 [1, 1, 7]
0.007204654 0.058298796 -0.16854687 0.016077202 0.047379605 -0.14474913 -0.3794956
00000000: 0515 ec3b b8ca 6e3d 8d97 2cbe 56b4 833c
00000010: 1e11 423d 1e39 14be 3f4d c2be

gat_net.1.scoring_fn_source f4 [1, 1, 7]
0.41285333 0.28154895 0.18419614 0.3117565 0.33602518 0.20567353 0.15505245
00000000: 8361 d33e 2f27 903e ea9d 3c3e 8c9e 9f3e
00000010: 7e0b ac3e 159c 523e 12c6 1e3e

gat_net.1.bias f4 [7]
0.0051033087 -0.08052057 0.06728952 -0.012507809 -0.0531096 0.08053994 0.06144267
00000000: a839 a73b f8e7 a4bd 16cf 893d 8eed 4cbc
00000010: 7489 59bd 20f2 a43d 4fab 7b3d

gat_net.1.linear_proj.weight f4 [7, 64]
0.61777246 0.31790638 0.5891256 -0.53059846 0.08356104 0.19868787 0.33487132 0.8310524
0.33198893 0.32171473 -0.6405372 0.29174516 -0.5524817 -0.2189544 -0.7446739 -0.3162931
0.34192666 -0.3539855 0.48959953 -0.40086544 0.5150311 -0.071594894 -0.20181672 0.48179767
0.4755699 -0.118931845 0.3924696 -0.661817 0.53020114 0.7909599 -0.60109276 -0.6980078
0.14319839 0.66893375 -0.43823364 0.10137485 0.46615282 0.5667219 0.31722826 -0.32445478
0.8987807 0.20479259 -0.33930987 0.4038321 -0.32958308 -0.5470449 -0.4993291 0.543307
0.002765116 0.3536703 0.880548 0.47850323 -0.01094295 0.22890145 0.27112293 -0.5477378
-0.22494923 -0.06140827 0.409614 0.1621941 0.51638347 -0.45627195 -0.50291276 0.49265164
-0.57660544 0.40874854 -0.5918549 0.8041642 -0.8698086 -0.8888681 0.30241388 0.5203231
-0.5316878 -0.8134404 -0.045536686 0.49144068 0.46502638 -0.16398865 -0.75865316 0.43506536
-0.40159264 0.75059366 0.28215662 -0.671078 -0.550896 0.86883634 -0.37691906 -0.28225592
0.5506424 -0.64617217 0.86019963 0.4797723 0.43234062 -0.27740207 -0.44827512 0.30547303
-0.27248836 0.707011 -0.31650597 0.6224803 0.12609395 -0.7257316 0.38263106 0.72999054
0.11493609 0.3464031 0.76588607 -0.8264537 -0.07677125 0.58863235 0.1259547 -0.11348958
-0.37001836 -0.06476798 -0.63629663 0.64867145 -0.780678 -0.61152136 -0.6328807 0.5717074
0.7216279 -0.49956584 -0.6582169 0.51679397 -0.6156446 -0.6358546 0.20319259 -0.70489043
0.64635336 0.56167275 -0.6384585 0.063861445 -1.0386244 0.4084407 -0.8477637 -0.59480745
0.7270341 -0.56001335 0.49402496 -0.71705276 -0.6203818 0.7124011 0.50506014 -0.5373895
-0.6200059 -0.16566332 -0.7825383 0.31342354 -0.45585847 -0.39642522 0.6720936 -0.62982076
-0.5943812 0.74130756 -0.33502302 0.5470972 -0.7448062 -0.74922967 0.3651634 -0.5274049
0.5003552 -0.614255 -0.32983553 0.467152 0.6028118 -0.53748363 0.5049389 0.5446976
-0.39437252 0.47482392 -0.5787141 0.59856695 0.70528626 0.6280248 -0.86616063 -0.19100441
-0.42618242 -0.48312926 0.37989125 -0.6761397 0.35598668 -0.7090752 -0.87575215 -0.48576072
0.57725954 -0.32885322 0.359765 -0.65413237 0.4488806 0.5967624 -0.75138134 -0.44322667
-0.4570687 -0.87424076 0.13939059 0.61384135 0.45650727 0.15408176 -0.4523478 -0.19131531
0.653209 0.3950586 0.38853297 0.47654566 0.27436608 -0.13498057 0.15444499 -0.54962075
0.9009591 -0.52674717 -0.021726428 0.41009024 -0.45688772 0.17315729 0.5627868 0.5780488
-0.5538611 0.403766 -0.40608796 0.39768067 0.35854012 0.39540854 0.35810447 0.6164814
-0.3748287 -0.62131375 0.32851902 -0.19061352 -0.8804235 -0.39083728 0.6001582 -0.56541246
0.022046508 -0.4751436 0.5920099 -0.35397467 -0.3735708 -0.21684925 0.30507922 0.80248594
-0.35324648 -0.58166075 -0.43054953 0.43643332 -0.43152723 -0.5322285 0.31152868 0.6368262
-0.5258031 0.44175753 -0.5363397 0.3884797 0.5133037 0.33576047 -0.3412935 0.633134
00000000: 5626 1e3f a0c4 a23e efd0 163f 4dd5 07bf
00000010: 0d22 ab3d d574 4b3e 4174 ab3e dabf 543f
00000020: 74fa a93e cbb7 a43e 3ffa 23bf 9f5f 953e
00000030: 716f 0dbf 9535 60be f3a2 3ebf 2bf1 a1be
00000040: 0311 af3e 963d b5be caac fa3e 3c3e cdbe
00000050: 14d9 033f 58a0 92bd 0ba9 4ebe 2fae f63e
00000060: e67d f33e 8a92 f3bd c7f1 c83e d76c 29bf
00000070: 43bb 073f 597c 4a3f 37e1 19bf a4b0 32bf
00000080: 99a2 123e 3e3f 2b3f 2960 e0be 9e9d cf3d
00000090: 95ab ee3e b014 113f be6b a23e f01e a6be
000000a0: 7e16 663f 26b5 513e 06ba adbe 15c3 ce3e
000000b0: 1dbf a8be 220b 0cbf 10a8 ffbe 2b16 0b3f
000000c0: f336 353b 4614 b53e 986b 613f 60fe f43e
000000d0: 0f4a 33bc 2465 6a3e a0d0 8a3e 8b38 0cbf
000000e0: 1759 66be 3d87 7bbd edb8 d13e 3616 263e
000000f0: b531 043f 7a9c e9be e4be 00bf d63c fc3e
00000100: 6a9c 13bf 7d47 d13e cd83 17bf b4dd 4d3f
00000110: c7ab 5ebf dc8c 63bf fed5 9a3e e533 053f
00000120: b11c 08bf a13d 50bf ad84 3abd 1d9e fb3e
00000130: f017 ee3e a4ec 27be 1837 42bf e3c0 de3e
00000140: 8d9d cdbe e826 403f d576 903e c5cb 2bbf
00000150: 8507 0dbf 0f6c 5e3f 89fb c0be d983 90be
00000160: e6f6 0c3f 8a6b 25bf 0b36 5c3f b7a4 f53e
00000170: c05b dd3e a507 8ebe 5184 e5be f666 9c3e
00000180: 9883 8bbe acfe 343f 120d a2be de5a 1f3f
00000190: c61e 013e 8cc9 39bf 38e8 c33e a9e0 3a3f
000001a0: 9d63 eb3d bf5b b13e 1c11 443f 7892 53bf
000001b0: 3f3a 9dbd 9cb0 163f 45fa 003e 3a6d e8bd
000001c0: 0c73 bdbe 13a5 84bd 56e4 22bf 550f 263f
000001d0: 83da 47bf aa8c 1cbf 7804 22bf 6b5b 123f
000001e0: 9bbc 383f 18c7 ffbe e780 28bf 9c4c 043f
000001f0: e29a 1dbf 5ec7 22bf b811 503e b373 34bf
00000200: 6a77 253f c9c9 0f3f 0472 23bf cac9 823d
00000210: a5f1 84bf 241f d13e 0b07 59bf 4d45 18bf
00000220: e81e 3a3f 095d 0fbf d7f0 fc3e c590 37bf
00000230: 57d1 1ebf eb5f 363f 9f4b 013f 5c92 09bf
00000240: b5b8 1ebf a5a3 29be 6e54 48bf 0d79 a03e
00000250: 4866 e9be 3ff8 cabe 530e 2c3f ef3b 21bf
00000260: 5e29 18bf 55c6 3d3f 2388 abbe 900e 0c3f
00000270: 9eab 3ebf 84cd 3fbf b2f6 ba3e 0204 07bf
00000280: 4717 003f d13f 1dbf 34e0 a8be 8c2e ef3e
00000290: e051 1a3f 8798 09bf ad43 013f 4d71 0b3f
000002a0: 32eb c9be 1f1c f33e 9b26 14bf af3b 193f
000002b0: a48d 343f 3cc6 203f b4bc 5dbf a996 43be
000002c0: 9534 dabe b85c f7be 1b81 c23e 7e17 2dbf
000002d0: e343 b63e f485 35bf 4b31 60bf a1b5 f8be
000002e0: 48c7 133f 735f a8be 1e33 b83e 3875 27bf
000002f0: aed3 e53e 6cc5 183f 875a 40bf 9bee e2be
00000300: e904 eabe 3ece 5fbf 68bc 0e3e b524 1d3f
00000310: 52bb e93e 9cc7 1d3e 219a e7be 29e8 43be
00000320: b438 273f 1f45 ca3e cbed c63e cbfd f33e
00000330: b679 8c3e 5938 0abe d426 1e3e f2b3 0cbf
00000340: 41a5 663f e7d8 06bf 9ffb b1bc 59f7 d13e
00000350: 30ed e9be 2550 313e cc12 103f 02fb 133f
00000360: d7c9 0dbf 6bba ce3e c3ea cfbe cd9c cb3e
00000370: 9292 b73e fd72 ca3e 7859 b73e bad1 1d3f
00000380: 8ce9 bfbe 6b0e 1fbf a533 a83e 3130 43be
00000390: 6f63 61bf d31b c8be f8a3 193f dfbe 10bf
000003a0: e19a b43c 0646 f3be f68d 173f 2b3c b5be
000003b0: ac44 bfbe bb0d 5ebe 5833 9c3e b86f 4d3f
000003c0: b9dc b4be b8e7 14bf fd70 dcbe 3074 df3e
000003d0: 23f1 dcbe 2140 08bf b080 9f3e 0b07 233f
000003e0: 089b 06bf 0b2e e23e 8f4d 09bf d0e6 c63e
000003f0: df67 033f cce8 ab3e 06be aebe 1215 223f
