python/binarypath/binaries/gat_000003.pth (torch, 372431 bytes, 8 tensors)

gat_net.0.scoring_fn_target f4 [1, 8, 8]
0	0xbd090939	-0.03345606
1	0xbd55c003	-0.05218507
2	0x3dbd1122	0.092317834
3	0x3d449d53	0.0480016
4	0x3d8ade4d	0.06780682
5	0x3c1081db	0.008820022
6	0x3c86a508	0.016436115
7	0x3d8cb7d0	0.06870997
8	0xbd179e6d	-0.03701632
9	0x3d3e0bc5	0.046397943
10	0xbd035d23	-0.032071244
11	0xbd6992ac	-0.057024643
12	0x3b8b64ab	0.004253944
13	0xbcbbe657	-0.022936983
14	0xbdb9f247	-0.09079414
15	0x3d8b55c6	0.06803469
16	0x3cb49077	0.022041542
17	0x3cc86c1c	0.024465613
18	0xbc13adbe	-0.009013591
19	0x3d9bb229	0.07602341
20	0x3da5b803	0.08091738
21	0xbdcd6e8e	-0.10030852
22	0x3d14ac6c	0.036297247
23	0xbd98c430	-0.07459295
24	0x3d974412	0.0738603
25	0x3d424cd7	0.04743656
26	0xbdd7cd75	-0.10537235
27	0x3d60e3f9	0.05490491
28	0xbd16a69a	-0.036779977
29	0xbcf6996b	-0.030102452
30	0xbd234f12	-0.03987033
31	0xbb9df01a	-0.004819882
32	0x3d5aaa4c	0.053385064
33	0xbdbfa2ba	-0.093572095
34	0xbccef2bc	-0.02526223
35	0xbd324408	-0.04352191
36	0x3d579253	0.05262978
37	0xbd627655	-0.05528863
38	0x3dac9492	0.08426775
39	0xbd187aae	-0.03722637
40	0xbc454674	-0.012040723
41	0x3cd4163d	0.02588951
42	0xbd87c039	-0.066284604
43	0x3d85cb2f	0.06532895
44	0x3d968b84	0.07350829
45	0xbe317df8	-0.1733321
46	0x3e09a638	0.13442314
47	0x3d71da66	0.05904617
48	0x3e11dccf	0.14244388
49	0xbc4c50d0	-0.012470439
50	0xbdcfbb89	-0.10143191
51	0xbd3c70e2	-0.04600609
52	0x3ce37cc0	0.027769446
53	0xbd90c993	-0.07069697
54	0xbc950b75	-0.01819394
55	0x3dd15879	0.10221953
56	0x3da14d88	0.07876116
57	0x3e03a471	0.12855698
58	0xbac0109a	-0.0014653385
59	0x3d228e02	0.03968621
60	0x3d60c3ce	0.054874234
61	0xbd905b52	-0.07048668
62	0x3d3868a8	0.045021683
63	0xbba26e2c	-0.004956981

gat_net.0.scoring_fn_source f4 [1, 8, 8]
0	0x3d8cb722	0.06870867
1	0xbe5d2bea	-0.21598783
2	0x3e1f2c75	0.15544303
3	0x3db714f4	0.08939543
4	0x3e762342	0.24036887
5	0xbd8e5298	-0.06949347
6	0x3d69e9e4	0.05710782
7	0x3e041054	0.12896854
8	0xbe6d8b77	-0.23197733
9	0x3dd1a938	0.10237354
10	0xbe9d1073	-0.30676612
11	0x3dea1902	0.11430551
12	0x3d03b80e	0.03215795
13	0x3d8f8506	0.07007794
14	0xbde3ca80	-0.11122608
15	0xbe127b63	-0.14304881
16	0x3e10561c	0.14095348
17	0x3d999bbb	0.07500406
18	0xbd168449	-0.03674725
19	0x3e46bd56	0.19408163
20	0x3e78a0f9	0.24280156
21	0xbd819610	-0.0632745
22	0x3ec5ef2c	0.38659036
23	0x3d01e9b4	0.031717017
24	0x3d8d6f15	0.06905953
25	0x3d9a7bc9	0.075431414
26	0xbd23687d	-0.03989457
27	0x3d882c25	0.06649045
28	0xbd7ab6b0	-0.06120938
29	0x3d4f1e1b	0.05056582
30	0xbe8c7617	-0.27433845
31	0xbd6e585c	-0.058189735
32	0x3ddecec8	0.10879284
33	0xbe1093e9	-0.14118923
34	0xbe1e7455	-0.15474065
35	0xbeaa3e3e	-0.33250612
36	0xbb531afa	-0.0032212124
37	0xbcec3632	-0.028834436
38	0x3eb07c03	0.34469613
39	0xbdb3ab8a	-0.08772953
40	0xbd954f85	-0.07290558
41	0xbdd3e27b	-0.10345932
42	0xbed3cc4d	-0.41366807
43	0x3dfa3270	0.122166514
44	0x3ec5cafb	0.38631424
45	0xbef12a18	-0.47102427
46	0x3f00e216	0.5034498
47	0xbd5452e1	-0.051836852
48	0x3dd12a40	0.10213137
49	0xbc26cb8c	-0.010180365
50	0xbec47beb	-0.38375792
51	0xbe0eef44	-0.1395846
52	0xbdd8cea1	-0.10586286
53	0x3dd733d5	0.10507933
54	0xbe97828a	-0.2959178
55	0x3ee6754b	0.45011362
56	0x3e5116b9	0.20418824
57	0x3eaeaa0b	0.34114107
58	0xbdbccd9c	-0.092189044
59	0x3d40b324	0.04704584
60	0x3df2fd71	0.11864746
61	0xbc3147eb	-0.010820369
62	0x3e495d28	0.19664443
63	0x3c300f3d	0.010745821

gat_net.0.bias f4 [64]
0	0xbccc3d04	-0.024931438
1	0x3cc1bba7	0.02364905
2	0xbc9cd538	-0.01914464
3	0xbb0aedb7	-0.0021198818
4	0x3b6160a9	0.003438989
5	0x3cbf5014	0.023353614
6	0xbd554d8b	-0.052075904
7	0xbbc0cd78	-0.005883869
8	0x3c31f86f	0.010862454
9	0xbc02dd14	-0.007987279
10	0xbbc39b3e	-0.005969434
11	0x3d695bd0	0.056972325
12	0x3c46f643	0.012143674
13	0x3b95f479	0.0045762626
14	0x3c8f47f8	0.017490372
15	0xbc845d9f	-0.016157923
16	0x3b62c084	0.0034599612
17	0xb97f3dbd	-0.00024341694
18	0x3b87878e	0.0041360324
19	0xbc5a01a9	-0.01330606
20	0x3c1795ae	0.009251995
21	0x3c2b0510	0.010438219
22	0xbb8f11ab	-0.00436612
23	0x3b292868	0.0025811438
24	0xbbcb1f66	-0.0061988113
25	0x3ce09ffb	0.027420035
26	0xbc0db77c	-0.008649703
27	0xbd3c3d7e	-0.04595708
28	0x3b33b39e	0.0027420293
29	0xbc7aa489	-0.015298017
30	0xbc467a58	-0.01211413
31	0x3cbbe807	0.022937788
32	0xbc24fc19	-0.01006987
33	0x3d07bc7e	0.033138745
34	0x3cea379e	0.028590973
35	0x3d040c37	0.03223821
36	0x3c06763d	0.008206901
37	0x3c779004	0.01511002
38	0x3b308abc	0.002693816
39	0xbbe8da02	-0.0071060667
40	0x3c482b82	0.012217404
41	0xbc242a42	-0.010019841
42	0xbbcb1140	-0.0061971247
43	0x3bf60f3e	0.007509141
44	0x3ccfbcc2	0.025358561
45	0x3c72ef22	0.0148275215
46	0xbca9db0e	-0.020734336
47	0x3c0e94d5	0.0087024765
48	0xbb36c069	-0.0027885681
49	0x3c098630	0.008393809
50	0x3d17f486	0.03709843
51	0xbd18ddd3	-0.037320923
52	0xbb0914d7	-0.0020916963
53	0xbc899817	-0.016796155
54	0xbca351e7	-0.019936515
55	0x3cdb2cba	0.026754726
56	0xbc9cba40	-0.01913178
57	0x3d12624c	0.035738274
58	0x3c045003	0.008075717
59	0xbb27f746	-0.0025629564
60	0xbc441465	-0.011967753
61	0x3c46c35a	0.012131536
62	0xbcc01d11	-0.02345136
63	0x3d46e592	0.04855878

gat_net.0.linear_proj.weight f4 [64, 1433]
0	0xbd35e2d8	-0.04440579
1	0xbe109043	-0.14117531
2	0xbde3cb51	-0.11122764
3	0x3cfaaea2	0.03060085
4	0xbc8d62a4	-0.01725895
5	0xbd23271a	-0.039832212
6	0x3e212cc8	0.15739739
7	0xbdc65379	-0.0968389
8	0xbd1f67b7	-0.03891727
9	0x3c4b1db7	0.012397221
10	0x3c9849d4	0.018589891
11	0x3db04cde	0.08608411
12	0xbd93ee66	-0.07223205
13	0xbd98b22f	-0.07455861
14	0xbdb11c95	-0.0864803
15	0xbc5c6c9d	-0.01345363
16	0x3d7c3deb	0.061582487
17	0x3da4d24d	0.08047924
18	0x3dfb985d	0.1228492
19	0x3dd9d4c6	0.106362864
20	0x31bdc502	5.523021e-09
21	0xbd4b4f8b	-0.049636405
22	0xbcc3030c	-0.023805164
23	0x3d6e1209	0.05812267
24	0xbcd240f2	-0.025665734
25	0xbdaf7d34	-0.085688025
26	0xbc9e9992	-0.019360337
27	0x3dad6e33	0.084682845
28	0xbdaa65af	-0.08320176
29	0xbc1f2da1	-0.009715469
30	0xbd84f180	-0.06491375
31	0x3ce15471	0.027506085
32	0xbd906cc0	-0.070519924
33	0xb8aa0a55	-8.108156e-05
34	0xbcf0a3f2	-0.02937505
35	0xbc1e0675	-0.009645094
36	0x3d9c04dd	0.07618115
37	0xbd47b590	-0.048757136
38	0xbe3152a6	-0.17316684
39	0x3d9283cf	0.07154047
40	0xbe3e9bd5	-0.18614133
41	0x3c42a3a5	0.011879836
42	0x3d30ade2	0.043134578
43	0xbc9630ce	-0.018333819
44	0x3d5f45bd	0.054509867
45	0xbde05c1f	-0.10955071
46	0x3ca15d49	0.019697802
47	0xbdb2015f	-0.08691668
48	0xbd6483f2	-0.055789895
49	0x3a51a231	0.00079968857
50	0xbcb937c2	-0.022609595
51	0x3dec3a9d	0.11534617
52	0xbe1acc3f	-0.15116976
53	0x3ba8d214	0.0051519964
54	0xbd0a0974	-0.03370042
55	0x3ccf8e3c	0.025336377
56	0xbd2bf340	-0.04198003
57	0x3cb1c1d3	0.021698868
58	0x3df67324	0.1203368
59	0x3da58931	0.08082808
60	0xb209895a	-8.00568e-09
61	0x3eae1cdb	0.3400639
62	0x3cd613b8	0.02613245
63	0xbda0744e	-0.07834683
64	0xbcaaacf4	-0.020834424
65	0xbd1174f6	-0.035511933
66	0xbca29e90	-0.019851
67	0xbdace209	-0.0844155
68	0xbb9aa9d2	-0.004719951
69	0xbd394584	-0.04523231
70	0xbd4386ba	-0.047735907
71	0xbd456236	-0.048189364
72	0xbda4b24d	-0.08041821
73	0xbd3304d6	-0.043705784
74	0xbc3456ac	-0.011006992
75	0xbdad6aa4	-0.08467606
76	0xbd732003	-0.0593567
77	0x3e2802cb	0.16407315
78	0x3cc09576	0.023508769
79	0x3a705c96	0.000916907
80	0xbe10fbdb	-0.14158575
81	0xbe2bf942	-0.16794303
82	0xbd5e2036	-0.054229937
83	0x3dd70676	0.10499279
84	0xbc788840	-0.015169203
85	0xbde0cb89	-0.10976321
86	0xbcf4639c	-0.029832654
87	0x3d291e7e	0.041288845
88	0x3e1e11ae	0.15436432
89	0x3deed659	0.11661977
90	0x3d28733d	0.041125525
91	0xbd5c9eda	-0.05386243
92	0x3c9e56a7	0.019328428
93	0xbc8c0331	-0.017091366
94	0xbd9ba88d	-0.07600508
95	0x3e3b73a1	0.18305828
96	0x3b1a7e88	0.0023573954
97	0x3d32ee74	0.043684438
98	0xbdf5a063	-0.11993482
99	0x3def700b	0.116912924
100	0x3da31ba9	0.0796426
101	0xbc55b90b	-0.013044606
102	0x3e417905	0.18893822
103	0x3d53b39c	0.05168496
104	0x3df96e27	0.12179213
105	0x3d886257	0.06659382
106	0x3d9d40f5	0.07678405
107	0xbb72cedc	-0.0037049567
108	0x3c1a9299	0.009434366
109	0xbd01543f	-0.031574484
110	0xbc1c2070	-0.009529218
111	0xbbba7160	-0.005689785
112	0x3c45bf38	0.012069516
113	0xba181235	-0.0005801053
114	0x3c0bd84b	0.008535455
115	0x3c8cb7cd	0.017177487
116	0xbcdf3cbe	-0.027250644
117	0xbcc65a12	-0.02421287
118	0x3e38224d	0.17981835
119	0xbd9add85	-0.07561783
120	0xbdfc898e	-0.12330924
121	0xbd16ea37	-0.03684446
122	0x3c0f6e40	0.008754313
123	0x3d160c8d	0.036633063
124	0x3d4b4518	0.04962644
125	0x3e6cd874	0.23129445
126	0x3db62170	0.088930964
127	0xbb24838e	-0.0025102827
128	0x3cf9865e	0.03045958
129	0x3dd6c013	0.10485854
130	0xbdb9ebd3	-0.09078183
131	0x3e36ddba	0.1785802
132	0xbe0c4725	-0.13699014
133	0xbc9223cd	-0.017839337
134	0xbd1341bc	-0.03595136
135	0x3dbca97f	0.09212016
136	0xbddf8acc	-0.10915145
137	0xbb4ba282	-0.0031072204
138	0xbc8719f2	-0.016491864
139	0xbd84c07f	-0.06482028
140	0x3ecafb1f	0.39644715
141	0xb9815ac2	-0.00024672417
142	0x3b2cf0c2	0.002638862
143	0xbd6b2297	-0.057406034
144	0xbb82b157	-0.0039884257
145	0xb0c2a760	-1.4162929e-09
146	0x3d8502ef	0.064947
147	0xbc16d6c4	-0.009206478
148	0xbcae2400	-0.0212574
149	0x3aecdb10	0.0018070657
150	0xbc53c92b	-0.01292638
151	0x3d3857a4	0.045005456
152	0x3d62911c	0.05531417
153	0x3db98175	0.09057895
154	0x3d722239	0.05911467
155	0x3dcfb5db	0.10142108
156	0x3cdbdeaa	0.026839573
157	0x3b395275	0.0028277908
158	0x3c23fe84	0.010009412
159	0xbb56dcc6	-0.00327854
160	0xbcc8f7f6	-0.0245323
161	0x3d0a0f0b	0.033705752
162	0x3c258574	0.0101026185
163	0x3e3c2023	0.18371634
164	0x3dadf289	0.084935255
165	0xbda0de37	-0.07854884
166	0x3cf9237a	0.030412424
167	0x3e04176f	0.12899564
168	0xbe3ca273	-0.18421344
169	0x3d8cccb6	0.06874983
170	0xbc8dd53e	-0.017313596
171	0xbbbc4888	-0.005745951
172	0x3d9bc4c5	0.0760589
173	0xbda676d3	-0.08128133
174	0xbdb557c3	-0.0885463
175	0xbd21f28d	-0.039537955
176	0xbd5f2be7	-0.054485228
177	0x3e075743	0.13216881
178	0xbd31d01b	-0.043411355
179	0x3d642875	0.055702645
180	0xbb0abdce	-0.0021170261
181	0x3d70a922	0.058755048
182	0xbd8891a6	-0.06668405
183	0xbc701f87	-0.014655954
184	0x3d0a7e90	0.033812106
185	0x3a43e5ae	0.00074728846
186	0xbce4af47	-0.02791561
187	0xbd1ac6f7	-0.037787404
188	0xbc1c024f	-0.009522035
189	0xbbe873cc	-0.007093882
190	0xbc8e44bc	-0.01736676
191	0x3e677012	0.22601345
192	0xbd7edead	-0.06222408
193	0xbacf37dc	-0.0015809494
194	0x3a8b14c9	0.0010611053
195	0xbd617f6a	-0.055053152
196	0xbe0bed57	-0.13664757
197	0x3d6d13f6	0.057880364
198	0xbcb5cfac	-0.022193752
199	0xbd6a4d50	-0.057202637
200	0x3b0c412a	0.0021401145
201	0x3ba64e01	0.0050752168
202	0xbd4a8752	-0.049445458
203	0xbcbc58eb	-0.022991618
204	0x3db1faf2	0.08690442
205	0x3cff9230	0.031197637
206	0x3c94227d	0.018082852
207	0xbcfeed2a	-0.031118948
208	0xbd6f2851	-0.058388058
209	0x3cb7ab00	0.022420406
210	0xbc842705	-0.016131887
211	0xbe299921	-0.1656232
212	0xbdb63022	-0.08895899
213	0x3d61b4d1	0.05510408
214	0xbcb210e5	-0.021736572
215	0x3c8f37c2	0.017482642
216	0xba7e1794	-0.00096928445
217	0xbd44f0a0	-0.04808104
218	0xbc61cc0c	-0.013781559
219	0xbc2375a3	-0.009976777
220	0xbb9159dd	-0.0044357614
221	0xbc9b2f6f	-0.018943517
222	0xbca6b413	-0.020349538
223	0x3b25a473	0.0025275021
224	0xbb2a7155	-0.0026007493
225	0x3d6881a5	0.056764264
226	0xbd11fcae	-0.035641365
227	0x3c181a7b	0.009283657
228	0xbe03d4de	-0.12874171
229	0x3bafea81	0.005368531
230	0x3d56a500	0.05240345
231	0xbd888015	-0.06665055
232	0x3d77b58a	0.060475864
233	0x3ca38581	0.01996112
234	0xbdf55b5b	-0.11980315
235	0x3ba9e80d	0.0051851333
236	0x3ca9b828	0.020717695
237	0xbe07e6ca	-0.13271633
238	0x3df1aa54	0.11800066
239	0xbdfb3c37	-0.122673444
240	0x3a6a1da2	0.0008930807
241	0xbc80faee	-0.015744653
242	0x3d640040	0.0556643
243	0x3d3f1666	0.04665222
244	0x3dac1c15	0.08403794
245	0x3bb78820	0.005600944
246	0xbb36cfb4	-0.0027894797
247	0x3d933697	0.071881466
248	0x3d31119b	0.04322968
249	0xbd811dfc	-0.06304547
250	0x3e259857	0.16171394
251	0xbd356b18	-0.044291586
252	0xbd87b03f	-0.06625413
253	0xba291f3a	-0.00064514915
254	0xbbb372a5	-0.005476313
255	0xbb1ecb1b	-0.0024229947

gat_net.1.scoring_fn_target f4 [1, 1, 7]
0	0xbc7e10cd	-0.015506935
1	0xbd05f05c	-0.032699928
2	0xbdf33e34	-0.11877099
3	0xbd67f94a	-0.056634225
4	0x3d18ade7	0.03727522
5	0xbd4b7fdf	-0.049682494
6	0xbdaf5aab	-0.085622154

gat_net.1.scoring_fn_source f4 [1, 1, 7]
0	0x3e5e321d	0.21698804
1	0x3ea74fa2	0.32677943
2	0x3e0bc9f3	0.13651256
3	0x3e4a034b	0.19727819
4	0x3eb97f55	0.3622996
5	0x3e2e309c	0.1701073
6	0x3e63879b	0.22219698

gat_net.1.bias f4 [7]
0	0x3d497d63	0.049191844
1	0xbd9b8ee7	-0.07595616
2	0x3da82441	0.0821004
3	0x3d6389cc	0.055551335
4	0xbdc8b455	-0.098000206
5	0x3d589bd6	0.05288299
6	0x3d017c99	0.031612966

gat_net.1.linear_proj.weight f4 [7, 64]
0	0xbebcbfc9	-0.3686507
1	0xbd37af12	-0.044844694
2	0x3e59f981	0.21286584
3	0x3ef32328	0.4748776
4	0x3e961bb0	0.29318
5	0xbf0b9d30	-0.54536724
6	0xbe846a5c	-0.25862396
7	0xbf05a307	-0.52201885
8	0xbed5216d	-0.41627064
9	0x3ce8e4c6	0.0284294
10	0xbf0b44b4	-0.5440171
11	0xbf22af94	-0.6354916
12	0x3eeed1e3	0.46644506
13	0xbde00c05	-0.109397925
14	0xbe8351ce	-0.2564835
15	0xbf20fe12	-0.6288768
16	0xbf303cad	-0.68842584
17	0x3e84c7b1	0.25933602
18	0x3ea9c074	0.33154643
19	0xbeca9cdb	-0.39572796
20	0x3f2e527e	0.68094623
21	0xbf1872b8	-0.59550047
22	0x3e1d772e	0.15377495
23	0xbebdc6e1	-0.37065795
24	0xbf27a8a4	-0.654917
25	0x3ea038d0	0.31293344
26	0x3e05a28e	0.13050291
27	0xbf0feddf	-0.5622234
28	0x3f2ce4a5	0.67536384
29	0xbf79dd94	-0.97603726
30	0x3ee1fa36	0.44136208
31	0xbe85ea1b	-0.2615517
32	0x3e88da05	0.26728836
33	0xbea8a460	-0.32937908
34	0xbf51b8d3	-0.81922644
35	0x3ef05e1c	0.469468
36	0xbc96855c	-0.018374138
37	0xbf0a7207	-0.5408024
38	0x3ed94ca1	0.42441276
39	0x3f2c4828	0.672976
40	0x3f25dab3	0.64786834
41	0x3f3ef3e1	0.7459088
42	0x3f334abd	0.70035917
43	0xbf10275b	-0.5631005
44	0xbedbf8af	-0.42963168
45	0x3f434077	0.7627024
46	0xbe947d23	-0.29001722
47	0xbf1158a3	-0.56775874
48	0xbf44a9fb	-0.7682187
49	0xbe6fb315	-0.23408158
50	0x3ece42f4	0.40285456
51	0x3f107e60	0.5644283
52	0x3f2c542c	0.67315936
53	0x3e41e7a5	0.18936022
54	0x3eed6f76	0.463741
55	0xbf04490c	-0.5167396
56	0xbed9633e	-0.42458528
57	0xbf646dbe	-0.89229953
58	0xbbc1bbf0	-0.0059122965
59	0xbf0cd5b3	-0.5501358
60	0x3f1e33e4	0.6179793
61	0x3f1d9426	0.6155418
62	0xbee380e7	-0.44434282
63	0x3db7557d	0.089518525
64	0xbec8f599	-0.39249876
65	0xbe605dae	-0.21910736
66	0x3f5e3187	0.8679432
67	0x3ef93a5f	0.48677346
68	0x3f022880	0.5084305
69	0x3e14daa6	0.14536533
70	0x3ee40132	0.44532162
71	0xbf1eee11	-0.6208201
72	0xbe911d28	-0.28342557
73	0xbf008ea7	-0.5021767
74	0x3ed06a19	0.40705946
75	0x3ea53ecb	0.3227447
76	0x3eb62291	0.35573247
77	0xbe4b4b63	-0.19852977
78	0x3ef9a440	0.48758125
79	0x3f013ed9	0.5048652
80	0xbef04fa8	-0.46935773
81	0xbeede94f	-0.46467063
82	0xbf62c5a2	-0.88582814
83	0xbf3ddd3c	-0.741657
84	0xbf0a095e	-0.53920543
85	0x3e685923	0.22690253
86	0x3ec15666	0.3776123
87	0xbdc93d9e	-0.09826206
88	0xbf20c4b5	-0.6280015
89	0x3f02ab44	0.5104258
90	0xbf0ae12d	-0.5424984
91	0x3f46dd7e	0.7768172
92	0xbeac9f17	-0.33715126
93	0x3ef00aef	0.46883342
94	0xbf31a5c2	-0.6939355
95	0x3f282af9	0.6569057
96	0x3f05e5da	0.5230385
97	0xbf15e9ba	-0.58559763
98	0xbf24951c	-0.6429002
99	0xbf3d925c	-0.7405145
100	0x3f1dfd67	0.61714786
101	0x3ea1ca52	0.3159967
102	0x3eeebacd	0.46626893
103	0xbe466d86	-0.19377717
104	0xbf1ea698	-0.6197295
105	0xbf2f57b4	-0.684932
106	0x3ebdb776	0.37054032
107	0xbf0e0944	-0.5548289
108	0xbeb48d34	-0.3526398
109	0x3f007aab	0.50187176
110	0xbf1feac4	-0.624676
111	0x3eb2d7e0	0.34930325
112	0x3f0898dc	0.53358245
113	0x3ebe9bba	0.37228185
114	0xbf2c71ba	-0.6736103
115	0xbe1e8b96	-0.15482935
116	0x3f20e1d8	0.6284461
117	0x3f127f1b	0.572252
118	0x3e491164	0.1963554
119	0x3f706293	0.9390041
120	0x3f02c073	0.51074904
121	0x3ee6dea4	0.45091736
122	0xbedf939f	-0.43667313
123	0xbf15b19f	-0.58474153
124	0xbee88480	-0.4541359
125	0x3f1ad928	0.60487604
126	0x3f1987e1	0.5997296
127	0x3edb32c9	0.42812183
128	0x3f71431b	0.9424302
129	0xbf544a91	-0.8292628
130	0x3ef6c8e8	0.48200154
131	0xbf662121	-0.898943
132	0x3ee5a49e	0.44852155
133	0x3f231fe8	0.6372056
134	0x3f1fdcc6	0.6244625
135	0xbef1c39e	-0.47219557
136	0xbf3ce95a	-0.73793566
137	0x3eeacc86	0.45859164
138	0xbf375185	-0.71608764
139	0xbefb748b	-0.49112353
140	0xbf2d156d	-0.6761082
141	0xbe81cbf9	-0.2535093
142	0xbf3f1fd0	-0.7465792
143	0x3f3c61dc	0.7358682
144	0x3f64bd56	0.89351404
145	0x3e928fbd	0.2862529
146	0xbec30eba	-0.38097173
147	0x3f1138f7	0.56727546
148	0xbf56d628	-0.83920527
149	0xbe94b72e	-0.29046005
150	0x3ef3fe16	0.4765479
151	0xbec4c5cf	-0.38432166
152	0xbdd7e065	-0.10540847
153	0xbf7423d2	-0.9536716
154	0x3f228414	0.63482785
155	0x3f1e8984	0.6192858
156	0x3f8af96e	1.085737
157	0x3f389ac7	0.7211117
158	0x3f20aaf6	0.62760866
159	0xbe12dacf	-0.14341281
160	0xbf536734	-0.8257935
161	0xbe851526	-0.25992697
162	0xbcf07a73	-0.029355263
163	0x3f08cb3f	0.5343513
164	0xbf4efcd2	-0.80854523
165	0x3f489e87	0.78366894
166	0xbebf7a68	-0.37398076
167	0x3e8e4c86	0.27792758
168	0xbf322823	-0.69592494
169	0xbef271e7	-0.47352526
170	0xbf63047c	-0.8867872
171	0x3f0b103b	0.5432164
172	0x3e6b73be	0.22993371
173	0xbf64bf67	-0.89354557
174	0x3f234fb2	0.6379348
175	0xbec0a7b5	-0.3762795
176	0xbc41ad39	-0.011821085
177	0xbde7f6d4	-0.113263756
178	0x3f58dff9	0.84716755
179	0xbd5311e9	-0.051530752
180	0x3ebf7676	0.37395066
181	0x3f4e181a	0.80505526
182	0x3f16e1f9	0.58938557
183	0xbe091df3	-0.13390331
184	0x3f24bd40	0.6435127
185	0x3f1dc6aa	0.6163126
186	0xbf345913	-0.70448416
187	0x3f094ede	0.53635967
188	0x3f2e24f1	0.6802512
189	0xbf2e3d96	-0.6806272
190	0x3f68bbc7	0.90911525
191	0xbf661cd9	-0.8988777
192	0xbeb03998	-0.3441894
193	0x3f51958d	0.8186882
194	0xbf5c9078	-0.8615794
195	0xbf37a483	-0.717354
196	0xbf713675	-0.9422372
197	0x3efb8c44	0.49130452
198	0xbe3d282a	-0.18472353
199	0xbf664efc	-0.8996427
200	0x3f133b18	0.57512045
201	0xbea7d4bd	-0.32779494
202	0x3e567df5	0.20946486
203	0xbf1fe5f7	-0.62460274
204	0xbf443a2b	-0.7665126
205	0xbee384c8	-0.44437242
206	0xbd34bc90	-0.04412514
207	0x3f4acf62	0.7922269
208	0x3eaea5d4	0.34110892
209	0xbf3b9f6b	-0.7329013
210	0x3f04bd2d	0.5185116
211	0x3ebc4708	0.36772943
212	0xbf492c08	-0.7858281
213	0x3f3f59dc	0.7474649
214	0xbf1e1217	-0.6174635
215	0x3f092f3d	0.53587705
216	0xbee00019	-0.43750075
217	0x3eef1e91	0.46703008
218	0xbf2bf841	-0.6717568
219	0xbe1d3108	-0.15350735
220	0xbecf1fb8	-0.40453887
221	0xbe0fee21	-0.14055683
222	0xbf46ccf1	-0.77656466
223	0xbed05d4c	-0.4069618
224	0xbe808675	-0.25102583
225	0x3f3a0306	0.72660863
226	0x3f0ae987	0.54262584
227	0x3ebd9d0f	0.3703389
228	0x3efa496b	0.48884138
229	0x3ec75b6d	0.3893694
230	0xb84dbb80	-4.905043e-05
231	0x3e365ebe	0.17809579
232	0xbf0a1d01	-0.53950506
233	0x3ea0969a	0.313649
234	0xbe10f065	-0.14154203
235	0x3e72b4d6	0.23701796
236	0xbbb7c21a	-0.0056078555
237	0x3ebe5f29	0.37181976
238	0x3e15db2c	0.14634389
239	0x3f3e1ff0	0.7426748
240	0x3d8b1721	0.06791521
241	0x3e9a27ed	0.30108586
242	0x3d823684	0.06358054
243	0x3ee9ab08	0.456383
244	0xbe8931a0	-0.26795673
245	0xbf3ad0dd	-0.7297495
246	0x3f13e234	0.57767034
247	0xbed0a2c3	-0.40749177
248	0xbf303fa7	-0.68847126
249	0xbe032113	-0.12805586
250	0x3f28728b	0.6579978
251	0xbf0f3eed	-0.5595539
252	0xbced6208	-0.028977409
253	0xbea1e9fc	-0.31623828
254	0xbc2014b1	-0.009770558
255	0xbf1c71d6	-0.611112
