python/binarypath/binaries/gat_000025.pth (torch, 372431 bytes, 8 tensors)

gat_net.0.scoring_fn_target f4 [1, 8, 8]
00000000: 3d5f 50bc 207e ad3b 1e6d 80bd 0b3f 193d
00000010: 1208 a63c f491 e63d 1f9b 28bc 723b 65bb
00000020: 2a16 a5bb 5fef debd fe65 d03c 6cfe 50bd
00000030: 58f5 b63b f4b1 9ebc fdde 073e f429 99bd
00000040: d7e5 8b3c 63ed e7bd 3550 813c 4f8a 3dbd
00000050: bfa7 693c ae10 84bd 1001 99bd 7243 403d
00000060: d2a1 b9bc f90e 8c3b 349d d2ba 995c a03c
00000070: 2a1c b63c 1675 4d3c 62c8 6a3d 38d8 47bc
00000080: 06ea 223b 63c5 dd3b 3bb7 003e 7a17 4fbc
00000090: d6f5 14bb 3dd4 733c ed3d 01be f1f8 8b3c
000000a0: c122 00be 24ee debd 1d91 0a3d 85a4 cf3d
000000b0: 3c25 a3bb e102 dbbc a671 94bc 9334 5d3c
000000c0: 94d5 073e 8e42 303d db82 933d acad 8abc
000000d0: c595 e73b f55a 0d3d 8f6f c33d 789d 6ebb
000000e0: 201b a13d 4e39 bbbb b58d 20bd d8f0 523d
000000f0: 63a4 0abe a181 a0bd ae63 7bbd 8358 92bb
-0.012718019 0.0052945763 -0.062708125 0.037413638 0.02026752 0.11258307 -0.01029089 -0.003497806
-0.0050380426 -0.108855 0.025439259 -0.051023886 0.0055834465 -0.019371964 0.13268657 -0.07478705
0.01707737 -0.11324575 0.015785316 -0.04627448 0.014261185 -0.06448494 -0.07470906 0.04693932
-0.02266017 0.004274246 -0.0016068579 0.019575404 0.022230227 0.0125401225 0.057320006 -0.012197547
0.0024858727 0.006767915 0.12569897 -0.012639875 -0.0022729537 0.0148821445 -0.12621279 0.017086478
-0.12513258 -0.108852655 0.033829797 0.101388015 -0.004978804 -0.026734771 -0.018120598 0.013501304
0.13265067 0.04303222 0.07202693 -0.016928516 0.0070674145 0.03451057 0.095427625 -0.0036409777
0.07866502 -0.0057136184 -0.039197642 0.051499218 -0.13539271 -0.07837225 -0.06137436 -0.004466118

gat_net.0.scoring_fn_source f4 [1, 8, 8]
00000000: a490 23bd 209e 14bd 6e3d d83d e737 04be
00000010: 9ad9 033e 677a 823d 7c71 ea3c ec72 0b3e
00000020: 0b46 783c 62f0 61bc 15fe bf3d 1fd1 773d
00000030: 41d2 96bc 34cb 423d 9fa4 d9bd 7f9d df3c
00000040: 99cb 8b3d 1985 503c 656c 073e 4c17 78bd
00000050: 50c9 023e 4765 bebd d6ef 4d3d 1ffe c5bc
00000060: 4966 1f3d 48e7 9e3c 4fde a9bc baf6 a13d
00000070: 1d39 1e3d fc65 e83c 344a e83d 39f2 ddba
00000080: c557 493b 55c9 f6bd db0f 203c c9df 003d
00000090: d26d 013e 9408 c3ba 1639 07be bc61 61bc
000000a0: 70a3 093d 2470 273e d4dd 09bc 0058 dabc
000000b0: ed7d 9cbd 4ac5 f6bd 51b4 fdbc 0dbe efbd
000000c0: f2af 413b edfb efbd 401f 203e 4448 c63d
000000d0: fbb2 81bd b0d6 153d 2455 94bd d115 6bbd
000000e0: e573 1dbc 94eb efbd 128d 0fbe 1d4b fbbd
000000f0: 5647 0ebe 7723 a3bc 2dd0 cabc 047d 1dbe
-0.039932862 -0.036283612 0.10558592 -0.1291195 0.12875977 0.06371003 0.028618567 0.13618058
0.015153418 -0.013790222 0.09374634 0.060502168 -0.018410804 0.04755707 -0.10627102 0.02729678
0.068259425 0.012727045 0.13224943 -0.060569093 0.12772107 -0.09296661 0.050277553 -0.024169026
0.038915906 0.019397393 -0.020735888 0.079083875 0.038628686 0.028368942 0.11342278 -0.001693315
0.003072248 -0.1205012 0.009769405 0.03146342 0.1263955 -0.0014879876 -0.1320537 -0.013756212
0.03360313 0.16351372 -0.008414704 -0.02665329 -0.07641206 -0.12049349 -0.03096977 -0.11706171
0.0029554334 -0.11717973 0.15636921 0.09681752 -0.06332966 0.036581695 -0.07242802 -0.057393853
-0.009610151 -0.11714855 -0.14018658 -0.12270186 -0.138944 -0.019914372 -0.02475747 -0.15379721

gat_net.0.bias f4 [64]
00000000: 6207 77bc 63b8 883c e8d0 823b 9db3 153d
00000010: c3c2 bc3c 90bb 99b9 27b8 bf3b 0883 103d
00000020: b4e9 653d 81d3 9c3c 8330 d9bb d6f9 91bc
00000030: e313 9ebc a7af 76bb e9a0 8dbb 47a4 4bbd
00000040: d465 e6bc de24 8ebc 0000 9a3c ae8e dd3c
00000050: c58a f5bc 9811 f3bc 7e74 763b 05b7 aabc
00000060: 6be9 8fbc 7e3d b83c d18a 2539 319a cb3c
00000070: ba5f 8a3c 1468 2e3c acd6 43bb f4c9 d9bb
00000080: 72ff 36bc 6446 253a 99b2 02bd 7e3c 8dbb
00000090: cebc a8bc 2df6 5abc ef31 883c 8096 d83c
000000a0: 0eb5 79bc 72cb ca3c c8e1 abbc 2d78 753c
000000b0: 7553 c5bc 6f48 673c 2af4 dabc 366a df3c
000000c0: 4ba7 bbbc a0e9 573c 5c7c 0d39 e857 89ba
000000d0: c320 863c 1eb4 8dbb 754b e6bc 8839 193c
000000e0: 0541 92bc 8680 8fbc 9688 36bb 33fb f8bb
000000f0: 7529 e83c 7d72 7abc 05bd 0d3d b9d4 b83c
-0.015077444 0.016689485 0.0039921887 0.036548246 0.023042088 -0.0002932218 0.00585081 0.03528121
0.05613108 0.019143822 -0.0066280975 -0.017819326 -0.019296592 -0.0037641318 -0.0043221605 -0.049717214
-0.028124727 -0.017351564 0.018798828 0.027045574 -0.029973397 -0.029671475 0.0037606056 -0.020839224
-0.017567357 0.02249026 0.0001578734 0.024853798 0.01689135 0.010644931 -0.0029882593 -0.006646389
-0.011169301 0.00063047395 -0.031908605 -0.0043101897 -0.020597842 -0.013364357 0.016625373 0.026438951
-0.015240921 0.024755213 -0.020981684 0.014982265 -0.024087647 0.014116391 -0.026727755 0.027272325
-0.02290692 0.013178259 0.00013493135 -0.0010478469 0.016373044 -0.00432445 -0.028112153 0.009352095
-0.01785327 -0.01751734 -0.0027852408 -0.0075983047 0.02834008 -0.015286085 0.03460409 0.022562372

gat_net.0.linear_proj.weight f4 [64, 1433]
00000000: e2bc a6bc b052 10bd cfb2 4fbd 12a4 5b3d
00000010: 6e15 5f3c 8374 d53c 176c 5f3d 0a27 0bbd
00000020: 1a29 7a3c 4ab6 65bb 94e1 7a3a d03d 873c
00000030: 58f9 9d3d b636 96bb e2e2 f63c 60cd 16ba
00000040: b4df e03c cb09 c13a d512 d1bc 2547 533d
00000050: 8f11 e03a 47c7 103c 17bc 8a3b 20ef 813c
00000060: ea91 213c b312 eabc eb56 383d 8d34 d3bc
00000070: fe5f c1bc 401d ce3c 512d 05bd b875 6f3b
00000080: 1cf0 d1bc 7c78 2ebb 1b63 033c 07bc bd3c
00000090: 4397 7f3c fa91 86bd 99db b6bd 832b 28bd
000000a0: 6ac7 863d ecb5 abbc fd02 f83c 1750 04bc
000000b0: f263 633d 1199 dbbc bb96 91bc 41fa 8dbc
000000c0: 9bf0 a03d cc06 1c3c c875 25bd 67fe 8b3c
000000d0: 5516 43bc 3c2d bc3a b3eb 55bd 0046 97bc
000000e0: a1f5 5b3d d1ed fd3c 3d87 513d 9bd2 04bd
000000f0: 08f0 39b9 3d10 673d 24bd 1cbb 43d5 a33c
00000100: 57b4 4cbc 66a9 db3b 213a b7bc 0f8a 5dbd
00000110: dadf 813c d1b7 fe3b 44c5 eebb 6eb7 313c
00000120: 645b a7bb 590e 5ebb a6ba 15bc 67ca 063d
00000130: a789 64bd 6e16 2e3d c45d 163d 8683 113b
00000140: 1e6f 98bb 94c6 5bbd 2685 95bc 328e b5bc
00000150: d206 8a3b 6de1 5c3d cccc 3bbd b91d dcbb
00000160: 406f 7eba c74c ca3d 0415 5a3c df7f 4d3c
00000170: 8184 023d 2a78 db39 7593 433c 9e0e 533c
00000180: 9d3f e3bc 310b b0bc 7201 b63c d322 893d
00000190: 00eb be3c 3597 9d3c 200a 1e3d 0ec6 cf3c
000001a0: c9ef b3bc 6450 513b 3b0a 07bd e4af 843b
000001b0: efe4 58bd e5b6 54bc ad83 e73a fdae aabb
000001c0: 40cf 973c 8da1 863b adfb 9ebc 0585 ac3c
000001d0: dd35 cdbc b276 a9bb 3796 41bc baa6 dbbc
000001e0: 8ed2 92bc b636 243d 7892 cabc ca34 283d
000001f0: 0645 7d3c 3ba0 fc3d 8b5f ba3c 236c 513b
00000200: da09 2c3b d3d7 4a3c a428 133c 23ac 313c
00000210: 3501 543c 0c1e 9b3d e0d3 24bc e9d6 323d
00000220: 7047 dfba 65bd 333c dcac edb9 dec9 ccbc
00000230: be58 073d db04 983c 0ee3 7cbc 9c0c cd3b
00000240: 63f1 843b c3a8 08bc 3433 e83c d6a6 d1bc
00000250: 632d 853b 236e 01bd dbb9 0d3d 6ecf 333d
00000260: 9e80 553c 3ff7 b93d c543 a83c 3578 283d
00000270: f7d4 d73b 72bd 8abd 85af 8b3c 2ac0 023d
00000280: 9363 043c 5214 49bc da09 583d 1027 1d3d
00000290: ed7d 113c e69a 763c d84c b43a 61c7 9f3c
000002a0: 687f eebb 2ace dabc 1482 0d3b 0120 fe3b
000002b0: 406b 51b7 7edb 9dbb 06c2 c8bc ac99 febb
000002c0: 77b0 9a3d 3c36 163d 43cb 22bd da96 c33c
000002d0: 0071 88bc f226 963c 7026 64bb 0a28 e0bc
000002e0: b9a3 2b3b 0c7d 80ba 4619 4bbd 8cf1 293d
000002f0: e849 f4bc 5897 61bb 70f3 773d 7aab 2a3d
00000300: aad2 053d fb06 893c 6ac9 16bd e3d7 ed3c
00000310: 0265 e9bb c3e5 423d 00ac d839 d02b cdbb
00000320: 22be ec3a ce11 523b e476 cebc 7c9c a2bc
00000330: 3a46 0a3b 0619 aa3c a3ae f23c 78b3 8fbb
00000340: 182f 99bd 5205 f23b 6ed0 003c 487e 8fbc
00000350: ea33 31bc eb6b 01bd 8e47 ed3c 73e3 813c
00000360: c66a 2cbc a742 b8bb 36f3 e9bb 60d6 05bb
00000370: 514e 85bb 55e7 013c 9f81 473c 2af7 d33a
00000380: 508d fd3a b9a8 423d 5218 413c 5878 8e3b
00000390: 2aff 2ebc 3201 9ebc 3277 4f3c c5b6 8c3d
000003a0: 94b5 75bc 5efe ecbb d04e a33d 1180 59bc
000003b0: ea77 f43c 6386 523c 4bbe 383d 584e 4c3d
000003c0: c86b dfbb 2cef b93c 4ba4 eb3c 30eb 40bd
000003d0: d4c4 ee3c 8ea4 403c ce9a 2cbb 4a67 9a3c
000003e0: aca1 753c 24d4 53bc b336 56bc 78a9 1abc
000003f0: dac9 43bb 53bc 8cbc 4b34 48bd 7209 e63a
-0.020353738 -0.035235107 -0.050707635 0.053623267 0.013615949 0.026056534 0.054546442 -0.033972777
0.015268588 -0.003505128 0.0009570357 0.016508967 0.07713574 -0.004584159 0.030137483 -0.0005752649
0.02745042 0.001472765 -0.025521675 0.05158152 0.0017095077 0.008836574 0.004233848 0.015861094
0.009861449 -0.02857337 0.045004766 -0.025781894 -0.023605343 0.025160432 -0.03251392 0.0036538672
-0.025627188 -0.0026622107 0.008019234 0.023160947 0.015600028 -0.065708116 -0.08928604 -0.04105712
0.06581004 -0.02096077 0.030274862 -0.0080757355 0.055515237 -0.026806386 -0.01777207 -0.017331244
0.07858392 0.009523105 -0.040395528 0.017089082 -0.01190718 0.0014356743 -0.052226733 -0.018465996
0.053701047 0.030997189 0.051154364 -0.03242741 -0.00017732393 0.05641197 -0.0023916448 0.019999152
-0.012494168 0.0067035435 -0.022366585 -0.05408674 0.015853811 0.0077733775 -0.0072866995 0.010846956
-0.00510733 -0.0033883064 -0.009138739 0.03290787 -0.055795338 0.04250186 0.036710516 0.0022203638
-0.004651918 -0.053656176 -0.018251967 -0.02216253 0.004212239 0.05392592 -0.045849606 -0.0067174104
-0.00097059086 0.09877925 0.013310675 0.012542694 0.031864647 0.00041860464 0.011937012 0.012881903
-0.027740294 -0.021489711 0.022217486 0.06696095 0.023305416 0.01923714 0.038583875 0.025362995
-0.021964924 0.0031938786 -0.03296874 0.004049288 -0.052952703 -0.012983059 0.0017663144 -0.0052088485
0.018531442 0.004108614 -0.019407118 0.021059522 -0.025050098 -0.0051716203 -0.011815599 -0.0268129
-0.017922666 0.04009124 -0.024728045 0.04106597 0.015458351 0.12335249 0.022750637 0.0031955324
0.002625099 0.012380558 0.008981857 0.010844263 0.012939741 0.0757409 -0.010060281 0.043661986
-0.001703484 0.010970448 -0.00045332953 -0.024998602 0.033043616 0.018557003 -0.015434993 0.0062576067
0.004057096 -0.008341017 0.028344728 -0.025592249 0.0040642484 -0.031599175 0.034601074 0.043898992
0.013031153 0.090803616 0.020540128 0.041130263 0.0065866667 -0.06774415 0.017051468 0.031921543
0.008080381 -0.012272911 0.05274377 0.03836733 0.008880121 0.015051579 0.0013755811 0.019504251
-0.0072783716 -0.026709635 0.0021592425 0.00775528 -1.2482342e-05 -0.0048174253 -0.02450658 -0.007769784
0.07553189 0.036672816 -0.039744627 0.023875643 -0.016655445 0.018329117 -0.003481295 -0.027362842
0.0026190116 -0.0009802892 -0.04958465 0.041490123 -0.029820397 -0.0034422483 0.060534894 0.04166744
0.032671608 0.016726961 -0.036813177 0.029033607 -0.007122637 0.0475824 0.0004132688 -0.0062613264
0.0018062035 0.003205407 -0.025203176 -0.019850008 0.0021098987 0.020763885 0.029624289 -0.004385408
-0.074796855 0.007385888 0.0078621935 -0.01751627 -0.0108156 -0.03159706 0.028964784 0.015855527
-0.010523504 -0.00562318 -0.0071395887 -0.0020421967 -0.004068174 0.007928689 0.0121769 0.0016171683
0.0019344483 0.047524188 0.011785584 0.004347842 -0.010680953 -0.01928768 0.012662696 0.06870798
-0.014996905 -0.0072324714 0.07974017 -0.013275162 0.029842336 0.012849423 0.045103353 0.049879402
-0.0068182684 0.022697054 0.028764864 -0.047099292 0.02914659 0.011757983 -0.0026337388 0.01884808
0.014992159 -0.012928996 -0.013074565 -0.009439819 -0.0029874952 -0.017179644 -0.048877995 0.0017550422

gat_net.1.scoring_fn_target f4 [1, 1, 7]
00000000: 531d dcbc 0bd8 dcbe 9a38 7a3e 0e1b 233e
00000010: 6585 31be e98e 293e 810c 7d3d
-0.026869452 -0.43133578 0.24435654 0.1592829 -0.17336042 0.16558422 0.061779503

gat_net.1.scoring_fn_source f4 [1, 1, 7]
00000000: 50b7 67be c3d3 773e d59e 08bf 1853 273e
00000010: f4b6 40be 315a 083f b449 113f
-0.22628522 0.24201874 -0.5336736 0.16340292 -0.18819791 0.5326262 0.5675309

gat_net.1.bias f4 [7]
00000000: ca17 e03c 09d0 a8bc c4e9 23bc 1b82 3a3d
00000010: ceca 803d 6717 67bc 07f7 94bd
0.027355094 -0.020607011 -0.010004465 0.045534234 0.06288682 -0.014104701 -0.07273679

gat_net.1.linear_proj.weight f4 [7, 64]
00000000: b992 073e e8d5 3f3e b065 4bbe ac66 48be
00000010: 0727 91bd 34f8 dd3a 5220 91be 5f3e abbd
00000020: 083f 1cbd 0947 4a3e d8f8 75be 36c5 b5be
00000030: 1050 773e a1b6 acbc 7bc3 7fbd f46b b6bd
00000040: 170b 69be 32a8 51bd 9312 1b3c 9bfd b6be
00000050: f68d 95be 5113 b73d d182 c9bd b90b 923d
00000060: 00ea c0bc a554 b73c 701d 653d c039 133d
00000070: b054 033e 403f 66be afcc 8a3e 635a 63be
00000080: 5d98 863d aa4e 4bbc 4494 aa3e 9b87 c93c
00000090: be0b 333e f196 b0bc 64bc 66be 69d7 923e
000000a0: 5a1e 9d3e 30b7 503e ef16 31bd 9a57 5ebe
000000b0: 3efa 683e a722 1abe 6f47 6ebe 5a0f 853e
000000c0: b547 303e ad3e 293e d20c 0abd 9d94 9f3d
000000d0: 6a8d 5d3c db9d a63d 7567 323e 0b72 1a3e
000000e0: a507 833e dbc6 913e 593b 3e3e 5ab0 d93d
000000f0: 8bae f7bd 5287 d6bd f270 153e 3f5f 903e
00000100: d410 a2be b8ea f4bd 9f61 713e 4534 8ebd
00000110: 751d 17bd d367 0c3d a760 6c3e 4138 2e3e
00000120: acb0 fa3a cc61 f8bd 67b1 4c3d 1fa5 e23d
00000130: 9a26 4ebd 461b 93bd 77b2 893e 27ea 933e
00000140: c545 67be 3cba 7c3e 0687 aa3e b093 3cbe
00000150: 42af 5b3e a00c e1bd 3e10 c6bd 48e4 02be
00000160: cdfa f7bc 2dfe 4abe ffb9 bebc e0bd a0bd
00000170: ec34 593e f3f2 8b3e 0c1c 2a3e b844 a8be
00000180: fc50 8bbc bf6f eebd 1dbb 853d 039a b9be
00000190: 17af d6bd 1b5c 823e 2c58 ba3e cec1 19be
000001a0: 9864 813d a7da 2b3e 3cf6 9dbe 26d2 8b3e
000001b0: c720 85be d0ea 12be bac4 6a3c 0808 3f3c
000001c0: c0ec 713e 4f8b d4bd 8117 813e 8a93 bfbd
000001d0: 1fcd a1be fde1 91bb 4953 7bbe d747 9cbe
000001e0: 9037 983c 21ca 1f3e 7f9a 35bd 0e3c 38be
000001f0: ffa8 223e 30f1 89be 3ab1 9b3e cfc8 77be
00000200: 69a5 213e 1317 263e 5b43 d03d f400 8ebe
00000210: 1918 39be 07f4 8fbe 024d 10be 0506 aabd
00000220: 4be5 c73d 877e 86be ea5a 423e 4f05 a4be
00000230: b697 8b3e cbb7 bebd 1fe5 343e 7576 983d
00000240: bb81 163e 4111 a8be 9031 bb3c 2b62 843d
00000250: 8df8 45be 5297 0ebe 3b58 4a3d 5fb5 a8be
00000260: ec6b 84be f561 be3c 2641 2fbe 59d7 993e
00000270: 9bde 72be 0220 77be 0b42 1ebe d6de 453e
00000280: d6ba d23e 9473 33be deb1 afbd 00d2 353e
00000290: febf 2fbd 9f85 3e3e a82f a9bd b0aa 85be
000002a0: 5bdd 483e dff2 693d 477a 81be 3dd9 a5be
000002b0: 902f 81be 698c 9f3d 1fb3 9f3e b637 863e
000002c0: 4ae2 24be 9ceb 99be bdbc f0bb 94ed 323d
000002d0: e52b 20be bddc 063e 7026 edbd b9da 973e
000002e0: 41f8 27be d4e3 8fbe 1bf8 21bd c31e 5c3e
000002f0: 2b5d a2bd ba45 9c3e 6caf 44bd 3c06 10be
00000300: 23af 5e3d 3ae3 ae3d 0331 523e 9cd9 bdbc
00000310: adb1 9d3e a141 07be 415d 8dbe 3ecd 53be
00000320: 64d3 88be bd50 d83d 6965 79be 418b a93d
00000330: e6f3 2d3e d832 8c3e b7ca b33d 2f24 ca3d
00000340: 855f 503e cd0b 06be 0e90 143e bfc9 eebd
00000350: 50d6 dbbd d18a 6cbe fc86 e1bc d6f6 cfbd
00000360: 1082 86be ce25 91be 892a 84bc 0de8 a3be
00000370: 368c ac3e e1a8 2dbe bcc3 6b3e a163 71be
00000380: 4381 493e 17c4 9d3e 7834 91be df2d 3dbe
00000390: 89c5 583e 57fc 053e 4e89 46be e86a cdbd
000003a0: 2b93 44be 32c2 2fbe 8fe1 933d f925 3abe
000003b0: b3ae 71bd a97e 343e 10eb 91bc 9ae1 99be
000003c0: 017a 043e 01de 253d 18b4 093d 64dd 313e
000003d0: 8fda 123e 6ff1 0d3e cff9 9abe 3858 703e
000003e0: 7040 433e 14ba f4bd c920 463e 9048 e7bd
000003f0: bf9b 2fbd d4c2 eebd b82a f13d 5d6f a53e
0.13239564 0.18733943 -0.1986301 -0.19570416 -0.07087522 0.0016934932 -0.2834497 -0.08361506
-0.03814605 0.1975366 -0.24020708 -0.35502023 0.24151635 -0.021083178 -0.062442284 -0.08907309
-0.22758137 -0.051185794 0.009464878 -0.3574036 -0.2920987 0.08939231 -0.098394044 0.07131142
-0.02354908 0.022379229 0.055936277 0.035943747 0.12825274 -0.22485065 0.27109286 -0.22202449
0.0657203 -0.012408892 0.33316243 0.024600795 0.17484948 -0.02155635 -0.22532803 0.2867997
0.3068722 0.2038238 -0.04323476 -0.21713105 0.2275171 -0.15052281 -0.23269437 0.25988275
0.17214854 0.16527815 -0.033703633 0.077920176 0.013522485 0.08135577 0.17422278 0.15082566
0.2559177 0.28472027 0.18577327 0.106293395 -0.12093838 -0.10475029 0.14593866 0.28197667
-0.31653464 -0.119588315 0.23572396 -0.06943563 -0.036893327 0.034278702 0.23083745 0.17013647
0.0019126139 -0.12128028 0.04997387 0.110666506 -0.050329782 -0.07182936 0.2689397 0.28889582
-0.22585209 0.24680418 0.3330614 -0.18415713 0.21453574 -0.10988736 -0.09671067 -0.12782395
-0.030270958 -0.19823523 -0.02328205 -0.07848716 0.21211594 0.27333793 0.16612262 -0.32864928
-0.01700639 -0.116424076 0.0652983 -0.36250314 -0.104826145 0.25460896 0.36395395 -0.15015337
0.06318015 0.16782628 -0.30851924 0.27308768 -0.2600157 -0.14347386 0.01432913 0.01165963
0.23625469 -0.103781335 0.25213245 -0.09354313 -0.31601807 -0.0044519887 -0.2454349 -0.3052356
0.018581182 0.1560445 -0.044336792 -0.17991659 0.1588478 -0.26941824 0.3040865 -0.24197696
0.15785755 0.1621974 0.10169097 -0.27735102 -0.18075599 -0.28115866 -0.14091876 -0.083019294
0.09760531 -0.26268408 0.18979993 -0.320353 0.27264184 -0.093123995 0.17665528 0.07444469
0.14697926 -0.32825664 0.022850782 0.064640366 -0.19333096 -0.13924912 0.04940055 -0.32950875
-0.25863588 0.023240069 -0.17114696 0.3004711 -0.2371773 -0.24133304 -0.15454881 0.19323286
0.4115817 -0.17524558 -0.08578847 0.1775589 -0.042907707 0.1860566 -0.08261043 -0.26106787
0.1961569 0.057116386 -0.25288603 -0.32392302 -0.252316 0.07790453 0.31191346 0.2621438
-0.16101947 -0.30062568 -0.007346718 0.043683603 -0.15641744 0.13170142 -0.11579597 0.2965906
-0.16403295 -0.28103507 -0.039543252 0.2149611 -0.07927927 0.30521947 -0.048018858 -0.14064878
0.054366242 0.08539434 0.20526509 -0.023175053 0.30799618 -0.13208629 -0.2761021 -0.20683762
-0.26723778 0.105622746 -0.24355091 0.08278514 0.16987571 0.2738254 0.08778899 0.09870183
0.20348938 -0.13090439 0.14508078 -0.11659574 -0.10734236 -0.2309983 -0.027530186 -0.10154502
-0.26271105 -0.28349155 -0.016133564 -0.32012978 0.33700722 -0.16958953 0.23023885 -0.23573162
0.19678216 0.30813667 -0.28360343 -0.1847453 0.21169104 0.13084541 -0.19388315 -0.100301564
-0.19196765 -0.17163923 0.07220756 -0.18178548 -0.059004497 0.17626442 -0.017812282 -0.30054933
0.12937166 0.040494923 0.033619016 0.1736961 0.14341186 0.13861631 -0.30268714 0.23471153
0.1906755 -0.11949554 0.19348444 -0.11293137 -0.04287314 -0.11658254 0.11775726 0.32311526
