python/binarypath/binaries/gat_000014.pth (torch, 372431 bytes, 8 tensors)

gat_net.0.scoring_fn_target f4 [1, 8, 8]
000000 6b 92 4d bd a5 d6 a9 bc 25 f2 5b 3c 70 0d 78 3d
       -0.050188463 -0.020732233 0.013424431 0.06055969
000010 44 e8 55 bc eb fa 01 bc 64 2d 59 bc 40 b7 10 bc
       -0.013055865 -0.007933359 -0.013255451 -0.008832753
000020 64 b4 e5 bc 34 bd 09 3d 4f 8c ae bd 66 a4 ea bc
       -0.028040119 0.033627704 -0.085228555 -0.028642844
000030 a0 de 50 3a 92 fe a9 bc 4e 3f 72 3d 9b 71 5a 3d
       0.0007967744 -0.020751271 0.059142403 0.053331
000040 ff 20 6a bc 04 32 0b 3d 6e 74 42 3d 6c e2 cc 3c
       -0.014290093 0.033983245 0.047474317 0.02501031
000050 94 73 be bb e7 22 c5 bc 84 6f e4 b9 9a 7c 5a 3d
       -0.005812118 -0.024064494 -0.00043570634 0.053341486
000060 9f e6 ec 3c 60 cc 83 3d 74 a2 04 bd 49 00 30 3c
       0.028918562 0.06435466 -0.03238149 0.0107422555
000070 9b 53 26 bd e7 ef 65 bd 66 3f 24 bc 06 8e 1d bd
       -0.040607076 -0.05613699 -0.010024881 -0.038465522
000080 d0 fd 56 3d bd 8e 26 bc c8 88 23 3d b1 44 4e 3d
       0.05248815 -0.010165867 0.039925367 0.050358478
000090 48 c7 38 3d 64 b8 55 3d d7 11 2a bd 02 5c 8c 3c
       0.045111924 0.0521778 -0.04152092 0.017133716
0000a0 6b b2 5e 3d f0 c2 ef bc 0b 4e 38 3d b5 e9 5c bd
       0.05436937 -0.029267758 0.044996303 -0.053933818
0000b0 c2 fc 8c bd 87 d7 9e bc 11 fd d3 3c f4 f7 6b 3d
       -0.06884147 -0.01938988 0.025877507 0.057609513
0000c0 d7 12 82 bc 32 86 e2 3c f3 09 2b 3d ba 5f 59 3c
       -0.015878124 0.02765188 0.041757535 0.013267452
0000d0 15 9a 0b 3d 42 e8 e0 b9 d0 9d 05 bd 90 8a ac 3d
       0.03408249 -0.00042897655 -0.032621205 0.08424866
0000e0 c0 da 50 bc df 6e 0b 3d e5 f6 7c 3d f5 d4 3f 3d
       -0.012747467 0.03404128 0.061758894 0.04683395
0000f0 80 ea 9f bc ec 4f ec 3c 9a 6e 42 bc f6 8e c1 3c
       -0.019520998 0.028846703 -0.01186719 0.02362774

gat_net.0.scoring_fn_source f4 [1, 8, 8]
000000 21 30 0c be a7 f3 ea bd e1 e6 38 3e bd c8 80 3e
       -0.13690235 -0.11472254 0.18056823 0.2515315
000010 8f d1 9c bd 57 bc d4 bc dd 3d 9b bd 8e 2a 60 3e
       -0.07657158 -0.025968714 -0.07580159 0.21891233
000020 95 b2 9f bc d7 4e b6 3d f8 b9 0b be bd d0 cf bd
       -0.019494334 0.08901756 -0.1364516 -0.101472355
000030 f7 0c 8d 3d 7e f4 4e 3d e0 b6 27 3e 88 80 79 bd
       0.068872385 0.050526135 0.16378355 -0.060913593
000040 48 04 b1 bd b8 d0 b9 3c 27 b9 9e 3d 6e 43 a6 bd
       -0.08643395 0.022682533 0.07750159 -0.0811833
000050 68 e7 a8 3d 4b 83 03 be 44 4d 4b be 3e 3a 87 3e
       0.08247262 -0.12843053 -0.19853693 0.26411623
000060 45 3b d5 3d ef da 2a 3e 08 64 94 3d 09 93 83 bd
       0.104116954 0.16685079 0.07245642 -0.06424529
000070 64 b5 41 be ed 21 c2 bd 12 be d8 3d 63 83 b0 3d
       -0.18916851 -0.09479127 0.10583128 0.0861881
000080 91 36 cd 3d fc c5 ba 3d 30 03 34 3e 31 25 49 3e
       0.10020173 0.09119794 0.17579341 0.19643094
000090 fb 99 1b 3e 48 b2 58 3e 79 18 84 3d fe 10 27 3d
       0.15195458 0.21161759 0.0644998 0.04078769
0000a0 c2 d5 5a 3e 33 20 0a be 7e cd 6d 3e e6 82 5d be
       0.21370605 -0.13488846 0.2322292 -0.21631965
0000b0 b3 e2 93 be de 9b 89 3d ac 8e 16 bb 71 a9 e0 3d
       -0.28883895 0.067191824 -0.0022973223 0.109698184
0000c0 da f1 6e be b7 ce 2f bb dd 1a 14 3e a1 fe d8 3d
       -0.23334447 -0.0026826093 0.14463373 0.105954416
0000d0 19 66 73 3d 34 3c b9 bc cf 02 3b be 1e c8 7b 3d
       0.05942354 -0.022611715 -0.1826279 0.061470143
0000e0 ba ac 30 bd b5 63 8d 3e 69 48 7c 3e 60 6f 10 3e
       -0.043133475 0.27615133 0.24636997 0.14104986
0000f0 f7 6d e4 bd 01 12 22 bd d0 03 a6 bb 93 dc 64 3d
       -0.11153787 -0.03956795 -0.0050663725 0.05587442

gat_net.0.bias f4 [64]
000000 2e 1a 0e 3d 44 d0 b5 3c 61 77 08 3d 26 73 07 bc
       0.034692936 0.022194035 0.033316974 -0.0082672
000010 b4 a6 0d 3c 79 66 cb ba bb 45 81 bc 37 15 aa bb
       0.008645702 -0.001551821 -0.01578032 -0.0051905173
000020 ab 21 b0 3c 58 60 32 bd e1 9a 9c bc 3f 26 21 3b
       0.02150043 -0.04354891 -0.01911682 0.0024589447
000030 d4 ad c7 bc 94 78 34 3c bd a8 23 3d ee 24 97 bb
       -0.02437488 0.011015076 0.039955843 -0.0046125567
000040 29 e2 f9 3c 94 0b 10 bc aa 8e 2c bc 52 f5 83 3c
       0.03050335 -0.008791823 -0.010532061 0.016108189
000050 9b ac 87 3c fb d7 87 3c 19 74 07 bc b3 13 9b 3c
       0.016561797 0.01658248 -0.008267426 0.018930292
000060 71 ce de 3c 75 17 ca bb 51 77 a6 3b fe 9d 88 bb
       0.027198048 -0.006167347 0.0050801416 -0.0041692248
000070 a0 ee cb 3b 93 67 a1 bc 52 85 94 3c 1b 1e 1a 3d
       0.0062235147 -0.019702708 0.018129978 0.037626367
000080 81 ce a8 bb 22 b8 7f 3b 25 27 95 3c 61 05 37 3d
       -0.0051515703 0.0039019664 0.018207142 0.044682864
000090 a4 f3 6c 3c d5 8a 89 bc ae 10 dd 3b 95 6e 1c 3d
       0.014462385 -0.016789833 0.006746373 0.038191397
0000a0 a8 79 88 3c f4 da 2c 3d 52 e2 c2 3c 1b f8 a5 3c
       0.016659573 0.042200997 0.023789559 0.020259907
0000b0 58 0b 1c 3d 64 a0 b1 ba 72 44 65 3c cf 60 84 3b
       0.038096756 -0.0013551828 0.013993369 0.004039861
0000c0 90 7f a3 3c 72 93 8c bc 94 38 04 3d 9d 37 68 bd
       0.019958287 -0.017160151 0.03228052 -0.056693662
0000d0 e9 87 06 3b 90 0f 31 3c ab fe dc bb 5c 99 d9 bb
       0.0020527786 0.010806933 -0.006744226 -0.0066405963
0000e0 02 e9 fb 3c fa c0 eb 3b 1b 91 99 3c 22 25 ba 3c
       0.030750755 0.0071946355 0.01874595 0.022722784
0000f0 02 17 45 ba cf 11 ca 3c 2d 48 6c 3c 5f c6 21 3b
       -0.0007518382 0.024666695 0.014421505 0.0024684889

gat_net.0.linear_proj.weight f4 [64, 1433]
000000 2a 32 47 bc 16 8e 50 3d 58 4f cf 3c 95 97 62 3d
       -0.012157956 0.050916754 0.025306389 0.05532034
000010 d8 3b 5e be eb 73 8b bc d9 c0 b5 bc 41 d0 69 3d
       -0.21702516 -0.017023047 -0.022186683 0.057083372
000020 7f 92 27 3c 6e 62 63 3c d3 e2 ee bb 88 9e 06 bd
       0.0102277985 0.013878448 -0.007290223 -0.03286603
000030 93 bb 13 bd b5 1d af 3d e9 f1 43 3d 49 b8 8b ba
       -0.036067557 0.08550588 0.047838125 -0.001065978
000040 31 63 b0 bd 13 a4 71 bc 43 aa 85 bd e6 55 cc bd
       -0.08612669 -0.014748591 -0.065266155 -0.09977321
000050 5e 64 99 b9 d0 f4 9d 3d b2 26 c5 3c d6 00 bc bd
       -0.00029257213 0.0771271 0.024066303 -0.09179847
000060 71 ad 0e 3a b1 85 aa 3d cd 68 90 bd 3d 29 b5 bd
       0.0005442715 0.08326281 -0.07051239 -0.08845756
000070 7a 7c 3c bd 9b 72 72 3c 1e f5 34 bc b0 42 54 bc
       -0.046017148 0.014797832 -0.011044769 -0.012955353
000080 78 cb 94 3c 89 66 18 3b 18 20 66 3b de 6b 0f 3d
       0.018163428 0.0023254475 0.0035114344 0.03501498
000090 38 b1 7e bd 70 bd 7e 3a 04 12 25 3d 1a df b4 3d
       -0.062180728 0.00097175594 0.040300384 0.08831616
0000a0 4a 97 35 bd 81 09 5b 3d 4d f1 81 bc 38 45 43 bd
       -0.044333734 0.05347586 -0.015862131 -0.047673434
0000b0 98 e9 9a bd 97 0f 55 3d 67 e3 1b bd 70 05 af 3a
       -0.07564086 0.05201682 -0.038058665 0.0013353061
0000c0 68 68 a3 bd 59 4c ea 3c d5 6d 82 bc d3 c7 3a be
       -0.07978898 0.028600859 -0.015921513 -0.1824029
0000d0 e6 db 05 3e a5 ee ab 39 2f 19 c5 bd da d2 55 bd
       0.13072166 0.00032793466 -0.09623944 -0.052203037
0000e0 fe 37 f3 3d 8e a6 2c 3d 6a 17 aa 3c 67 28 76 3d
       0.11875914 0.042151026 0.020763118 0.060097124
0000f0 94 12 32 b9 21 f3 72 be 36 bf d1 bc 84 bf 8d 3b
       -0.00016982324 -0.23725559 -0.025603872 0.004325809
000100 c5 ef 93 3c f5 40 a2 3d 96 c1 b8 3c 98 37 be 3c
       0.018058667 0.07922546 0.022553246 0.023219869
000110 e1 f7 b7 bc 3e 16 cf 3d 65 1f c9 3c b1 b8 b1 3c
       -0.022457065 0.10111664 0.024551103 0.021694513
000120 55 d2 1c 3d c0 59 09 bd da ba ea bb 52 c9 92 3c
       0.038286526 -0.033532858 -0.0071633877 0.017918263
000130 0e d3 38 bd b6 59 10 be 05 0b f5 bd 8f 7a e1 3c
       -0.045123152 -0.14096722 -0.119649924 0.02752426
000140 a7 09 11 3e 42 6c d0 3d f3 9c fe bb a4 60 15 bc
       0.14163838 0.101768985 -0.0077701746 -0.009117279
000150 5d 3f 7b bc db b3 da 3d 7e 60 82 bc b2 9b b3 bb
       -0.015334931 0.10678836 -0.015915152 -0.005481207
000160 5b f8 1f bd c8 77 a2 3c 7e f1 a4 bb 8a 9f 0d bc
       -0.03905521 0.019832507 -0.005033671 -0.008643994
000170 3b 5a fd bd 14 47 48 bd 70 03 0a 3d 5e f2 96 bd
       -0.12370726 -0.04889591 0.033694685 -0.073704466
000180 2a 1d 6a bb 9f b4 82 3d 8e 53 0a 3c f4 df 59 bc
       -0.003572295 0.06382107 0.008442773 -0.0132980235
000190 ff 5d 43 bd 5d 10 eb 3c c1 81 0c be 74 18 be 3c
       -0.047697064 0.028694326 -0.13721372 0.02320502
0001a0 ca c4 6c ba 8a 32 04 bb 95 c1 79 3c 7b 07 19 bd
       -0.00090320094 -0.0020171725 0.015243907 -0.03736065
0001b0 00 c9 16 3a 8b f4 7e 3d ce f4 39 3b 00 47 8c 3b
       0.0005751997 0.062244933 0.0028374675 0.004280925
0001c0 76 81 c6 bc dd 53 74 b9 3c 2f 5c bc 93 71 0a bb
       -0.024231654 -0.00023300895 -0.013438996 -0.0021124824
0001d0 21 34 24 ba 26 23 2d bb 84 f8 98 bd 8e 97 13 3d
       -0.00062638713 -0.0026418655 -0.074692756 0.036033206
0001e0 ed 54 86 3d 17 fd 1c bd f6 c6 47 3d 82 29 2a bd
       0.06559167 -0.038327303 0.04877373 -0.04154349
0001f0 96 00 10 3d fe ad e4 bd d1 43 0b be 13 7c 44 3c
       0.03515681 -0.11165999 -0.13600089 0.011992472
000200 c9 23 e6 bd 4c 5d f4 bc c8 ab 9f b9 27 34 a2 ba
       -0.11237294 -0.029829644 -0.0003045483 -0.0012375162
000210 ad 34 c9 3d 5d d8 6e 3d 1e ac fb 3c 23 65 c4 bd
       0.098245 0.05831181 0.03072172 -0.09589603
000220 44 52 1c 3d 43 a2 9d bc dd f2 4e bc 99 6a a7 3c
       0.038164392 -0.019242411 -0.012631145 0.020436572
000230 cd fc dd bd e2 3d a2 bc a9 11 40 bd 59 b6 a2 3d
       -0.108392335 -0.019804899 -0.046891842 0.07944936
000240 70 2b 05 3c 53 ad 2e b8 a5 c1 c9 3d 19 c5 ab bc
       0.008128032 -4.1646254e-05 0.09851388 -0.020968007
000250 d5 ea 2e bd 12 93 21 be 01 67 31 3d df 20 fd bc
       -0.042704422 -0.15778759 0.043311123 -0.030899463
000260 ca be 57 bc 82 21 b4 bd b8 6b 9a bd d1 37 16 bd
       -0.013168046 -0.087954536 -0.07540077 -0.036674324
000270 40 f8 9f bd 9e 97 61 3d 6d 85 11 bc c5 dc c7 bc
       -0.07811022 0.055076234 -0.008881909 -0.024397263
000280 a7 7d ab 3d 09 26 50 3d 25 3b 88 3d 96 28 8e bd
       0.08373576 0.050817523 0.06651906 -0.06941335
000290 32 ba 08 bd 52 18 55 3d c0 52 c2 b8 a0 66 20 bd
       -0.033380695 0.052025147 -9.266054e-05 -0.03916037
0002a0 b7 ce e1 3d b7 a6 7e 3d 84 80 28 bd 89 df cd bb
       0.11025756 0.06217071 -0.041138187 -0.006282751
0002b0 d2 f6 34 bd 9c 47 e0 3d 76 d0 50 bd 32 39 ec 3c
       -0.0441807 0.109511584 -0.050980054 0.028835867
0002c0 f5 65 d9 3c 3e 26 91 bd 36 f5 60 bd e7 9b 06 3c
       0.026537875 -0.07087372 -0.05492135 0.008215881
0002d0 d6 81 d7 bc a4 05 92 bd 52 e6 08 bc 09 d0 05 bc
       -0.026307028 -0.07129982 -0.008355694 -0.008167275
0002e0 06 be e5 3b 80 30 43 38 f7 bc 08 3d 9e 66 16 bd
       0.007011178 4.6536792e-05 0.033383336 -0.036718957
0002f0 29 a1 c0 bc 23 c9 a9 bc e5 f6 45 3c c5 4e 93 bd
       -0.023514347 -0.020725792 0.01208279 -0.071927585
000300 9e 7c 50 3d 07 c8 40 3d d4 8d af 3c a0 ef 37 ba
       0.050900094 0.04706576 0.021429934 -0.0007016603
000310 da 9d ab 3d 65 75 85 bb 75 82 cd bb 0c b6 42 bb
       0.08379717 -0.0040728324 -0.006271655 -0.002971056
000320 e8 7e 01 bc 42 a1 1e 3c a6 9a 2b bd 06 5f ad 3d
       -0.007903792 0.009682002 -0.04189553 0.0846539
000330 85 e3 fa 3c a1 53 55 3d fe 36 6c bc a4 af d2 3d
       0.030626068 0.052081708 -0.014417408 0.10287407
000340 2d 7c a2 3d f2 76 96 3c b9 15 9e 3c ee e2 49 3e
       0.07933841 0.018367264 0.019297468 0.19715473
000350 72 f9 80 3d 2d 36 51 3d d2 c4 0c 3d 76 9d 93 3c
       0.06297578 0.051077057 0.03436739 0.01801942
000360 e7 55 03 3d f7 71 e5 3d 7e 9f 02 3d 1b 8b 5f 3d
       0.032064345 0.11203378 0.031890385 0.05457602
000370 85 b9 f0 3a b0 d7 85 3b 49 3f f5 bc a4 09 17 bc
       0.0018365836 0.00408455 -0.029937403 -0.009218607
000380 c7 07 0d be 32 af 31 3d ec c0 82 bd 20 cb e8 bb
       -0.13772498 0.04337997 -0.06384453 -0.0071042925
000390 8a 02 60 3d 64 90 11 3d 95 58 a0 bc dd e9 83 bd
       0.05468992 0.035538092 -0.01957349 -0.0644109
0003a0 07 70 41 bd 0f 3c 4b 3d 1b 3b 4a bd 54 25 cb bb
       -0.04722598 0.049617823 -0.049372774 -0.006199518
0003b0 ed 1f 0a bd fa b7 4f 3e 31 db 6e 3c e4 4c ea 3c
       -0.033721853 0.20285025 0.0145786265 0.028601117
0003c0 92 10 34 3d 31 a8 20 3c ff 71 b7 bc 92 35 2a bc
       0.043961115 0.009805725 -0.022393225 -0.010388749
0003d0 8a a6 86 bd d3 fb 1e 3c 25 ed 9b 3a 41 44 6e 3c
       -0.065747336 0.009703594 0.0011896236 0.01454264
0003e0 d4 a1 ff bc 55 af 8e bd 07 81 b5 bd 54 3f 74 3d
       -0.031205095 -0.06967036 -0.08862501 0.059630707
0003f0 7c 08 0e 3d 28 00 f7 bc 08 60 d7 3c 86 a6 af bb
       0.03467606 -0.030151442 0.026290908 -0.0053604273

gat_net.1.scoring_fn_target f4 [1, 1, 7]
000000 03 9f 73 3d 90 d2 6d 3e 1c a5 57 bd 62 0f 0e 3e
       0.059477817 0.23224854 -0.052647695 0.13873056
000010 96 7f cf 3e 39 82 98 bd 7b 94 e9 bd
       0.40527028 -0.07446713 -0.114052735

gat_net.1.scoring_fn_source f4 [1, 1, 7]
000000 19 c6 f5 3e 47 ed a4 bd 21 12 66 be 6a b0 45 3f
       0.480027 -0.080530696 -0.22467853 0.7722231
000010 91 cc ff 3e 04 bb 85 be 7e 2a c5 3e
       0.4996076 -0.26119244 0.3850898

gat_net.1.bias f4 [7]
000000 6b 5e a3 bd fc 91 8b 3d ec 17 01 3e a7 a7 e9 bd
       -0.07976993 0.06814954 0.12606782 -0.1140893
000010 95 cb 5d bd 8c 24 cf 3d ef a2 5e bd
       -0.05414923 0.10114393 -0.054354604

gat_net.1.linear_proj.weight f4 [7, 64]
000000 d6 ea e0 3e f6 54 29 be c3 62 e2 be 99 ef fe be
       0.43929166 -0.16536316 -0.44215974 -0.49792174
000010 9f 47 bb 3e 24 08 40 bd e5 25 9e 3c 1e 6d 0a be
       0.3657808 -0.046882764 0.019305179 -0.13518187
000020 1a 7b b6 be e4 cc 5f 3e 6d 70 4a be 44 ff 8f 3e
       -0.35640794 0.21855503 -0.1976945 0.2812444
000030 a3 62 81 3e 02 cc 21 be fb 39 f9 3d 0c bd 03 3f
       0.25270566 -0.15800479 0.12169262 0.5146034
000040 0e fa 21 3e ae 66 88 bc 0f c6 d6 3e 6f c3 89 be
       0.15818045 -0.016650524 0.41947982 -0.26906916
000050 ca 10 93 bd 58 5f 40 3d 88 41 9c 3e aa ae cf 3e
       -0.07180937 0.046965927 0.30518746 0.40562946
000060 e2 26 b2 3e 55 fc fd 3e be ed a9 be c6 d7 59 3e
       0.3479529 0.49606577 -0.33189195 0.21273717
000070 cf ab 99 be 0b 24 a2 be 7b 9f ce be a2 14 11 bf
       -0.30013892 -0.31668124 -0.4035605 -0.5667211
000080 d1 78 0c bf e2 a7 7e bd b2 5c 23 be b0 b4 c9 be
       -0.5487185 -0.062171824 -0.15953329 -0.39395666
000090 b1 cf dd 3e f1 a5 e1 be e9 8b 98 3e 1e a7 bd be
       0.43322518 -0.44071916 0.29794243 -0.37041563
0000a0 a4 04 b6 be af f4 4d 3e fa 48 8f 3e 39 f4 f1 3e
       -0.35550416 0.2011287 0.27985364 0.4725664
0000b0 4d d9 d2 be 98 08 90 be 94 eb 03 bf 3e 27 b3 3e
       -0.41181412 -0.28131557 -0.5153134 0.34990877
0000c0 c6 de 08 bf ac 88 2d 3e cf 11 bc be dc a5 34 bc
       -0.53464925 0.16946667 -0.36732337 -0.011025872
0000d0 ea 10 95 3e 2b be 4f be 31 d9 b9 3e ba 83 f4 3e
       0.29114467 -0.20287387 0.36298516 0.4775675
0000e0 2b 03 6e be 66 29 40 3e 5c a6 a7 be 9e 9d e0 be
       -0.23243396 0.18765792 -0.3274411 -0.43870252
0000f0 31 4f d6 3c b8 9a d9 be af 57 82 3c e7 56 1a be
       0.026160808 -0.42500854 0.015910951 -0.15072213
000100 7f 80 d2 3e 28 39 ea 3e 08 b7 cd bd 46 19 9e 3e
       0.4111366 0.45746732 -0.10044676 0.30878657
000110 a7 5c af 3e bd 7a 46 3d b8 63 e6 3e b0 bf d9 be
       0.34250376 0.048456896 0.44997954 -0.42529058
000120 ca 6a a5 be 69 f1 5a be 87 85 2f be 1f c1 d2 3e
       -0.32308036 -0.21381153 -0.1714078 0.41162965
000130 a3 0e ea 3e c4 48 14 3f c7 7b 87 3e 2b 5e 6d 3b
       0.45714292 0.5792353 0.26461622 0.0036219459
000140 eb 6b 81 3e 51 51 b5 3e 7b 1b 1d bf df a1 ea be
       0.25277647 0.35413602 -0.61370057 -0.45826623
000150 92 1c 0a bf 88 9b 3d 3e d0 99 26 bf de bf 81 be
       -0.53949845 0.18516362 -0.6507845 -0.25341696
000160 1e 21 d9 bd ac 62 8d be 58 0c 1e 3f c9 e5 0a bf
       -0.1060202 -0.27614343 0.61737585 -0.54256874
000170 15 25 a0 be b6 ce 0a 3f b9 0d 05 3f 80 31 aa 3d
       -0.3127829 0.54221666 0.51974064 0.083102226
000180 11 82 b0 3e cb 83 c3 3e 8e e0 e5 bc a5 c3 f9 3e
       0.34474233 0.38186488 -0.028061178 0.48782077
000190 41 e5 86 3e 9f 56 f1 3e 04 c4 e1 bc 30 28 0f 3f
       0.26346782 0.471364 -0.027559288 0.55920696
0001a0 08 46 0e be ce d7 85 be 54 23 c9 3d a4 fc ae be
       -0.13893902 -0.26141208 0.098211914 -0.34177125
0001b0 74 01 d7 3d 3d f5 a9 be 22 00 a1 be 71 b9 02 bf
       0.10498324 -0.33194914 -0.31445414 -0.5106421
0001c0 4f 1f 9e 3e cc ef 87 3d 75 b3 16 bf f6 84 55 3e
       0.30883262 0.066375345 -0.5886758 0.20851502
0001d0 60 20 13 bf ea a5 00 be 74 74 10 3a 0e 3a f3 be
       -0.57471275 -0.12563291 0.0005510517 -0.4750523
0001e0 a7 73 d7 3e 68 f2 ab 3e e5 74 b3 3e f7 fd 1f 3f
       0.42080423 0.3358338 0.3505012 0.62496895
0001f0 fd 1a 10 bf 7e 22 5f be 21 40 d6 3e 62 66 ca be
       -0.5629118 -0.21790501 0.418458 -0.39531237
000200 0c ad d7 be 77 62 58 3d 5b 19 f0 be 05 21 ae bd
       -0.42124212 0.05282828 -0.46894345 -0.08502392
000210 09 cf e5 be b9 c0 a6 be 2d 27 f5 3e 24 56 fe 3e
       -0.44884518 -0.3256891 0.4788145 0.49675095
000220 77 f9 cf 3e e8 1d 32 3e fc 1a 9d 3d fe 1e 0d 3f
       0.40620014 0.17394221 0.076711625 0.55125415
000230 21 8d 3e 3e 6a f4 f0 be 7a 2a d8 be 90 ea b3 be
       0.18608524 -0.47061473 -0.42219907 -0.35139894
000240 5c 94 82 be 4d 0e 4c bd 9a e8 ef 3e 60 cc d0 be
       -0.25503814 -0.049818326 0.46857148 -0.40780926
000250 f8 b9 20 3f c6 ea 97 be fe d0 86 be b7 52 e7 3e
       0.62783766 -0.29671305 -0.26331323 0.45180294
000260 4b f0 26 bf 62 f7 b6 be e7 27 ca 3e f7 47 a7 be
       -0.6521041 -0.35735613 0.39483568 -0.32672092
000270 69 6b d2 3e 40 96 06 3f 6d 3b 5d be c3 cf fb 3e
       0.41097572 0.52573013 -0.216047 0.49181947
000280 f4 15 04 3f 55 33 d0 3e 54 54 80 3e 5b a0 ea be
       0.51596 0.40664163 0.25064337 -0.45825467
000290 d8 d9 07 3f 20 f1 1e bf 10 87 ec be a8 b7 2f 3c
       0.5306678 -0.6208668 -0.46196795 0.010724939
0002a0 c6 51 cc 3e 06 11 4c 3d 0d 01 9e be 34 a2 dd be
       0.39906138 0.049820922 -0.30860177 -0.43287814
0002b0 62 a0 a5 be 27 04 ba 3e 0a 38 9e 3e 34 d7 5e bc
       -0.32348925 0.36331293 0.3090213 -0.013601113
0002c0 f1 c6 52 3c 2a 0b 6f 3e ed 40 0e 3f 82 8d d8 3e
       0.012864814 0.23344103 0.5556782 0.42295462
0002d0 bb 68 da bd c8 9b 61 3e f5 96 14 bf 1f 8a b5 3e
       -0.10664507 0.22032082 -0.5804284 0.3545694
0002e0 ad c9 1e be 57 08 d1 be 7f 53 dc be 01 80 bf be
       -0.1550662 -0.40826675 -0.43032452 -0.37402347
0002f0 c4 b1 85 3e 4d 52 d5 bd 72 79 03 3f d3 21 f7 be
       0.26112187 -0.10416088 0.51357186 -0.48267993
000300 0a ac 8a 3e c3 0a 9d 3e 93 b3 a9 be 34 6a ff be
       0.2708438 0.30672273 -0.33144817 -0.49885714
000310 5a 94 06 be ac a4 95 3d 3c 51 1b bd 4a b7 dd be
       -0.13142529 0.07306799 -0.037919268 -0.433039
000320 5f 09 e6 be ff 64 cd 3d 3b 13 03 3f 0e ab cb 3e
       -0.44929025 0.10029029 0.5120122 0.39778942
000330 77 0e 30 bf cf 63 56 be 7b 49 77 be 51 b3 ba be
       -0.6877207 -0.20936511 -0.24149124 -0.36464933
000340 18 2c 95 3e 4d 55 d7 be 7a 9a 9e 3d 95 72 dd 3c
       0.29135203 -0.42057267 0.07744308 0.027032176
000350 14 0d 38 bd f9 58 d7 be 33 13 d9 be 75 b8 4c 3e
       -0.044934347 -0.42060068 -0.4239746 0.1999224
000360 63 df 2f 3d 5d 58 cb 3e 0c 07 2e be ad 02 7e be
       0.042937648 0.39715853 -0.16994876 -0.24805708
000370 36 4c 33 be e6 2e d4 be 37 7b 21 bc 8d c7 94 3e
       -0.17509541 -0.4144203 -0.009856037 0.29058495
000380 93 9b 9d 3d d1 45 71 3e 9e 17 f8 be 89 90 5d 3e
       0.07695689 0.23561789 -0.48455518 0.21637167
000390 65 b0 ee be a6 5b 21 3d d5 49 0f 3e 23 7f b9 3e
       -0.46618953 0.039394043 0.13993008 0.3622981
0003a0 fe 9d bc be 15 97 fd 3e 3e a9 d8 be 84 f0 04 3e
       -0.36839288 0.4952933 -0.42316622 0.12982374
0003b0 eb e5 a3 3e 28 8a 09 3f 2e 08 cd bd 7e 60 a9 be
       0.3201135 0.53726435 -0.10011326 -0.3308143
0003c0 5c 08 53 3e f5 02 84 3e 81 5d 3f 3e 2a 83 60 3e
       0.20608658 0.25783506 0.18688013 0.21925035
0003d0 d2 95 87 3e af de bf bc e1 46 f4 be f7 79 0e 3d
       0.2648149 -0.023421613 -0.47710326 0.034784283
0003e0 b7 6e 9b 3e c4 f5 6b be 7a 97 87 be 29 4b f8 3e
       0.30357906 -0.23042971 -0.26482755 0.48494843
0003f0 1e b4 a7 3b 41 4c f5 3e 07 e3 ff be 8a a1 9d 3e
       0.005117907 0.4790974 -0.49977896 0.30787307
