python/binarypath/checkpoints/gat_ckpt_epoch_1000.pth (torch, 372431 bytes, 8 tensors)

gat_net.0.scoring_fn_target f4 [1, 8, 8]
0.06646197 0.00045263808 0.06519075 0.06440974 0.15205814 0.006680381 -0.13607182 0.01241343
-0.09281614 -0.044393063 -0.09425394 -0.109078676 0.0393527 -0.030307932 -0.104108885 -0.017307783
-0.11925259 0.038677737 -0.0770171 0.010685872 0.039516184 0.0687555 -0.06723077 -0.03706643
0.048494253 0.058549922 0.014263222 -0.03908581 0.02837564 -0.012613752 -0.024278738 0.058996897
0.059590086 0.0034056932 0.02237997 -0.037235826 0.07968024 0.0637303 0.0657765 0.04599618
0.060770135 -0.094253294 -0.099258415 -0.03404728 0.112195805 0.006237066 -0.029719854 0.11766053
0.057914376 -0.0715223 0.081081964 0.03241988 -0.081261784 -0.049540382 0.05366833 0.07140777
-0.13093045 -0.06353918 -0.05902962 -0.015249746 -0.0090706805 0.11174318 0.025848301 -0.0588028
00000000: 371d 883d 0e50 ed39 ba82 853d 41e9 833d
00000010: 21b5 1b3e 19e7 da3b 6956 0bbe b361 4b3c
00000020: 6316 bebd 80d5 35bd 3608 c1bd a464 dfbd
00000030: 4c30 213d 5748 f8bc 0a37 d5bd 0dc9 8dbc
00000040: b43a f4bd 8c6c 1e3d 24bb 9dbd cc13 2f3c
00000050: b9db 213d afcf 8c3d 49b0 89bd f8d2 17bd
00000060: e9a1 463d 0bd2 6f3d 4ab0 693c 7118 20bd
00000070: 0874 e83c e9a9 4ebc 34e4 c6bc bba6 713d
00000080: bc14 743d 0d32 5f3b 3356 b73c 9884 18bd
00000090: 652f a33d 0885 823d d4b5 863d 7e66 3c3d
000000a0: 1bea 783d df07 c1bd ff47 cbbd 2975 0bbd
000000b0: eac6 e53d 4d60 cc3b 0d77 f3bc 01f8 f03d
000000c0: a037 6d3d 497a 92bd 4d0e a63d b5ca 043d
000000d0: 946c a6bd dbea 4abd 53d3 5b3d 3d3e 923d
000000e0: a212 06be d420 82bd 0bc9 71bd 12da 79bc
000000f0: 319d 14bc 9cd9 e43d d1bf d33c 34db 70bd

gat_net.0.scoring_fn_source f4 [1, 8, 8]
0.11001338 0.1726009 0.16022085 0.15833725 0.36204264 0.3544082 -0.2675375 0.14918141
0.14498618 0.024949212 -0.054521322 -0.30081317 0.05846995 0.24904728 -0.2546908 0.32879594
-0.45343205 0.17126417 -0.10180911 0.25289786 -0.023346066 0.10218896 -0.2971817 0.007383146
0.35864586 0.31546983 -0.15539813 -0.26685572 0.09406994 -0.15041353 -0.0022111367 0.2195529
0.13408844 0.043751903 -0.025262445 -0.2745363 0.11722347 0.17532168 0.20100822 0.012584957
0.06618706 -0.33923063 -0.042204916 0.002882124 0.13380556 -0.06659036 -0.11799264 0.2563814
0.3147181 -0.40497878 -0.0473222 0.20898658 -0.23537041 0.06702511 -0.10210047 0.23046833
-0.47279966 -0.093197286 -0.066324756 0.0058768853 -0.017550068 0.1686075 0.17610058 -0.40253812
00000000: b24e e13d 4abe 303e ef10 243e 2923 223e
00000010: a75d b93e fe74 b53e adfa 88be 03c3 183e
00000020: 4277 143e 4a62 cc3c c051 5fbd 2f04 9abe
00000030: 307e 6f3d 4006 7f3e d566 82be f157 a83e
00000040: 3f28 e8be e05f 2f3e 4b81 d0bd d47b 813e
00000050: 4040 bfbc 7248 d13d 3328 98be 51ee f13b
00000060: 6ea0 b73e 4385 a13e b020 1fbe 50a1 88be
00000070: bea7 c03d 0106 1abe b8e8 10bb 7ad2 603e
00000080: 7b4e 093e 3235 333d 30f3 cebc 0690 8cbe
00000090: dc12 f03d 8787 333e 19d5 4d3e 2331 4e3c
000000a0: 158d 873d a3af adbe 10df 2cbd 04e2 3c3b
000000b0: 5304 093e 8760 88bd 20a6 f1bd 6c44 833e
000000c0: bb22 a13e 6159 cfbe ecd4 41bd 9400 563e
000000d0: f104 71be 7644 893d 0d1a d1bd e4ff 6b3e
000000e0: cc12 f2be 38de bebd 46d5 87bd e392 c03b
000000f0: 29c5 8fbc 72a7 2c3e b653 343e 7a19 cebe

gat_net.0.bias f4 [64]
-0.0014967807 0.030854028 0.045617077 -0.02352558 0.0009607849 0.056116883 -0.02816442 -0.001878731
0.047439113 0.013127694 0.03304162 0.0071442123 0.02371095 0.031707764 0.038499497 0.05696817
-0.0061619473 -0.0063095842 0.012956087 0.06343726 -0.009311536 -0.086802624 0.01255149 0.018222608
0.063965425 -0.014046329 0.00079458917 -0.030493857 0.005344322 0.021557668 -0.013955499 0.009131891
-0.029391976 0.019836603 0.029942838 0.04779523 0.005719146 0.046469186 -0.0042476207 0.030561004
-0.0031989797 -0.005297397 0.0320027 0.002149954 0.018365461 0.015306081 -0.037723113 -0.011096689
-0.011474778 0.026634533 0.030683925 0.039437145 0.019293468 0.014313059 -0.04371645 0.04004288
0.03688308 -0.010704081 0.02069755 -0.02024638 0.025844853 -0.012696305 0.04056066 0.047134664
00000000: a02f c4ba 96c1 fc3c f9d8 3a3d b8b8 c0bc
00000010: 2fdd 7b3a d1da 653d 12b9 e6bc c03f f6ba
00000020: 844f 423d 8a15 573c a656 073d ff19 ea3b
00000030: 773d c23c 00e0 013d a6b1 1d3d 7557 693d
00000040: 29ea c9bb a1c0 cebb c445 543c 65eb 813d
00000050: 6a8f 18bc 93c5 b1bd c4a4 4d3c 9447 953c
00000060: 4e00 833d 9322 66bc fa4b 503a 41ce f9bc
00000070: 6c1f af3b b599 b03c 9ba5 64bc ed9d 153c
00000080: 71c7 f0bc 5f80 a23c af4a f53c eec4 433d
00000090: ad67 bb3b 7956 3e3d a02f 8bbb 125b fa3c
000000a0: f9a5 51bb c995 adbb 4315 033d 3ee6 0c3b
000000b0: 2a73 963c 5bc6 7a3c 8d83 1abd e3ce 35bc
000000c0: b500 3cbc aa30 da3c db5c fb3c d888 213d
000000d0: 560d 9e3c 5281 6a3c 0510 33bd 0104 243d
000000e0: b612 173d 2b60 2fbc e98d a93c bcdb a5bc
000000f0: 96b8 d33c 2a04 50bc ef22 263d 4710 413d

gat_net.0.linear_proj.weight f4 [64, 1433]
-0.051921327 0.1244552 -0.063165374 -0.13021927 -0.12040705 0.02131356 -0.17025383 0.05174344
-0.13278584 0.002964642 0.000618647 0.020604035 -0.0465161 -0.056694068 -0.14334531 -0.026337942
0.028384794 -0.012002813 0.049930144 0.1246927 -1.255892e-25 -0.101120554 0.044962764 -0.00906332
-0.022998683 -0.14041129 -0.167402 0.114477366 -0.039147735 0.0066431784 0.08432706 -0.0079240985
0.08004856 -0.0020107834 -0.02862852 -0.14411627 0.09241604 0.05572525 -0.049028885 0.164868
-0.113309674 0.0022442876 0.006619408 0.007814281 0.12314383 0.137232 -0.016338564 0.052782495
0.107016 -0.085268214 0.024046354 0.24586116 -0.14691465 0.005460804 0.07655291 0.12750715
-0.2186606 0.035380192 0.11512803 0.012024814 -1.1023555e-24 0.21536915 -0.0019288958 -0.12454299
-0.025041174 0.02058249 0.03332537 0.0078112483 -0.018544456 0.01880607 -0.013202573 -0.06546186
0.011669216 0.037931733 0.02440067 0.09290323 0.21700658 0.2610255 0.034595802 0.007242356
0.020597825 0.057712257 -0.036712922 -0.02695643 -0.055933554 0.095991954 0.12737739 0.055891745
0.15060738 -0.035115197 -0.015550787 0.11131843 0.009606043 -0.029577395 -0.09092023 0.1037132
0.0551959 -0.07201179 -0.17485954 0.056314237 0.014324331 -0.00043605227 0.16529797 -0.008712289
0.09308556 0.007730264 0.07322084 -0.04269309 0.13541335 0.05158501 -0.04240356 0.015882319
0.032349415 0.00018078195 0.09253714 0.09091388 0.13845254 0.054880675 0.032981016 -0.014583906
-0.05206523 -0.055961814 -0.092164166 0.041637864 0.12659658 -0.07777279 0.0692009 -0.0024475825
0.19021542 0.05976629 -0.10323646 0.17277944 -0.12676759 0.022625944 0.038581986 0.020498138
0.16471721 -0.024079544 0.033176366 0.11674684 -0.061539285 0.015983328 -0.058586754 -0.03850857
-0.006451668 5.167111e-15 -0.15894015 -0.059101995 0.018348554 0.019130247 -0.030083384 -0.014726957
-0.041836508 0.07041951 -0.08282227 0.151874 0.029183537 0.11174575 -0.042900883 -0.069115505
0.109935075 -0.003236779 -0.027856072 0.0033926272 -0.026556164 -0.07308609 0.04618161 -0.029182427
-0.12211517 -0.006369699 -0.07180092 -0.0004162086 0.117574476 0.10362701 -0.04773585 -0.019504514
0.10082839 0.13756019 0.029827299 -0.046225525 0.017437592 -0.030330993 -0.043178223 0.08096041
0.0017843168 -0.00016214464 -0.11736185 -0.115970045 0.12920019 -0.15005007 0.00027627376 0.024062883
-0.07613311 -0.04434318 0.06622362 -0.058669116 -0.12625645 -0.052457843 0.03694885 -0.0087168645
-0.024484776 -0.0028992682 0.06466412 -0.11086953 0.01823374 -0.13530469 0.0036527892 0.045221485
-0.02521566 0.00994316 0.06976908 -0.17351218 0.15860291 0.14874332 -0.0659305 -0.03944556
-0.012077778 0.023904502 0.084724255 -0.068937615 0.06631827 -0.11274693 -0.10069297 0.029631007
-0.16100918 0.14265256 -0.06089108 -0.021590665 0.038262863 0.049129274 0.08934677 -0.09260111
0.115360446 -0.12263918 -0.20072207 0.010451734 -0.06516437 -0.08269206 0.099654585 0.014101497
0.0064608706 -0.026972841 0.015411423 -0.021935282 0.0076945666 -0.09388974 -0.0034934042 -0.12499903
0.0042510084 0.106282935 0.17475933 0.040575966 -0.03962447 0.0066523263 0.047798447 -0.042060032
00000000: 75ab 54bd 5ee2 fe3d d95c 81bd 3358 05be
00000010: f997 f6bd c699 ae3c 0557 2ebe eef0 533d
00000020: 03f9 07be 704a 423b b32c 223a cbc9 a83c
00000030: ab87 3ebd 0a38 68bd 1dc9 12be abc2 d7bc
00000040: 3a87 e83c 72a7 44bc 8d83 4c3d e35e ff3d
00000050: ce78 1b96 4b18 cfbd e02a 383d 527e 14bc
00000060: bc67 bcbc fac7 0fbe 6e6b 2bbe 1c73 ea3d
00000070: 6059 20bd 05af d93b aab3 ac3d 14d4 01bc
00000080: 80f0 a33d 59c7 03bb 5c86 eabc 3793 13be
00000090: 9f44 bd3d 2940 643d 83d2 48bd 28d3 283e
000000a0: e70e e8bd e614 133b 9ee7 d83b 7807 003c
000000b0: d532 fc3d 8c86 0c3e 74d8 85bc 7532 583d
000000c0: 342b db3d 1aa1 aebd dcfc c43c 07c3 7b3e
000000d0: cb70 16be 8bf0 b23b c6c7 9c3d 3c91 023e
000000e0: 90e8 5fbe d2ea 103d 3fc8 eb3d ba03 453c
000000f0: cd94 aa97 bb89 5c3e 01d3 fcba 6510 ffbd
00000100: 2623 cdbc 9c9c a83c 2f80 083d 80f5 ff3b
00000110: 8bea 97bc 300f 9a3c 9b4f 58bc de10 86bd
00000120: 3d30 3f3c 4e5e 1b3d eae3 c73c 0c44 be3d
00000130: f936 5e3e 22a5 853e 54b4 0d3d 4951 ed3b
00000140: c5bc a83c b063 6c3d 4a60 16bd bbd3 dcbc
00000150: 951a 65bd 6e97 c43d 386f 023e beee 643d
00000160: d238 1a3e f4d4 0fbd bac8 7ebc ebfa e33d
00000170: aa62 1d3c 4b4c f2bc 6334 babd 9667 d43d
00000180: 1915 623d eb7a 93bd 610e 33be c2a9 663d
00000190: 99b0 6a3c f29d e4b9 df43 293e fdbd 0ebc
000001a0: a4a3 be3d 284e fd3b cff4 953d f3de 2ebd
000001b0: cca9 0a3e ce4a 533d 5baf 2dbd a31b 823c
000001c0: d280 043d 4990 3d39 1d84 bd3d 0e31 ba3d
000001d0: 81c6 0d3e 8fca 603d 1a17 073d 56f1 6ebc
000001e0: 5a42 55bd 3738 65bd 91c0 bcbd 778c 2a3d
000001f0: 89a2 013e 5747 9fbd 34b9 8d3d 9f67 20bb
00000200: d5c7 423e 7fcd 743d a36d d3bd 18ed 303e
00000210: 5dcf 01be 0b5a b93c 2508 1e3d b6eb a73c
00000220: a1ab 283e 7742 c5bc f1e3 073d f818 ef3d
00000230: 9e10 7cbd 78ef 823c aaf8 6fbd 2abb 1dbd
00000240: 8468 d3bb 302a ba27 35c1 22be ef14 72bd
00000250: b54f 963c 09b7 9c3c 6e71 f6bc 5649 71bc
00000260: c25c 2bbd 1b38 903d b99e a9bd dc84 1b3e
00000270: 5012 ef3c f5da e43d d6b8 2fbd 6e8c 8dbd
00000280: a425 e13d 2420 54bb 6b32 e4bc d756 5e3b
00000290: 508c d9bc 29ae 95bd ee28 3d3d fc0f efbc
000002a0: 8517 fabd e8b8 d0bb 5c0c 93bd 9336 dab9
000002b0: e3ca f03d 663a d43d ab86 43bd eec7 9fbc
000002c0: 1d7f ce3d 94dc 0c3e 6158 f43c fa56 3dbd
000002d0: 48d9 8e3c b478 f8bc a6db 30bd 92ce a53d
000002e0: bddf e93a 5f05 2ab9 695b f0bd b481 edbd
000002f0: 0e4d 043e baa6 19be d6d8 9039 861f c53c
00000300: adeb 9bbd 32a1 35bd 40a0 873d 074f 70bd
00000310: 5f49 01be 09de 56bd ad57 173d 2ed1 0ebc
00000320: 4c94 c8bc a601 3ebb 9f6e 843d 900f e3bd
00000330: ed5e 953c 508d 0abe a263 6f3b 2a3a 393d
00000340: 1291 cebc a3e8 223c 17e3 8e3d 2dad 31be
00000350: cd68 223e 2b50 183e 9206 87bd ab91 21bd
00000360: dfe1 45bc 60d3 c33c e983 ad3d 2a2f 8dbd
00000370: e0d1 873d dde7 e6bd 1e38 cebd babc f23c
00000380: 97df 24be 8313 123e ed68 79bd e8de b0bc
00000390: 85b9 1c3d c73b 493d 70fb b63d a7a5 bdbd
000003a0: 1942 ec3d 402a fbbd 168a 4dbe c03d 2b3c
000003b0: e674 85bd 745a a9bd b417 cc3d f709 673c
000003c0: b6b5 d33b 26f6 dcbc 3180 7c3c 9fb1 b3bc
000003d0: b422 fc3b 4449 c0bd 99f1 64bb 7eff ffbd
000003e0: 0b4c 8b3b deaa d93d 1cf4 323e fc32 263d
000003f0: 454d 22bd c2fb d93b 4ec8 433d 2447 2cbd

gat_net.1.scoring_fn_target f4 [1, 1, 7]
-0.08568144 0.0025232346 -0.043537486 0.04458718 0.026082978 -0.049019977 -0.055633202
00000000: c079 afbd da5c 253b 5d54 32bd 0ca1 363d
00000010: f8ab d53c 2cc9 48bd a4df 63bd

gat_net.1.scoring_fn_source f4 [1, 1, 7]
0.028285038 0.14693658 0.03763544 0.07492074 0.14524615 0.021240013 0.06435325
00000000: 06b6 e73c 8b76 163e 9e27 1a3d 0c70 993d
00000010: 68bb 143e 89ff ad3c a3cb 833d

gat_net.1.bias f4 [7]
0.022954412 -0.08958112 0.01746338 0.011178924 -0.08780168 0.0367774 0.07971782
00000000: e40a bc3c 4e76 b7bd 5d0f 8f3c ce27 373c
00000010: 5ed1 b3bd e6a3 163d 1943 a33d

gat_net.1.linear_proj.weight f4 [7, 64]
-1.2397186 0.2696842 -1.0381479 -0.35272658 -1.2368858 -0.22722508 0.8743942 -0.5735676
0.3930374 0.3615641 0.30163646 0.73889655 0.30515662 -1.0038836 -0.53351754 0.1883825
0.8944544 0.65485334 0.77599835 0.058312196 -0.5767922 0.0062281387 -0.919537 -0.6750533
0.5576634 -0.10052435 0.8428292 0.46894702 -1.0094292 -0.43985584 -0.6893579 0.09497826
-1.0380566 -0.053352147 0.7764772 0.17321232 -0.78767204 -0.09530958 -0.49350536 -0.034799006
-0.10555974 -0.39099336 0.0055605955 0.8199228 -1.3316911 -0.9841152 -0.6537648 -0.5935498
-0.7217028 -0.5611305 -1.0872709 -0.9869717 0.66377866 0.42137784 -0.41991386 -0.14477138
-1.0673485 -0.34911552 0.73394495 -0.7247256 -0.68065435 0.9402177 -0.6418799 -0.32751152
0.19875112 -1.1499413 0.060769346 0.6628351 -0.09817611 0.5156513 0.10432469 -0.78562164
-0.43975914 0.28219417 0.326602 -0.9112047 -1.1618932 0.24746594 0.2663668 -0.81195897
-0.96351016 0.39042714 0.4582596 0.33748046 0.6554889 0.2020782 -0.9469877 0.5718338
0.5818459 -0.8573827 -0.07405928 0.85743135 0.41459098 -1.0301213 0.74417615 0.33658823
0.5642614 0.69010335 0.07631541 -1.187483 -0.8765502 0.046672944 0.9267351 -0.8305905
0.9166317 0.15848774 0.49986824 -0.98476523 -0.15435033 -0.769171 -0.4708748 1.0512364
-0.108096056 -1.2140602 -0.9091527 0.6243209 -0.7146506 0.70116895 0.8876888 0.41736075
-0.9813105 -0.21662897 -0.33122626 0.5756247 0.15872481 0.08013279 0.759657 -1.3115404
-0.29834884 0.34162545 0.4098081 -1.0382288 0.7393205 -0.013645609 -0.7205607 0.7164493
0.22138172 -0.87289006 -1.4770797 -0.5749979 0.6063772 -1.067345 -0.73865247 0.53735596
-0.7904927 0.51478803 -0.82422644 -1.2373718 0.50644445 1.2724838 0.66552067 -0.9923261
-0.9170435 1.0322903 -0.93257326 0.6387355 -0.008862034 0.15558302 -1.2473863 0.6722284
-0.3901856 -1.066267 0.089519106 -0.3146694 -0.7043864 0.44284987 -0.930071 -1.3774176
1.27435 -0.8259309 -1.3041352 0.11576116 0.5379565 0.66998404 1.2071636 0.5018274
1.0029974 0.49319404 0.30612156 0.5026067 -0.740151 -0.6620614 0.59999055 -0.12871793
-0.65846974 -0.72240216 -1.3382779 0.5992942 0.9549949 0.35423052 -0.91709894 -0.10151539
0.1487637 -1.2763375 -0.6652051 -0.97429955 -1.136906 -0.57899445 0.47803703 -0.585518
-1.2234406 -0.9824147 0.08640328 0.8767419 -1.2506876 -0.44873458 1.2721807 0.1883141
0.6535976 -0.8721283 0.78281826 -1.0157222 0.4980018 -0.031868003 -0.13198383 0.898901
-1.1819714 -0.60827583 0.22585464 1.0632776 0.5147703 0.86232173 -0.052047264 -1.1988246
0.11598534 -0.7049597 -1.1018603 0.6580123 -0.72078604 -1.523799 -0.75628895 0.2218612
0.017406395 -0.72711474 -0.27458435 0.69027454 0.58201104 0.02890213 -0.2709004 0.81152964
-0.6636341 0.47874847 0.13059334 0.43471554 -0.24352112 -0.43328398 0.9255006 -0.31566846
0.7294397 0.7059107 0.5024398 -0.69289446 0.7318401 -0.88146824 -0.22896948 0.41020593
00000000: 19af 9ebf 0c14 8a3e 08e2 84bf 9498 b4be
00000010: 4652 9ebf b1ad 68be 4cd8 5f3f 54d5 12bf
00000020: 333c c93e ee1e b93e 1870 9a3e 5328 3d3f
00000030: 7d3d 9c3e 427f 80bf 9b94 08bf 58e7 403e
00000040: f7fa 643f 78a4 273f d4a7 463f c5d8 6e3d
00000050: a7a8 13bf 6a15 cc3b c766 6bbf 4bd0 2cbf
00000060: 07c3 0e3f b6df cdbd a8c3 573f d319 f03e
00000070: fa34 81bf c934 e1be c279 30bf f683 c23d
00000080: 0adf 84bf c887 5abd 36c7 463f 925e 313e
00000090: e0a4 49bf ab31 c3bd bcac fcbe 6789 0ebd
000000a0: b42f d8bd 4830 c8be a835 b63b 76e6 513f
000000b0: db74 aabf f9ee 7bbf 215d 27bf e1f2 17bf
000000c0: 84c1 38bf 40a6 0fbf b12b 8bbf 2daa 7cbf
000000d0: 66ed 293f d6be d73e f3fe d6be f33e 14be
000000e0: e09e 88bf 45bf b2be d1e3 3b3f 9e87 39bf
000000f0: 5d3f 2ebf 1bb2 703f 3e52 24bf 97af a7be
00000100: 6a85 4b3e 4731 93bf 47e9 783d 90af 293f
00000110: 8e10 c9bd b901 043f 2fa8 d53d 801e 49bf
00000120: 1c28 e1be c17b 903e 6138 a73e b644 69bf
00000130: ebb8 94bf b667 7d3e 3b61 883e 8bdc 4fbf
00000140: 9aa8 76bf 11e6 c73e 01a1 ea3e 3dca ac3e
00000150: 1fce 273f 96ed 4e3e c96d 72bf b363 123f
00000160: daf3 143f 6f7d 5bbf 64ac 97bd 9f80 5b3f
00000170: 4545 d43e 04db 83bf 5482 3e3f 4b55 ac3e
00000180: 6f73 103f 9daa 303f 414b 9c3d 71ff 97bf
00000190: 9865 60bf 212c 3f3d 833e 6d3f 94a1 54bf
000001a0: 60a8 6a3f 9c4a 223e bbee ff3e 9319 7cbf
000001b0: 030e 1ebe 64e8 44bf 8016 f1be ea8e 863f
000001c0: 7761 ddbd 5366 9bbf 3bbe 68bf 7fd3 1f3f
000001d0: 57f3 36bf cf7f 333f 933f 633f 4fb0 d53e
000001e0: 2a37 7bbf fcd3 5dbe 7d96 a9be 245c 133f
000001f0: c288 223e a91c a43d e278 423f 8ee0 a7bf
00000200: 2ec1 98be 88e9 ae3e 5ed2 d13e aee4 84bf
00000210: 1c44 3d3f d591 5fbc ab76 38bf 3969 373f
00000220: e4b1 623e b975 5fbf f310 bdbf 1033 13bf
00000230: 893b 1b3f c39e 88bf 5418 3dbf 2990 093f
00000240: bb5d 4abf 26c9 033f 8100 53bf 3362 9ebf
00000250: 58a6 013f c0e0 a23f 905f 2a3f 1509 7ebf
00000260: 5dc3 6abf 1722 843f 1fbd 6ebf 2b84 233f
00000270: 1132 11bc 2851 1f3e 5baa 9fbf 2917 2c3f
00000280: 68c6 c7be 707b 88bf cb55 b73d 591c a1be
00000290: ab52 34bf 38bd e23e 2219 6ebf 384f b0bf
000002a0: e71d a33f 3570 53bf e7ed a6bf 3014 ed3d
000002b0: 84b7 093f 1384 2b3f 5684 9a3f c377 003f
000002c0: 3862 803f ee83 fc3e f7bb 9c3e d5aa 003f
000002d0: 897a 3dbf db7c 29bf fb98 193f a2ce 03be
000002e0: 7991 28bf 59ef 38bf b14c abbf 586b 193f
000002f0: 8c7a 743f b45d b53e ffc6 6abf 4de7 cfbd
00000300: 8355 183e 075f a3bf e24a 2abf b26b 79bf
00000310: 2386 91bf fb38 14bf 45c1 f43e 82e4 15bf
00000320: b499 9cbf 887f 7bbf 34f4 b03d 2872 603f
00000330: 8816 a0bf 8ac0 e5be d1d6 a23f 69d5 403e
00000340: 2c52 273f cd43 5fbf c766 483f 2f03 82bf
00000350: 18fa fe3e 0688 02bd c526 07be 601e 663f
00000360: d74a 97bf f7b7 1bbf 7046 673e 7b19 883f
00000370: fdc7 033f 1ec1 5c3f 832f 55bd 1673 99bf
00000380: b989 ed3d 3d78 34bf c209 8dbf 7e73 283f
00000390: 6f85 38bf d80b c3bf 279c 41bf 952f 633e
000003a0: db97 8e3c 3124 3abf 5296 8cbe d5b5 303f
000003b0: adfe 143f 29c4 ec3c 75b3 8abe 68c0 4f3f
000003c0: ede3 29bf 851e f53e 43ba 053e 0993 de3e
000003d0: 9a5d 79be 66d7 ddbe 9bed 6c3f 4c9f a1be
000003e0: 8fbc 3a3f 90b6 343f e59f 003f 8861 31bf
000003f0: df59 3b3f e7a7 61bf fa76 6abe 8306 d23e
