python/binarypath/checkpoints/gat_ckpt_epoch_1000.pth (torch, 372431 bytes, 8 tensors)

gat_net.0.scoring_fn_target f4 [1, 8, 8]
0.12002627 -0.011111676 -0.036801353 -0.028559783 0.10405832 0.18434788 0.026757663 -0.097354956
0.057829745 0.06336554 -0.07788616 0.03549694 -0.027470643 0.010508157 0.03191045 -0.019462537
0.0699908 -0.051236235 -0.09816835 0.029735895 -0.11145646 -0.013402653 0.05528515 -0.08917743
0.016297393 -0.05536851 0.05470946 0.003766091 -0.05560069 -0.083408356 0.11343159 0.050501574
0.09014676 -0.013652804 -0.15097404 -0.080258906 -0.021549297 0.11943223 -0.00048246866 0.05268847
0.05720391 -0.11231802 0.097538225 0.051532123 -0.06652639 -0.052063435 0.13343115 0.09278177
0.08432601 0.017626606 -0.07188145 -0.024429062 0.06590807 -0.009200191 -0.01974709 0.08222223
0.06745013 -0.072308995 -0.008510384 -0.11078063 0.039092317 0.031944178 -0.18082254 0.025931608
00000000: 55d0 f53d bf0d 36bc 04bd 16bd 35f6 e9bc
00000010: 871c d53d b1c5 3c3e e332 db3c 0962 c7bd
00000020: e2de 6c3d cbc5 813d c782 9fbd 3d65 113d
00000030: 1d0a e1bc 682a 2c3c 88b4 023d e66f 9fbc
00000040: 5657 8f3d 16dd 51bd 7d0c c9bd b198 f33c
00000050: 4943 e4bd cd96 5bbc ae72 623d a8a2 b6bd
00000060: 1c82 853c 17ca 62bd 0717 603d 86d0 763b
00000070: 8dbd 63bd 00d2 aabd d24e e83d bdda 4e3d
00000080: dd9e b83d 03b0 5fbc f098 1abe c85e a4bd
00000090: 2788 b0bc e398 f43d d9f3 fcb9 ddcf 573d
000000a0: a64e 6a3d fd06 e6bd 1fc2 c73d 5913 533d
000000b0: fd3e 88bd 7840 55bd 2da2 083e 5e04 be3d
000000c0: 1db3 ac3d ac65 903c 9536 93bd 751f c8bc
000000d0: cffa 863d 66bc 16bc a6c4 a1bc 2164 a83d
000000e0: 4b23 8a3d bd16 94bd 236f 0bbc f4e0 e2bd
000000f0: 441f 203d e6d7 023d 8b29 39be 866e d43c

gat_net.0.scoring_fn_source f4 [1, 8, 8]
0.300655 -0.26808298 0.03796471 -0.18819147 -0.01653731 0.011017856 0.045841828 -0.22921656
0.17027669 0.2615369 -0.17893586 -0.057671018 0.019302664 0.103972405 0.41255334 0.09781234
0.338736 -0.14110346 0.07501985 0.16776751 -0.19482853 -0.04220131 0.061942384 -0.29531655
0.054122694 0.057413924 0.0059585343 0.080670655 0.014940699 0.022101408 0.20240986 0.23810366
0.38760483 -0.10407009 -0.3716653 -0.044676945 -0.17080894 0.1414561 -0.19447431 0.3321534
0.28858373 -0.2738192 0.3902351 0.29871833 -0.026915241 -0.14973477 0.25661692 0.17732206
0.4026109 0.101909414 -0.106454045 -0.08224795 0.20902818 -0.009961288 -0.17397897 0.3626706
-0.147672 0.34184235 -0.13540821 -0.24417606 -0.025352953 -0.06518257 -0.21524744 -0.24037871
00000000: 74ef 993e 2c42 89be e280 1b3d 44b5 40be
00000010: 4179 87bc 3d84 343c a4c4 3b3d bfb7 6abe
00000020: 035d 2e3e 2ae8 853e f63a 37be 7238 6cbd
00000030: 9f20 9e3c 7cef d43d 313a d33e d651 c83d
00000040: ce6e ad3e 6d7d 10be 02a4 993d 3fcb 2b3e
00000050: 2181 47be 48db 2cbd 4cb7 7d3d bb33 97be
00000060: c2af 5d3d dd2a 6b3d cf3f c33b a836 a53d
00000070: d5c9 743c 030e b53c 8844 4f3e 72d1 733e
00000080: 2474 c63e b322 d5bd ea4a bebe 2cff 36bd
00000090: 8ae8 2ebe ded9 103e 4624 47be 0310 aa3e
000000a0: 3fc1 933e 0832 8cbe e5cc c73e 9cf1 983e
000000b0: 5a7d dcbc 1254 19be 4b63 833e ea93 353e
000000c0: 0423 ce3e e2b5 d03d 9404 dabd 9d71 a8bd
000000d0: 7c0b 563e ac34 23bc 8b27 32be f6af b93e
000000e0: 5437 17be f605 af3e 73a8 0abe 4a09 7abe
000000f0: ffb0 cfbc 707e 85bd d369 5cbe d625 76be

gat_net.0.bias f4 [64]
0.020907417 0.01796744 0.018859617 0.023391942 0.02411139 0.01235053 0.029404718 0.020555265
0.031491317 0.0005135864 0.018488755 0.02020365 0.028645601 0.017820694 0.044324256 -0.011055202
0.005563547 0.02063081 0.0033586272 0.04798964 0.002992131 0.04555894 0.019448359 0.032165404
-0.00077731383 0.026621198 -0.0034853017 0.035467166 0.0029507233 0.02081055 -0.025195468 0.012526397
0.018684993 0.016728556 -0.00801935 0.03291112 0.004907847 0.012889737 0.007518004 0.0041440274
0.035906006 0.021522785 -0.008462107 0.012311583 -0.00047039226 0.028428659 0.012811994 0.016260933
0.030308623 -0.003136948 0.08042909 0.019671913 0.03102403 0.0061513353 0.04892951 0.010780921
0.023332499 0.06254686 0.005040982 0.020241577 0.00051340775 -0.0055253296 0.055712584 0.01925734
00000000: 0846 ab3c 7430 933c 7c7f 9a3c 75a0 bf3c
00000010: 4085 c53c e159 4a3c 2ae2 f03c 8463 a83c
00000020: 0afd 003d 33a2 063a bb75 973c 2082 a53c
00000030: 2eaa ea3c b4fc 913c 5a8d 353d e120 35bc
00000040: 6a4e b63b f201 a93c 6a1c 5c3b c990 443d
00000050: a117 443b 039c 3a3d 2a52 9f3c dfbf 033d
00000060: a6c4 4bba b314 da3c a969 64bb 0546 113d
00000070: ec60 413b e37a aa3c ba66 cebc 843b 4d3c
00000080: 4511 993c 530a 893c 9763 03bc d0cd 063d
00000090: 01d2 a03b 7a2f 533c 9759 f63b 9fca 873b
000000a0: 2d12 133d 8d50 b03c a6a4 0abc 86b6 493c
000000b0: fb9e f6b9 38e3 e83c 66e9 513c a635 853c
000000c0: ca49 f83c 4195 4dbb 02b8 a43d fe26 a13c
000000d0: 1b26 fe3c 2491 c93b 4f6a 483d 76a2 303c
000000e0: cc23 bf3c 9118 803d d22e a53b aad1 a53c
000000f0: 3696 063a d30d b5bb e132 643d 92c1 9d3c

gat_net.0.linear_proj.weight f4 [64, 1433]
0.08372078 0.1771693 0.08510293 0.029806037 -0.08305708 -0.0894819 0.03813993 0.08856318
0.033015236 0.07652888 0.051734436 0.10225729 0.015602347 -0.039039623 0.068198346 0.07566407
0.046392523 0.023217497 -0.08845158 0.043631528 -1.0058666e-24 -0.021725124 -0.018018061 0.026182948
-0.013792972 -0.060171913 0.002420578 0.084067784 0.013673067 -0.0735319 -0.094923034 -0.00040997268
-0.023398068 -0.007937256 -0.061175637 0.016801655 0.113034725 0.04257322 0.21018879 0.07262371
-0.08335426 0.032681976 -0.009248145 0.022973951 0.17436716 -0.022899725 0.0017176825 -0.079328954
-0.13260935 -0.0032170978 -0.15350555 0.084205344 -0.14309378 0.017977502 -0.08060142 0.048069604
-0.13969606 -0.04068273 0.12687172 0.074978165 -1.3794076e-25 0.11615432 -0.09694955 -0.13444512
0.048944034 0.1685988 -0.062333144 -0.10817803 0.052326612 -0.020976411 -0.039146684 -0.045314554
-0.024616249 -0.032156322 -0.053388163 -0.12122447 -0.0926196 0.18542774 -0.04803959 -0.016527027
0.1393346 -0.14146173 0.059362713 0.00020027829 -0.089225985 -0.14944774 -0.051217016 -0.0010073534
0.09958327 0.18315388 0.0021835177 -0.056513697 0.15160696 -0.088606924 -0.028865483 0.14619412
-0.019173639 0.15641615 -0.14527445 0.24081218 -0.001510331 -0.0314028 0.06590136 -0.14893354
0.08019025 -0.02839604 -0.040410195 -0.009040302 0.0009251449 -0.101588234 -0.056869216 0.06541351
-0.052551996 0.011661417 -0.045858018 0.053674303 -0.0113292625 0.0030980285 0.2755678 -0.026547605
0.027281055 -0.0986349 -0.033837803 -0.09448946 0.002406001 0.09381023 0.12957448 0.080420844
0.07187812 0.11928936 0.07060017 0.05898724 -0.07633213 -0.07257192 0.035528846 0.0589989
0.041579295 -0.030315183 -0.039675012 -0.015681004 0.37506062 -0.003601778 -0.04596974 -0.07109676
0.0010553468 6.2134264e-25 -0.08787689 -0.09695561 0.010028786 0.122304164 -0.0467569 0.09514981
0.08435582 0.15235297 0.02051143 0.08013091 0.023951782 0.055533074 0.0214264 0.095546775
-0.09627877 -0.044166956 0.055676766 0.08991634 0.06174319 0.031746276 0.022415029 0.016229225
0.03705474 0.002682661 -0.008568277 0.024454037 0.12930687 0.060236573 -0.1870511 -0.00915175
-0.037999462 0.03461744 -0.13331969 -0.12597631 -0.015687091 0.0167884 0.07548843 -0.012315963
0.004718048 0.0017317282 0.04391839 0.073321134 -0.024154704 -0.027503354 -0.045410905 -0.02467609
0.008768691 -0.011143671 -0.11238848 0.016040973 0.07020637 0.073113 0.12041637 0.04436246
0.0004843811 -0.025639135 0.009903979 -0.0029864837 -0.021564417 0.020541415 0.009024683 0.03793148
-0.008572236 0.035079792 0.039253432 0.07943426 0.15530808 0.05932543 -0.18846732 -0.016759364
0.01606956 -0.091900475 -0.10354019 -0.019832538 -0.070133284 -0.022751754 -0.026279738 0.021427607
-0.07533168 0.048185807 -0.022756178 0.022101164 -0.033585615 0.031700205 -0.048206266 0.0037209438
-0.014048921 -0.13026325 -0.079162166 0.037917525 0.033635512 0.0017009347 -0.101292886 -0.006888333
0.049237218 -0.0335889 0.02910247 -0.0359468 -0.057426825 -0.022437273 0.0015728842 -0.1333132
-0.06794366 -0.04549764 0.30333763 0.014284183 0.01518689 -0.032162737 0.106800966 0.009030801
00000000: cd75 ab3d de6b 353e 724a ae3d ca2b f43c
00000010: d519 aabd 4942 b7bd 9e38 1c3d 9d60 b53d
00000020: fc3a 073d 2cbb 9c3d 7de7 533d 456c d13d
00000030: fda0 7f3c 03e8 1fbd 93ab 8b3d c4f5 9a3d
00000040: 1606 3e3d 9f32 be3c 1a26 b5bd f9b6 323d
00000050: 7ba6 9b97 e3f8 b1bc 9d9a 93bc 9f7d d63c
00000060: ebfb 61bc d376 76bd 8fa2 1e3b bb2b ac3d
00000070: 0005 603c e597 96bd 0267 c2bd 9af1 d6b9
00000080: 4ead bfbc 440b 02bc 4e93 7abd a0a3 893c
00000090: c07e e73d 4261 2e3d bb3b 573e bdbb 943d
000000a0: a3b5 aabd 89dd 053d 8885 17bc de33 bc3c
000000b0: 4e8d 323e 3498 bbbc dc23 e13a 3877 a2bd
000000c0: bfca 07be f2d5 52bb 8f30 1dbe da73 ac3d
000000d0: 2d87 12be 8e45 933c 5b12 a5bd a2e4 443d
000000e0: 7c0c 0fbe efa2 26bd a9ea 013e 278e 993d
000000f0: 2cc3 2a96 51e2 ed3d 7c8d c6bd fbab 09be
00000100: 8a79 483d 2aa5 2c3e 0a51 7fbd 718c ddbd
00000110: 6e54 563d b9d6 abbc 4658 20bd c19b 39bd
00000120: 04a8 c9bc 59b6 03bd 8cad 5abd 8944 f8bd
00000130: 58af bdbd c5e0 3d3e 29c5 44bd b063 87bc
00000140: bbad 0e3e 58db 10be 5126 733d cb01 5239
00000150: 1dbc b6bd d408 19be efc8 51bd 2c09 84ba
00000160: 50f2 cb3d b18c 3b3e 5919 0f3b e87a 67bd
00000170: db3e 1b3e 8c77 b5bd 4e77 ecbc e9b3 153e
00000180: 0912 9dbc 8e2b 203e d3c2 14be 7897 763e
00000190: 4df6 c5ba 39a0 00bd 4bf7 863d 0982 18be
000001a0: c93a a43d d09e e8bc 2985 25bd c61d 14bc
000001b0: 6c85 723a 7e0d d0bd b2ef 68bd 85f7 853d
000001c0: c340 57bd 870f 3f3c 9ed5 3bbd 96d9 5b3d
000001d0: 5f9e 39bc 4b08 4b3b 3917 8d3e 5d7a d9bc
000001e0: 857c df3c 1801 cabd 8299 0abd b183 c1bd
000001f0: 00ae 1d3b 941f c03d 2caf 043e afb3 a43d
00000200: d634 933d fb4d f43d d296 903d 9b9c 713d
00000210: 0554 9cbd 96a0 94bd b286 113d d5a8 713d
00000220: 0d4f 2a3d 8c57 f8bc 4482 22bd 7375 80bc
00000230: f207 c03e cf0b 6cbb c44a 3cbd 2e9b 91bd
00000240: 9053 8a3a d64b 4017 cdf8 b3bd aa90 c6bd
00000250: c74f 243c 9b7a fa3d 2a84 3fbd e7dd c23d
00000260: bfc2 ac3d 6b02 1c3e 9607 a83c ad1b a43d
00000270: 8736 c43c a676 633d 6b86 af3c 07ae c33d
00000280: ce2d c5bd 69e8 34bd 520d 643d 0f26 b83d
00000290: 6de6 7c3d 6208 023d b99f b73c 27f3 843c
000002a0: b6c6 173d 95cf 2f3b f561 0cbc d553 c83c
000002b0: 0569 043e a0ba 763d 538a 3fbe 39f1 15bc
000002c0: 53a5 1bbd 04cb 0d3d f584 08be efff 00be
000002d0: 3782 80bc d487 893c ae99 9a3d e5c8 49bc
000002e0: db99 9a3b 28fb e23a c5e3 333d 6429 963d
000002f0: 16e0 c5bc b74e e1bc c900 3abd 8325 cabc
00000300: 8eaa 0f3c f293 36bc ee2b e6bd 5c68 833c
00000310: 5bc8 8f3d 45bc 953d dc9c f63d 69b5 353d
00000320: 88f4 fd39 2a09 d2bc 4c44 223c e2b8 43bb
00000330: dca7 b0bc 7846 a83c 44dc 133c 0a5e 1b3d
00000340: 9072 0cbc d4af 0f3d 35c8 203d 6eae a23d
00000350: 1509 1f3e 39ff 723d 94fd 40be ef4a 89bc
00000360: 4fa4 833c 5136 bcbd e10c d4bd d977 a2bc
00000370: 0aa2 8fbd e361 babc 9b48 d7bc f388 af3c
00000380: 7f47 9abd 7b5e 453d 2a6b babc 800d b53c
00000390: 1291 09bd 13d8 013d ef73 45bd 14db 733b
000003a0: 722d 66bc bb63 05be c61f a2bd 684f 1b3d
000003b0: 64c5 093d e6f1 de3a a572 cfbd 86b7 e1bb
000003c0: f7ac 493d 8494 09bd 4e68 ee3c f43c 13bd
000003d0: 6438 6bbd 5fce b7bc 3c29 ce3a 4183 08be
000003e0: 0c26 8bbd bc5b 3abd 124f 9b3e 3508 6a3c
000003f0: 6fd2 783c 13bd 03bd 77ba da3d edf5 133c

gat_net.1.scoring_fn_target f4 [1, 1, 7]
-0.0035078935 0.13106456 -0.057067234 0.038700186 0.0048607658 -0.045319933 -0.077985846
00000000: b0e4 65bb ca35 063e 55bf 69bd 1684 1e3d
00000010: 0f47 9f3b 65a1 39bd 0bb7 9fbd

gat_net.1.scoring_fn_source f4 [1, 1, 7]
0.1233548 0.1513221 0.024200447 0.079697125 0.085101515 0.061524596 0.012008839
00000000: 71a1 fc3d 2ef4 1a3e 0440 c63c 3f38 a33d
00000010: b449 ae3d 3701 7c3d b9c0 443c

gat_net.1.bias f4 [7]
0.015906487 -0.14204004 -0.026535578 0.015496022 -0.029187407 0.038365003 0.09948499
00000000: 524e 823c f272 11be 2461 d9bc 07e3 7d3c
00000010: 6e1a efbc 9f24 1d3d c9be cb3d

gat_net.1.linear_proj.weight f4 [7, 64]
-0.5523448 0.12481467 0.26039842 0.6482498 0.03454387 -0.78463686 -0.10430741 0.6552267
0.28750497 0.44331086 -0.67156595 0.42945495 -0.17367055 0.53283626 -0.016120257 0.8087425
-0.76831305 0.5279635 0.5667266 0.20390911 0.40501153 -1.0502322 -0.8975088 0.43679997
-0.10989405 -0.7226857 -0.880875 -0.3196637 -0.7460605 -0.5606109 -0.3206581 0.7590902
-0.5119409 -0.71602225 -0.6265825 -1.4151714 -1.0256414 -0.65421414 0.26761043 0.7260715
-0.99880594 0.8758997 0.6789426 -0.89096093 0.2341237 0.42302844 0.28472555 -0.9240379
0.27130646 -0.3758067 0.07725621 0.103007145 -0.829932 0.20877242 -1.0923911 -0.5492135
-1.0640732 0.051051583 0.93435997 -0.043871373 -0.3042241 -0.8540249 0.3618764 -0.5901198
0.74209446 -0.9334069 -0.82013446 -1.0492805 0.57222146 0.76606137 -0.7815761 -0.8870961
0.6685587 0.7292328 0.42428797 -0.6637177 0.22005719 -0.0064725447 0.4355422 -0.8041823
0.6022659 -0.8242886 0.51675326 -0.9426391 -0.84716016 -0.55951446 -0.7389299 0.3779812
0.80888087 -0.6791466 0.51953155 0.61903536 0.7315295 -0.9100923 -0.8539549 0.6254456
0.5761769 0.6398461 -0.7745208 0.33602127 -0.5831437 0.89453274 -0.8993543 1.0222422
-0.6527663 -0.6866135 -0.6153087 0.8212734 0.5790957 0.32038334 0.49013257 0.6531496
0.23319952 -0.8788536 -0.5247436 0.23350394 0.20343685 -0.8706969 -1.2328708 0.28548834
-0.594948 -0.954106 -0.63566536 -0.7901938 -0.8668159 0.11859347 -1.0719588 -0.93660265
0.5514058 0.6677204 -0.9423548 -0.9007787 -0.61177254 -0.68183625 0.82517666 -0.9837611
-0.094364785 0.5187003 -0.27029026 0.27803764 -1.5861567 -0.8608177 0.15360649 0.37569347
0.40375522 -0.72622734 -0.70131177 0.69890064 -1.0951505 -0.3140389 0.20247695 -1.3166459
-0.67156124 0.8651451 0.9201064 0.53904283 -0.7493643 0.43576843 0.83363694 0.77619374
-1.2551559 -0.7452808 0.9453188 0.57993937 0.5008854 -0.38427788 -0.83019215 0.020737235
0.63287467 -0.43012494 0.7479353 0.011950307 -1.1758306 -1.1311592 0.30215737 -1.0879893
0.24760383 -0.58372086 -0.90551835 -1.0614996 0.9006571 0.19267052 -0.7270762 0.3776288
0.6782669 0.32706058 0.60724556 -0.8807215 0.85590696 -0.530859 -1.1601532 0.08205289
-0.9064822 -0.7867242 0.21593468 0.5178699 0.6713407 0.7918477 0.11908656 0.4693384
0.6491235 -0.56567687 -0.12046127 -0.9238728 -0.3729942 -0.85346305 -1.0982006 -0.95302796
0.23381935 0.84333676 -0.5614006 -0.26247796 -0.59335864 -0.13416475 0.85022616 -1.0952274
-0.58912295 -1.1625098 0.44325435 0.65019697 0.6077021 0.44891456 0.449676 -0.7228177
-0.8757329 1.1088488 0.29973957 0.5001904 -1.2592528 0.37171993 0.73727834 0.085658096
-0.9377713 0.7365613 -1.1822729 -0.85985607 0.50911725 -0.94526625 -1.3268428 -0.86218137
-1.438932 -0.24215178 0.14249876 0.81486464 0.3567495 -1.0360154 0.3348579 -1.3759267
0.7081647 -0.28266338 1.1681824 0.69198465 0.37148434 -0.20911518 0.23373531 0.47106448
00000000: 7866 0dbf d59e ff3d f152 853e b3f3 253f
00000010: df7d 0d3d f6dd 48bf 209f d5bd f0bc 273f
00000020: da33 933e a4f9 e23e bfeb 2bbf 85e1 db3e
00000030: b1d6 31be f567 083f a10e 84bc c009 4f3f
00000040: 2ab0 44bf 9e28 073f ff14 113f 8dcd 503e
00000050: ac5d cf3e 026e 86bf 23c3 65bf 3fa4 df3e
00000060: 2210 e1bd ee01 39bf 0681 61bf f6aa a3be
00000070: d2fd 3ebf 3284 0fbf 4c2d a4be bc53 423f
00000080: 8f0e 03bf 3c4d 37bf b667 20bf 5624 b5bf
00000090: 3848 83bf 947a 27bf 3c04 893e d2df 393f
000000a0: bfb1 7fbf f63a 603f 2fcf 2d3f 0416 64bf
000000b0: 20be 6f3e 2f97 d83e 8cc7 913e bf8d 6cbf
000000c0: aee8 8a3e bc69 c0be 8138 9e3d 69f5 d23d
000000d0: 6c76 54bf 70c8 553e 79d3 8bbf 4299 0cbf
000000e0: 8d33 88bf 771b 513d 3732 6f3f 78b2 33bd
000000f0: 43c3 9bbe 60a1 5abf dd47 b93e 1712 17bf
00000100: e7f9 3d3f c1f3 6ebf 55f4 51bf d34e 86bf
00000110: 1b7d 123f 991c 443f 5f15 48bf bb18 63bf
00000120: aa26 2b3f 00af 3a3f 463c d93e 67e9 29bf
00000130: ac56 613e a417 d4bb 63ff de3e e4de 4dbf
00000140: 192e 1a3f 9404 53bf f149 043f cc50 71bf
00000150: 7ddf 58bf 573c 0fbf 832a 3dbf c086 c13e
00000160: d112 4f3f 8ddc 2dbf 0500 053f 1a79 1e3f
00000170: 8445 3b3f cffb 68bf ca9c 5abf 341d 203f
00000180: 5480 133f f4cc 233f ff46 46bf fb0a ac3e
00000190: e848 15bf 1900 653f 153c 66bf d5d8 823f
000001a0: b11b 27bf e7c5 2fbf df84 1dbf f93e 523f
000001b0: 9e3f 143f 4909 a43e a8f2 fa3e d034 273f
000001c0: dbcb 6e3e 8dfc 60bf 9955 06bf a81b 6f3e
000001d0: c051 503e fee5 5ebf b6ce 9dbf 872b 923e
000001e0: 834e 18bf 4a40 74bf f7ba 22bf 244a 4abf
000001f0: a6e7 5dbf 22e1 f23d f235 89bf 31c5 6fbf
00000200: ee28 0d3f b9ef 2a3f 2a3e 71bf 6f99 66bf
00000210: 209d 1cbf d28c 2ebf c73e 533f c4d7 7bbf
00000220: 5342 c1bd 8bc9 043f 7c63 8abe f35a 8e3e
00000230: 2f07 cbbf 8c5e 5cbf 054b 1d3e e55a c03e
00000240: 01b9 ce3e 09ea 39bf 2b89 33bf 27eb 323f
00000250: e42d 8cbf b5c9 a0be 1e56 4f3e da87 a8bf
00000260: 70eb 2bbf 267a 5d3f 188c 6b3f b6fe 093f
00000270: 57d6 3fbf 0a1d df3e 3b69 553f a2b4 463f
00000280: f3a8 a0bf b9ca 3ebf 6a00 723f e876 143f
00000290: 073a 003f 12c0 c4be 7987 54bf 22e1 a93c
000002a0: 1304 223f 5639 dcbe b078 3f3f 38cb 433c
000002b0: 9e81 96bf d3c9 90bf 5fb4 9a3e 3c43 8bbf
000002c0: dc8b 7d3e bb6e 15bf 0dd0 67bf 38df 87bf
000002d0: 7791 663f 6c4b 453e aa21 3abf 9058 c13e
000002e0: e6a2 2d3f 7c74 a73e 7274 1b3f f776 61bf
000002f0: b81c 5b3f 60e6 07bf e67f 94bf 580b a83d
00000300: 380f 68bf c266 49bf fb1d 5d3e 1f93 043f
00000310: fcdc 2b3f 88b6 4a3f a8e3 f33d 1f4d f03e
00000320: f52c 263f 33d0 10bf 66b4 f6bd ee82 6cbf
00000330: 19f9 bebe 8e7c 5abf d691 8cbf a4f9 73bf
00000340: 576e 6f3e ebe4 573f f3b7 0fbf 8363 86be
00000350: 5ae6 17bf 7c62 09be 6ca8 593f 6930 8cbf
00000360: c3d0 16bf 1fcd 94bf 3cf2 e23e 4f73 263f
00000370: 5d92 1b3f 21d8 e53e ef3b e63e 950a 39bf
00000380: 0830 60bf c2ee 8d3f 7777 993e 7a0c 003f
00000390: 322f a1bf 1352 be3e 46be 3c3f 836d af3d
000003a0: c811 70bf 488f 3c3f b854 97bf 871f 5cbf
000003b0: 8255 023f f8fc 71bf fcd5 a9bf ebb7 5cbf
000003c0: ec2e b8bf a3f6 77be 32eb 113e f89a 503f
000003d0: dfa7 b63e 279c 84bf 7f72 ab3e 5e1e b0bf
000003e0: 484a 353f 41b9 90be 0087 953f e825 313f
000003f0: 3233 be3e 4a22 56be 4f58 6f3e 5d2f f13e
